pinn_fiber_elasticity_new.pth (torch, 670260 bytes, 10 tensors)

net.0.weight f4 [128, 2]
0.14778656 0.4258876 -0.4514536 0.054990973 -0.23509096 -0.02195036 0.19463709 -0.12662733
0.48817265 -0.5539775 -0.13295329 -0.0922684 0.68726337 0.4327028 -0.11923552 0.2829516
0.02568363 0.102540255 -0.12877138 -0.30140197 -0.6790092 0.61839956 -0.16540396 0.37556648
-0.11774586 0.535408 -0.267506 0.5250694 0.46458796 0.5302363 -0.038088486 0.025412442
0.69159245 0.12800358 0.4060246 0.6550729 -0.035520818 0.3483612 -0.2847898 -0.24380371
-0.4968129 -0.55988896 -0.6062247 0.23172808 -0.07574219 -0.13800798 -0.5883012 -0.08213664
0.23876683 0.21518403 -0.47651407 -0.12557065 0.39543784 0.28414166 -0.15019529 -0.27163365
-0.21338452 0.19555496 0.5569089 -0.470671 0.46098045 0.5855871 0.06660581 0.36930197
-0.08974958 -0.557064 0.39869314 -0.07942793 -0.5733841 -0.4126531 0.11289854 0.5668706
-0.67682844 0.40549266 0.5135496 0.1819544 0.23926316 0.045607857 0.18240409 0.51191777
-0.014398221 0.18969142 0.17723933 0.3671767 0.64035934 0.07179693 0.022974644 0.5955354
-0.090523414 0.57568294 -0.15050322 -0.66876733 0.07051632 0.01837203 0.52322215 0.5468115
-0.13351107 0.38362843 -0.28902054 -0.0266454 0.42313835 -0.15162663 -0.55179584 -0.67840993
0.072435424 -0.39335388 0.19598855 0.11723703 -0.49352065 0.5410189 -0.11953499 -0.15425058
-0.090098105 -0.5885298 0.4271171 -0.1534541 0.2271871 -0.18759891 0.085662216 0.5104271
-0.5508865 -0.44399345 -0.6111715 -0.5568068 0.66646653 0.44736254 -0.34690785 0.41791752
-0.551037 -0.24834353 -0.09968008 -0.023323335 -0.3671907 -0.52760375 -0.49958166 -0.29163238
-0.28817764 0.34115484 0.3111587 -0.21124373 0.090362236 0.45398045 0.21176846 0.24964589
0.34830117 -0.0287494 0.05982689 -0.62131274 -0.24461816 -0.38304442 -0.426337 -0.52001274
0.64368653 0.5692123 -0.5067045 0.23257232 0.5921068 0.39858043 0.023482408 -0.1588222
0.29593414 -0.009795425 -0.0044323723 -0.15470627 0.6561885 -0.5135216 0.19204731 0.10520859
-0.41460457 -0.20051502 -0.64855915 0.4282241 -0.25743574 0.4933244 0.12694891 0.3736126
-0.6072779 0.50387347 -0.24759178 0.3527794 -0.05824071 -0.061400153 -0.24447058 -0.028562674
-0.24473326 -0.65939265 0.48048633 -0.65349406 0.6735143 0.5719112 0.46197388 -0.5032481
0.28107488 -0.09893123 -0.51178575 0.021300772 -0.47636467 -0.23347145 0.54234684 0.41576764
-0.24864316 0.062443975 -0.17593488 -0.3970635 -0.605319 -0.54091007 0.1428872 -0.6110115
0.41651306 0.32234913 -0.1543223 -0.543436 -0.5414518 0.08271245 -0.30747023 0.093578495
0.6455745 -0.60452217 0.6445631 0.4030746 -0.4414586 0.64345604 0.5143387 -0.64597946
0.15835457 -0.6852895 -0.44358587 0.27358127 0.32095584 0.032881584 -0.14279506 0.5994457
0.562251 0.31810856 -0.114980675 -0.64961785 0.53083074 0.5497154 0.50637645 -0.4940098
0.5906145 0.1265414 0.02551324 0.59529847 -0.088891916 -0.22646807 0.26274326 -0.32895446
-0.22765535 -0.68597955 -0.11435334 0.0034261448 -0.52727294 -0.29672062 0.2989477 0.13283584
00000000: 5c55 173e f10d da3e ed24 e7be 373e 613d
00000010: afbb 70be 3ed1 b3bc f24e 473e 98aa 01be
00000020: c4f1 f93e 78d1 0dbf e824 08be 37f7 bcbd
00000030: 7ef0 2f3f 398b dd3e c131 f4bd 08df 903e
00000040: 7a66 d23c a000 d23d a5dc 03be 5c51 9abe
00000050: 8cd3 2dbf 6f4f 1e3f a85f 29be 404a c03e
00000060: be24 f1bd 8010 093f 8cf6 88be f36a 063f
00000070: 79de ed3e 91bd 073f ac02 1cbd c12d d03c
00000080: 340c 313f 5f13 033e 75e2 cf3e dcb2 273f
00000090: 477e 11bd 665c b23e f8cf 91be aea7 79be
000000a0: 435e febe e254 0fbf 8b31 1bbf 204a 6d3e
000000b0: b91e 9bbd f751 0dbe e89a 16bf 4137 a8bd
000000c0: 4b7f 743e 3459 5c3e a7f9 f3be 9895 00be
000000d0: d476 ca3e 047b 913e cbcc 19be 9113 8bbe
000000e0: 7981 5abe 8f3f 483e 9591 0e3f cafb f0be
000000f0: a105 ec3e 09e9 153f a068 883d 2615 bd3e
00000100: a1ce b7bd bf9b 0ebf 8221 cc3e 1cab a2bd
00000110: 4dc9 12bf 4447 d3be 5a37 e73d 6f1e 113f
00000120: a144 2dbf bc9c cf3e fd77 033f 4152 3a3e
00000130: 6701 753e 4ecf 3a3d 23c8 3a3e 0b0d 033f
00000140: 84e6 6bbc 783e 423e 3a7e 353e 96fe bb3e
00000150: 97ee 233f 450a 933d 5235 bc3c 0275 183f
00000160: 5764 b9bd f55f 133f 841d 1abe 5634 2bbf
00000170: dc6a 903d f180 963c e3f1 053f d7fb 0b3f
00000180: 20b7 08be f26a c43e 80fa 93be 7447 dabc
00000190: 97a5 d83e 0344 1bbe 7e42 0dbf 46ac 2dbf
000001a0: 0659 943d ae65 c9be 39b1 483e f819 f03d
000001b0: bdae fcbe 3780 0a3f c3ce f4bd ddf3 1dbe
000001c0: 5b85 b8bd e4a9 16bf 18af da3e 1223 1dbe
000001d0: bca3 683e ee19 40be ac6f af3d 5aab 023f
000001e0: e606 0dbf 1c53 e3be bc75 1cbf e48a 0ebf
000001f0: 8d9d 2a3f b40c e53e e89d b1be 49f9 d53e
00000200: c310 0dbf c44d 7ebe 1225 ccbd 9410 bfbc
00000210: 6b00 bcbe 0a11 07bf 2bc9 ffbe d750 95be
00000220: 058c 93be d9ab ae3e 3150 9f3e 4750 58be
00000230: d60f b93d 2070 e83e d5d9 583e 2ca3 7f3e
00000240: 8854 b23e dd83 ebbc 0a0d 753d 5a0e 1fbf
00000250: 2f7d 7abe 661e c4be d848 dabe 8e1f 05bf
00000260: a4c8 243f e6b7 113f 63b7 01bf 7027 6e3e
00000270: 5094 173f bc12 cc3e 2e5e c03c 49a2 22be
00000280: ae84 973e fe7c 20bc 6f3d 91bb 526b 1ebe
00000290: f8fb 273f 2776 03bf 0da8 443e 9a77 d73d
000002a0: 0d47 d4be cf53 4dbe f907 26bf 3040 db3e
000002b0: 9ece 83be 0495 fc3e e5fe 013e 274a bf3e
000002c0: 9176 1bbf dafd 003f b388 7dbe 809f b43e
000002d0: d08d 6ebd ba7e 7bbd 7f56 7abe 45fc e9bc
000002e0: 5b9b 7abe f5cd 28bf 4e02 f63e 634b 27bf
000002f0: 6f6b 2c3f c668 123f d787 ec3e ded4 00bf
00000300: 0ce9 8f3e 759c cabd 6404 03bf f57e ae3c
00000310: 12e6 f3be 2413 6fbe 3ed7 0a3f 7fdf d43e
00000320: 509c 7ebe 41c5 7f3d 4628 34be e84b cbbe
00000330: 30f6 1abf 1579 0abf 0651 123e 406b 1cbf
00000340: 3341 d53e f20a a53e aa06 1ebe 9f1e 0bbf
00000350: 969c 0abf 2565 a93d bd6c 9dbe 15a6 bf3d
00000360: 5f44 253f f7c1 1abf 1602 253f cb5f ce3e
00000370: dd06 e2be 89b9 243f b3ab 033f e95e 25bf
00000380: b327 223e 226f 2fbf b01d e3be d812 8c3e
00000390: 5354 a43e d7ae 063d de38 12be 4675 193f
000003a0: aeef 0f3f 20df a23e fd7a ebbd 5b4d 26bf
000003b0: 86e4 073f 26ba 0c3f e3a1 013f daee fcbe
000003c0: 8332 173f 1294 013e 2401 d13c 7b65 183f
000003d0: f70c b6bd 3fe7 67be 4986 863e b86c a8be
000003e0: 7c1e 69be 5b9c 2fbf 1532 eabd 2c89 603b
000003f0: 5cfb 06bf c4eb 97be ac0f 993e 1e06 083e

net.0.bias f4 [128]
0.58489513 -0.21016453 -0.6477706 -0.35901326 0.15511961 0.5848473 -0.4762824 -0.6802214
-0.38643202 0.676351 0.45902866 -0.56708586 0.31181547 -0.6689693 0.03996842 -0.5179151
0.57471466 -0.6789731 0.29971626 -0.57061195 0.26441106 -0.2693601 -0.3526184 -0.6831682
-0.5081354 -0.08060021 -0.5433712 0.61661345 0.3889448 0.33834162 -0.50135684 0.13692833
0.6480548 -0.48504183 -0.482735 -0.60100436 -0.5301115 -0.065419115 -0.1962934 -0.58720344
0.51755893 0.64390576 -0.55430585 -0.56997186 0.52176785 -0.43043932 -0.06076383 0.14486119
0.32158667 -0.55990195 0.1237182 -0.2501617 -0.1283868 -0.082249396 0.5754372 -0.15347941
-0.28596997 -0.6324967 -0.60917526 -0.12614746 0.34273797 0.24032183 -0.2385769 0.23894148
0.23257507 0.29650733 0.21362606 0.35810143 0.6499476 -0.6537594 -0.561594 0.0050767786
-0.5365237 -0.2003261 -0.33232266 0.44889924 0.17959237 0.4012016 -0.12752362 0.10328448
0.34855756 0.45511314 -0.44306752 0.61062115 -0.4711917 0.3561402 0.37847528 -0.25235012
0.10182134 -0.105369434 -0.653171 0.39809006 -0.3879688 0.69201565 0.108174056 0.44588926
0.514569 0.27760515 0.19667567 0.44268882 0.1475053 0.18791008 -0.07743761 -0.0038972883
-0.11274233 -0.21005738 0.6987431 0.036870666 -0.08381952 0.063462876 0.53468025 -0.4661485
0.46207157 0.11048272 -0.060102582 -0.6448637 0.23206863 -0.17315914 0.22430757 -0.11587095
-0.6543213 -0.040456437 0.3461128 0.32918578 -0.633727 0.034275666 0.2827 0.35046303
00000000: b0bb 153f 5f35 57be 4bd4 25bf 96d0 b7be
00000010: add7 1e3e 8db8 153f 49db f3be fd22 2ebf
00000020: 6bda c5be 5725 2d3f ce05 eb3e 8a2c 11bf
00000030: 47a6 9f3e 9241 2bbf edb5 233d 1696 04bf
00000040: 8020 133f 2ed1 2dbf 6974 993e a013 12bf
00000050: e360 873e 91e9 89be 668a b4be 1ce4 2ebf
00000060: 2915 02bf b911 a5bd 601a 0bbf 61da 1d3f
00000070: c623 c73e 1d3b ad3e ec58 00bf f136 0c3e
00000080: ebe6 253f 6757 f8be 0b29 f7be 6cdb 19bf
00000090: 63b5 07bf 75fa 85bd 2301 49be f752 16bf
000000a0: be7e 043f 02d7 243f fde6 0dbf ade9 11bf
000000b0: 9492 053f 8b62 dcbe 7ee3 78bd 7e56 143e
000000c0: 02a7 a43e bc55 0fbf f85f fd3d 3215 80be
000000d0: d477 03be 5f72 a8bd da4f 133f b529 1dbe
000000e0: a86a 92be 4eeb 21bf e9f2 1bbf cd2c 01be
000000f0: 5a7b af3e ed16 763e 814d 74be 13ad 743e
00000100: 2928 6e3e cfcf 973e cac0 5a3e 1259 b73e
00000110: f762 263f c75c 27bf a0c4 0fbf 1b5b a63b
00000120: 9e59 09bf 4922 4dbe 3226 aabe 1fd6 e53e
00000130: 10e7 373e 4c6a cd3e 8d95 02be d086 d33d
00000140: 2376 b23e 9704 e93e bfd9 e2be ab51 1c3f
00000150: 0a40 f1be 0258 b63e 83c7 c13e 0934 81be
00000160: b587 d03d eecb d7bd 3736 27bf 76d2 cb3e
00000170: d9a3 c6be f027 313f 5c8a dd3d 994b e43e
00000180: cbba 033f 4322 8e3e 5965 493e 1ca8 e23e
00000190: a10b 173e 806b 403e 9c97 9ebd a669 7fbb
000001a0: 73e5 e6bd 4819 57be d4e0 323f b205 173d
000001b0: 92a9 abbd d3f8 813d cee0 083f 04ab eebe
000001c0: a594 ec3e c444 e23d 202e 76bd ca15 25bf
000001d0: 66a3 6d3e a150 31be e2b0 653e c04d edbd
000001e0: 9a81 27bf a6b5 25bd b235 b13e 0a8b a83e
000001f0: ef3b 22bf a464 0c3d 0ebe 903e e46f b33e

net.2.weight f4 [256, 128]
0.055350803 0.03487996 0.0619844 -0.06676415 -0.02159946 0.056230124 -0.08264615 0.008777772
0.07056286 -0.056625 0.06875094 0.06667194 -0.011640224 -0.030708613 0.060587116 -0.046939027
-0.057786044 0.069429636 -0.08455455 -0.03890745 -0.0293298 -0.06320541 0.055630386 0.072977826
0.06047553 -0.019535815 0.06726437 0.035105426 -0.0013605187 -0.041102123 -0.0077183726 0.058314584
0.06455718 0.02391385 0.018814955 0.060069967 -0.08457015 -0.052757744 -0.081284404 -0.08244315
0.035582483 0.032799453 -0.022153938 -0.03651438 0.05788572 -0.06600911 -0.09408495 0.015192969
-0.03852285 -0.021442441 0.0200583 0.0017302993 -0.026801841 0.058580566 -0.05187795 -0.078320935
0.037084308 -0.09303049 0.044976473 -0.025861438 0.03495291 0.0007664071 0.04068414 -0.08696134
-0.06892389 0.026301341 0.008974363 -0.08197858 0.033928275 0.07435939 0.060903247 0.0050505055
0.049172148 0.025952253 -0.004736407 -0.021648994 0.04115436 0.008507801 -0.019269275 0.039174367
-0.098274715 0.01564385 0.013189053 0.034074016 0.022261314 -0.053956952 0.061686758 0.0014119396
-0.008404413 -0.07868031 -0.06810686 -0.021361437 -0.07411351 0.06160026 -0.06271377 0.03778151
-0.09298696 0.029627085 -0.0486771 0.008271208 0.025294714 0.0751415 0.05601444 0.048505247
0.0650025 -0.061595727 0.007311825 -0.017493853 0.064120136 -0.09153524 0.0054711187 -0.010086977
0.043399245 -0.06667112 0.028503697 -0.08397319 -0.08336603 -0.046967693 0.044607107 0.025705159
-0.040258434 0.033106014 0.05506401 0.061069548 0.047977537 -0.025498996 0.048073836 -0.07250572
-0.08266267 -0.014544228 -0.0594576 -0.005994443 -0.090028934 -0.045000844 0.04342814 -0.059142478
-0.036797218 0.01613134 0.044336285 0.018567458 -0.029256633 0.07872196 -0.0837121 0.058661744
-0.053895436 -0.006361243 -0.019054003 -0.079422414 0.010536674 0.05425416 0.034627147 -0.095002905
-0.036461845 -0.016131448 -0.011614699 -0.07863338 -0.071744636 -0.063925944 0.039402764 0.044318054
0.0025218993 -0.061681163 0.035312314 -0.08110991 0.011826767 -0.055450123 0.031283855 0.06478815
-0.079350546 -0.054814767 -0.0689199 0.055361744 -0.016963053 -0.047819015 0.018652027 -0.03806167
0.015090827 -0.020445274 -0.03217938 -0.025379684 0.028345117 -0.091946326 -0.024050673 0.011716884
-0.049258705 -0.037278805 0.061172612 0.040010702 -0.02223943 -0.07230737 -0.042248197 -0.059877325
0.07719146 0.048158396 -0.07615637 0.057938483 -0.0039285445 -0.0063912584 -0.034039594 -0.020960081
-0.008811291 -0.029430525 0.039305665 0.032651037 -0.09011098 -0.050509535 0.038279098 0.043723702
0.015123724 -0.022688981 0.072756186 -0.021293975 -0.08559114 0.050248656 0.041497596 0.006334065
-0.05916401 -0.009234335 0.08028074 0.026748504 -0.032491524 -0.036947593 -0.039889753 -0.058223687
-0.015386245 -0.04142517 0.065316506 -0.029045448 -0.048226457 0.038409285 -0.00392982 0.011575069
0.04745978 0.043870684 0.0031452633 0.019039609 -0.08908917 0.00888899 0.07353889 -0.06714396
-0.07145668 0.0108806165 0.009007546 -0.087930426 -0.030038841 -0.069231875 0.06709079 -0.011453085
0.020170307 0.0037237627 -0.041146573 -0.016372262 0.051592544 0.06908567 -0.07639519 -0.07318396
00000000: 86b7 623d 4ade 0e3d 5be3 7d3d a5bb 88bd
00000010: 5af1 b0bc 8f51 663d 6242 a9bd a5d0 0f3c
00000020: 4383 903d 9eef 67bd 4bcd 8c3d 4c8b 883d
00000030: a3b6 3ebc a190 fbbc 322a 783d 2343 40bd
00000040: 0fb1 6cbd 2031 8e3d f02a adbd 6b5d 1fbd
00000050: 0c45 f0bc d771 81bd b0dc 633d 6675 953d
00000060: 30b5 773d 9309 a0bc e7c1 893d b5ca 0f3d
00000070: 6f53 b2ba b35a 28bd 67ea fcbb 46db 6e3d
00000080: 8e36 843d fae6 c33c d221 9a3c ed0b 763d
00000090: 1d33 adbd 8118 58bd 7078 a6bd f4d7 a8bd
000000a0: f0be 113d b858 063d 2d7c b5bc 1a90 15bd
000000b0: 9419 6d3d c92f 87bd 9caf c0bd eeeb 783c
000000c0: 23ca 1dbd 0fa8 afbc 4e51 a43c 36cb e23a
000000d0: 898f dbbc 2df2 6f3d f97d 54bd ba66 a0bd
000000e0: b7e5 173d c586 bebd 4039 383d 5edb d3bc
000000f0: c82a 0f3d b6e8 483a 6aa4 263d c918 b2bd
00000100: f827 8dbd e975 d73c 3509 133c 63e4 a7bd
00000110: 60f8 0a3d bc49 983d af75 793d b67e a53b
00000120: bc68 493d d299 d43c dd33 9bbb 3b59 b1bc
00000130: 7991 283d 4e64 0b3c 99da 9dbc 4d75 203d
00000140: 4144 c9bd 8827 803c e616 583c 3291 0b3d
00000150: 5c5d b63c f701 5dbd 41ab 7c3d d510 b93a
00000160: aab2 09bc 2423 a1bd 9c7b 8bbd 2efe aebc
00000170: d3c8 97bd 8e50 7c3d 1470 80bd c9c0 1a3d
00000180: f36f bebd 80b4 f23c a461 47bd f683 073c
00000190: dc36 cf3c c9e3 993d 666f 653d 70ad 463d
000001a0: 0820 853d cd4b 7cbd 0998 ef3b 454f 8fbc
000001b0: 6b51 833d d476 bbbd 1247 b33b d943 25bc
000001c0: 68c3 313d de8a 88bd 9680 e93c 23fa abbd
000001d0: cfbb aabd 3261 40bd f1b5 363d a093 d23c
000001e0: 07e6 24bd 2c9a 073d cd8a 613d 1024 7a3d
000001f0: 1884 443d 45e3 d0bc 12e9 443d e17d 94bd
00000200: 0c4b a9bd ea4a 6ebc d089 73bd 086d c4bb
00000210: 1761 b8bd ce52 38bd b5e1 313d 623f 72bd
00000220: aeb8 16bd df25 843c f799 353d c81a 983c
00000230: 9bab efbc fb38 a13d 4071 abbd 4c47 703d
00000240: 76c1 5cbd f971 d0bb 2417 9cbc 38a8 a2bd
00000250: 04a2 2c3c 9c39 5e3d 32d5 0d3d e290 c2bd
00000260: 0459 15bd 1926 84bc 944b 3ebc 8a0a a1bd
00000270: daee 92bd 9beb 82bd cb64 213d d986 353d
00000280: 7346 253b 63a5 7cbd a5a3 103d f41c a6bd
00000290: 0ec5 413c ab1f 63bd 8023 003d a6af 843d
000002a0: 8a82 a2bd 7385 60bd e025 8dbd ffc2 623d
000002b0: 1af6 8abc dfdd 43bd 23cc 983c 8ee6 1bbd
000002c0: 843f 773c d97c a7bc 87ce 03bd 0ee9 cfbc
000002d0: 0534 e83c 5b4e bcbd eb05 c5bc 2cf8 3f3c
000002e0: 7fc3 49bd a9b1 18bd 2290 7a3d 43e2 233d
000002f0: 772f b6bc e315 94bd 720c 2dbd ed41 75bd
00000300: 8e16 9e3d bd41 453d dff7 9bbd e750 6d3d
00000310: 05bb 80bb c36d d1bb 1a6d 0bbd 7ab4 abbc
00000320: 3c5d 10bc 4918 f1bc fafe 203d 18bd 053d
00000330: 1b8c b8bd 16e3 4ebd 8bca 1c3d a017 333d
00000340: 7fc9 773c 3ede b9bc 3201 953d b470 aebc
00000350: 684a afbd 89d1 4d3d 62f9 293d fd8d cf3b
00000360: f655 72bd 9c4b 17bc 3b6a a43d ae1f db3c
00000370: d515 05bd 5c56 17bd 7063 23bd f67b 6ebd
00000380: 9716 7cbc 70ad 29bd a9c4 853d b8f0 edbc
00000390: 1b89 45bd 0e53 1d3d b8c5 80bb 5ca5 3d3c
000003a0: 3065 423d bfb1 333d c320 4e3b f4f8 9b3c
000003b0: 6274 b6bd 20a3 113c 8f9b 963d c682 89bd
000003c0: e157 92bd 9d44 323c 6394 133c de14 b4bd
000003d0: 0414 f6bc 71c9 8dbd e566 893d b8a5 3bbc
000003e0: 333c a53c 5f0a 743b 4f89 28bd 1f1f 86bc
000003f0: b452 533d ca7c 8d3d 1575 9cbd 79e1 95bd

net.2.bias f4 [256]
-0.027273132 -0.04923366 0.009278598 0.046759054 -0.048978966 -0.023452343 -0.0045944797 -0.054460216
0.0057136174 -0.011739128 -0.07985655 -0.01347637 0.075540446 -0.05566144 -0.055396188 -0.03787368
-0.06254202 -0.06237424 0.02138748 0.003079163 -0.09202156 -0.07631519 -0.094476 -0.015663898
-0.010743403 -0.020112336 0.04977301 0.029491777 0.027187314 -0.005936841 -0.04632205 -0.03784597
-0.057006028 -0.09812624 0.03572375 0.059320204 -0.08017136 -0.040368088 0.028677614 -0.016390001
-0.065162174 -0.056420185 -0.0028196839 -0.013538271 -0.023088288 -0.050743587 0.048145518 0.069124244
-0.077814266 -0.01338561 0.04232385 -0.033807572 0.025067352 -0.0606848 -0.090299435 -0.044229645
0.07436556 0.06822674 -0.03371042 -0.012791046 -0.088419005 -0.02784172 -0.04132708 0.0111727705
-0.061305992 0.04251289 -0.019516405 0.011369638 -0.05554119 0.056789782 -0.08033036 -0.021431427
-0.053869955 -0.0009827669 -0.034132537 -0.09280491 -0.06726285 -0.069932096 -0.048658628 0.02192482
-0.05238884 -0.030085718 0.051510587 -0.05380065 0.04837768 0.02443779 -0.08286267 0.038454298
-0.052307233 -0.026808253 -0.044911254 0.038417175 0.055737182 0.06185638 -0.015928432 -0.0066122003
-0.056333918 -0.02883495 -0.026165849 -0.04258606 0.053837206 0.07400248 0.053231377 0.030634128
-0.019877864 0.038434964 0.06546191 0.029785931 0.01840587 0.013525379 -0.044966955 -0.03732496
0.019071288 -0.06767426 0.047003806 0.0007612844 0.069258176 0.00812565 0.07480642 -0.051487975
0.07010325 -0.03228455 0.08242176 -0.07596962 0.043469667 0.018772814 0.08074599 0.08187072
-0.008806375 -0.048020698 0.034069385 -0.011821835 -0.04028055 0.02116059 0.051968228 0.08524474
0.007962511 -0.07024991 -0.00614806 -0.04025126 0.042933114 -0.08089272 0.012962491 -0.045499485
0.043083686 0.062200893 0.056035005 0.022612603 -0.007914956 -0.058382418 -0.07489701 0.051048566
-0.05600552 -0.030057123 -0.060531624 -0.009118317 -0.023608444 0.04785609 0.008938154 -0.091457464
-0.0016619805 -0.026950227 0.042736795 0.034955736 -0.0652832 -0.03582924 -0.008545982 -0.041589346
0.0076269377 -0.093304776 -0.03660315 -0.051570892 -0.008247165 0.016187511 0.07181925 -0.060706872
0.017153347 -0.09064229 -0.014689022 -0.031379372 0.0805428 -0.02077864 -0.022833386 -0.078997605
0.07711382 0.013941374 -0.038274832 -0.07948675 0.034971673 -0.07076764 0.05644092 -0.08798314
-0.083205 0.018392686 0.02303007 0.0080719115 -0.071010455 0.049759995 -0.06734967 0.045940906
-0.009629273 -0.011463236 -0.057670157 -0.06967102 -0.065134965 -0.00883789 0.0061976765 -0.08676511
0.059008066 0.0811536 -0.041981492 0.030850943 0.03353679 0.0012086445 -0.0601373 -0.040839113
0.041406162 -0.07700671 0.05367901 0.025557917 0.040666934 -0.0042002657 -0.041293357 0.080925725
0.027580848 0.014768298 -0.008118041 -0.07120586 -0.061861984 0.056740362 0.08543991 0.010031235
-0.015532594 -0.035099134 0.0037034177 -0.034777656 -0.03659735 0.012187157 0.079598516 -0.014028508
-0.06639083 0.011451887 -0.047244664 0.07112475 -0.046765808 0.042121064 -0.034043707 -0.056858838
0.049554877 0.043917626 0.013483753 0.032718416 -0.065532364 -0.07009166 0.0007435389 0.08459657
00000000: e76b dfbc 3ca9 49bd 4305 183c 6c86 3f3d
00000010: 2b9e 48bd 211f c0bc 4a8d 96bb ad11 5fbd
00000020: 4c39 bb3b 7955 40bc d58b a3bd fecb 5cbc
00000030: f3b4 9a3d 40fd 63bd 1de7 62bd 6f21 1bbd
00000040: 0816 80bd 227c 7fbd cc34 af3c c8cb 493b
00000050: cd75 bcbd 234b 9cbd a27c c1bd 9351 80bc
00000060: 1905 30bc a0c2 a4bc c9de 4b3d bd98 f13c
00000070: eeb7 de3c d589 c2bb 31bc 3dbd 6004 1bbd
00000080: 277f 69bd 69f6 c8bd 1153 123d bef9 723d
00000090: e230 a4bd 0259 25bd 51ed ea3c 5344 86bc
000000a0: bf73 85bd da18 67bd 72ca 38bb a0cf 5dbc
000000b0: a623 bdbc 82d8 4fbd 3c34 453d 0391 8d3d
000000c0: 165d 9fbd 514f 5bbc c65b 2d3d cf79 0abd
000000d0: 0c5a cd3c a090 78bd e9ee b8bd 252a 35bd
000000e0: f94c 983d 76ba 8b3d f013 0abd 8991 51bc
000000f0: 0615 b5bd 5214 e4bc 9646 29bd ff0d 373c
00000100: fe1b 7bbd ff21 2e3d dee0 9fbc b847 3a3c
00000110: 297f 63bd 679c 683d 3e84 a4bd f690 afbc
00000120: bea6 5cbd 2fd0 80ba 8fce 0bbd 8010 bebd
00000130: 1bc1 89bd 8f38 8fbd 454e 47bd ae9b b33c
00000140: ae95 56bd 5376 f6bc c4fc 523d 125e 5cbd
00000150: ad27 463d c331 c83c e7b3 a9bd 4182 1d3d
00000160: 1c40 56bd fb9c dbbc ddf4 37bd 545b 1d3d
00000170: ac4c 643d 1e5d 7d3d 587c 82bc 28ab d8bb
00000180: 65be 66bd 4637 ecbc c359 d6bc b86e 2ebd
00000190: 6784 5c3d 9d8e 973d 2509 5a3d 6cf4 fa3c
000001a0: e7d6 a2bc fb6d 1d3d e510 863d a001 f43c
000001b0: e8c7 963c 8d99 5d3c 452f 38bd 0fe2 18bd
000001c0: 643b 9c3c cd98 8abd 1087 403d ee90 473a
000001d0: 3bd7 8d3d 7221 053c 1c34 993d 0ee5 52bd
000001e0: 4b92 8f3d ce3c 04bd bdcc a83d f695 9bbd
000001f0: 400d 323d 72c9 993c 275e a53d d6ab a73d
00000200: 9d48 10bc 5ab1 44bd 578c 0b3d 5fb0 41bc
00000210: 38fd 24bd f958 ad3c a3dc 543d cb94 ae3d
00000220: 3175 023c 2fdf 8fbd aa75 c9bb 81de 24bd
00000230: a2da 2f3d 15ab a5bd a160 543c ab5d 3abd
00000240: 8578 303d 5dc6 7e3d f684 653d 113e b93c
00000250: bbad 01bc 6722 6fbd 9b63 99bd 4d18 513d
00000260: 0b66 65bd 5b3a f6bc 02f0 77bd fe64 15bc
00000270: 7f66 c1bc bf04 443d 5671 123c 0d4e bbbd
00000280: d0d6 d9ba b9c6 dcbc c70c 2f3d bf2d 0f3d
00000290: 33b3 85bd aec1 12bd 7204 0cbc 9759 2abd
000002a0: 64eb f93b 9316 bfbd 2fed 15bd 003c 53bd
000002b0: 1e1f 07bc ac9b 843c f915 933d c5a7 78bd
000002c0: 2d85 8c3c aaa2 b9bd 39aa 70bc a887 00bd
000002d0: a0f3 a43d f737 aabc 150d bbbc 7fc9 a1bd
000002e0: daed 9d3d 5c6a 643c 12c6 1cbd f3c9 a2bd
000002f0: 753e 0f3d a0ee 90bd 982e 673d 8130 b4bd
00000300: 6267 aabd 42ac 963c 8fa9 bc3c 0d40 043c
00000310: ee6d 91bd 23d1 4b3d a0ee 89bd 882c 3c3d
00000320: 19c4 1dbc 4cd0 3bbc 8b37 6cbd aeaf 8ebd
00000330: 7b65 85bd cccc 10bc e115 cb3b e8b1 b1bd
00000340: 71b2 713d dc33 a63d c9f4 2bbd 1ebb fc3c
00000350: e05d 093d 616b 9e3a 8852 76bd ea46 27bd
00000360: 8299 293d b2b5 9dbd 86de 5b3d d65e d13c
00000370: 5f92 263d 62a2 89bb 3923 29bd 63bc a53d
00000380: 3bf1 e13c bbf6 713c 8801 05bc 61d4 91bd
00000390: fe62 7dbd 9568 683d 1ffb ae3d 0d5a 243c
000003a0: 6c7c 7ebc 1cc4 0fbd 0ab5 723b 0473 0ebd
000003b0: 1ae7 15bd a4ac 473c 8c04 a33d d4d7 65bc
000003c0: eaf7 87bd b2a0 3b3c 9f83 41bd daa9 913d
000003d0: 818d 3fbd 2387 2c3d 6a71 0bbd d0e4 68bd
000003e0: 0efa 4a3d f8e2 333d f6ea 5c3c bf03 063d
000003f0: d535 86bd 378c 8fbd 0dea 423a f740 ad3d

net.4.weight f4 [256, 256]
0.045067564 -0.06390608 0.010110363 -0.057041954 -0.060271814 0.028310463 -0.06561293 -0.0057751574
0.03930513 -0.0698453 0.0050269095 -0.06371298 -0.013052284 -0.014722967 -0.05775342 0.00045535888
0.025424113 -0.039015066 -0.03200041 -0.0011235202 0.02073288 -0.06778888 0.023496652 -0.007848296
-0.061353546 0.025540076 0.02227787 -0.06686704 -0.0466891 0.0053346446 0.032354046 -0.0050043613
0.016228693 0.050371397 -0.04475158 -0.02634134 -0.04701414 -0.06014841 0.011604182 0.03599091
0.02454914 -0.018861033 0.008250305 0.0058963695 -0.044345282 -0.040376067 -0.015641987 -0.006874198
0.023342842 -0.06154932 -0.07322958 -0.047291953 -0.011367175 0.03170924 0.036302727 -0.011733947
-0.032049503 -0.065323144 -0.038204078 0.03277382 0.003962483 0.007916722 -0.033894356 0.04679543
-0.031112853 0.02918935 -0.037630267 0.014201936 0.04834279 -0.025537796 0.010349651 0.047097445
-0.038226876 -0.027834998 0.03246396 -0.06107947 -0.049420778 0.006346126 0.03574778 -0.010357481
-0.053541973 -0.02405759 -0.056879766 0.02654708 -0.046912614 -0.057767376 0.0012546846 -0.010945317
0.019179411 0.010091742 -0.0703987 0.047695305 -0.04762817 -0.06090309 -0.0563927 -0.0698858
0.04473836 0.026108468 -0.070183955 0.0018320391 0.028855324 -0.008041929 0.030843709 0.02010802
-0.009865595 -0.026449515 -0.04125766 -0.057281733 0.0012483882 -0.07198289 -0.059627246 -0.044910077
-0.05646691 -0.05217846 -0.050840944 0.03968221 0.0002649056 -0.05921125 -0.003068193 0.03701515
0.028093006 0.03857371 -0.04520436 -0.06749277 -0.05630307 -0.042824045 -0.024346119 -0.037524752
0.048062194 -0.0066438583 -0.012578998 0.048635155 -0.018366428 -0.07116585 -0.04713593 0.04419549
-0.06023182 0.038569592 -0.017479787 0.027031528 -0.06976484 -0.0124289375 -0.01824754 0.03637021
-0.013645451 0.02361327 0.0117510315 -0.07365926 -0.06579189 -0.050612673 0.033599284 -0.039102245
-0.064334884 0.0072398353 0.034205493 -0.0038888596 -0.028963383 -0.060328238 0.05067014 -0.02407755
-0.058768835 -0.022403553 -0.018083708 0.041400615 -0.041076973 -0.0049591158 0.012225775 0.04755926
0.04525032 -0.06802183 0.009439968 0.031370394 -0.06280237 0.024908455 -0.02201408 -0.0711661
0.035537295 0.024759494 0.038765933 -0.0020418728 0.003095205 -0.062340748 0.013662355 0.00026572615
-0.032149557 -0.057329748 -0.039910853 -0.06080894 -0.055436045 0.047743265 -0.026559895 -0.026671888
-0.04756269 -0.013850594 -0.0017167134 -0.06766059 -0.07071532 0.04644711 0.008216342 -0.01340757
-0.007949746 -0.07262433 0.041098498 0.0021152142 0.0321171 -0.024165468 0.008962746 -0.056266278
-0.012318685 0.016906861 -0.029030254 -0.034963164 -0.049218617 -0.008275743 0.00046903707 -0.0005467502
0.042214517 0.036507893 -0.06687333 0.04104434 0.034621887 0.02798911 0.0007796103 0.002416788
-0.06730847 -0.009612012 -0.0019762435 -0.027726773 -0.016216554 -0.04907948 -0.06892896 -0.0044387006
-0.047058612 -0.056152612 -0.025837611 -0.053829994 0.048613135 -0.015523071 -0.032078784 0.0012651075
0.021741027 0.0130108455 -0.054977603 -0.056229394 0.010095976 0.008601747 0.017835276 -0.0059978743
-0.063162886 -0.057248615 -0.0026760977 -0.06610258 -0.049838055 0.0023760495 -0.037213754 -0.012033424
00000000: c498 383d 31e1 82bd f0a5 253c d3a4 69bd
00000010: 94df 76bd 58eb e73c 1260 86bd 883d bdbb
00000020: 6afe 203d 0d0b 8fbd c6b8 a43b f37b 82bd
00000030: 3fd9 55bc 9938 71bc da8e 6cbd 3cbd ee39
00000040: 3b46 d03c 43ce 1fbd dd12 03bd 1543 93ba
00000050: 00d8 a93c e5d4 8abd 0d7c c03c 2496 00bc
00000060: db4d 7bbd 6c39 d13c 1480 b63c 96f1 88bd
00000070: 123d 3fbd 3ece ae3b ad85 043d a0fb a3bb
00000080: 09f2 843c 3d52 4e3d 6f4d 37bd cbc9 d7bc
00000090: e691 40bd 2e5e 76bd 781f 3e3c 346b 133d
000000a0: 471b c93c 7482 9abc 4a2c 073c 5536 c13b
000000b0: 66a3 35bd 6061 25bd a023 80bc f440 e1bb
000000c0: 7d39 bf3c 241b 7cbd 64f9 95bd 35b5 41bd
000000d0: 633d 3abc 8ce1 013d 2bb2 143d be3f 40bc
000000e0: 5746 03bd 24c8 85bd e17b 1cbd d73d 063d
000000f0: b7d7 813b 24b5 013c cfd4 0abd 91ac 3f3d
00000100: 62e0 febc 811e ef3c 3222 1abd 3daf 683c
00000110: 1703 463d a434 d1bc 9591 293c 40e9 403d
00000120: c993 1cbd 3906 e4bc eef8 043d 772e 7abd
00000130: 716d 4abd 2af3 cf3b 446c 123d 6db2 29bc
00000140: d44e 5bbd 6c14 c5bc c2fa 68bd 4379 d93c
00000150: 7127 40bd 7c9d 6cbd 3b74 a43a fd53 33bc
00000160: 241e 9d3c d557 253c 322d 90bd 275c 433d
00000170: c215 43bd 8575 79bd 08fc 66bd 4920 8fbd
00000180: 923f 373d 6de1 d53c 9bbc 8fbd 0821 f03a
00000190: 0062 ec3c 4cc2 03bc f2ab fc3c 93b9 a43c
000001a0: 4ea3 21bc a7ac d8bc cbfd 28bd 40a0 6abd
000001b0: f5a0 a33a c46b 93bd b33b 74bd a1f3 37bd
000001c0: d949 67bd 15b9 55bd 983e 50bd d089 223d
000001d0: 07e3 8a39 7f87 72bd bd13 49bb 339d 173d
000001e0: 4e23 e63c 77ff 1d3d 3528 39bd a639 8abd
000001f0: 0c9e 66bd 4468 2fbd 8371 c7bc 8eb3 19bd
00000200: dddc 443d b9b4 d9bb 2418 4ebc a835 473d
00000210: 3175 96bc 67bf 91bd 9b11 41bd 5506 353d
00000220: a4b5 76bd 26fb 1d3d c531 8fbc 3971 dd3c
00000230: dee0 8ebd bea2 4bbc dd7b 95bc eef8 143d
00000240: 2b91 5fbc 9e70 c13c 6687 403c abda 96bd
00000250: e6bd 86bd 3c4f 4fbd 679f 093d ad29 20bd
00000260: 02c2 83bd 243c ed3b 0f1b 0c3d 3ddc 7ebb
00000270: 9e44 edbc be1a 77bd 7e8b 4f3d 483e c5bc
00000280: 97b7 70bd a887 b7bc 4924 94bc b193 293d
00000290: 5440 28bd 1480 a2bb 9e4e 483c 80cd 423d
000002a0: 6658 393d 074f 8bbd 18aa 1a3c 3e7e 003d
000002b0: 879e 80bd d10c cc3c df56 b4bc 88bf 91bd
000002c0: 8e8f 113d 6cd4 ca3c 07c9 1e3d f1d0 05bb
000002d0: ecd8 4a3b 0359 7fbd 12d8 5f3c 2951 8b39
000002e0: 41af 03bd 99d2 6abd 9079 23bd cc12 79bd
000002f0: e810 63bd 718e 433d 2394 d9bc 017f dabc
00000300: 18d1 42bd 9aed 62bc 5803 e1ba a391 8abd
00000310: 32d3 90bd 533f 3e3d d69d 063c 6dab 5bbc
00000320: a73f 02bc 11bc 94bd e656 283d 689f 0a3b
00000330: 388d 033d a9f6 c5bc 7bd8 123c 7877 66bd
00000340: 4fd4 49bc 4280 8a3c dbd0 edbc 8935 0fbd
00000350: 7699 49bd fb96 07bc 17e9 f539 c953 0fba
00000360: 21e9 2c3d 4d89 153d e2f4 88bd 1c1e 283d
00000370: aecf 0d3d 6b49 e53c c35e 4c3a f962 1e3b
00000380: 06d9 89bd b37b 1dbc dd83 01bb 4223 e3bc
00000390: 94d8 84bc 9107 49bd a02a 8dbd 8572 91bb
000003a0: 88c0 40bd 4800 66bd 66a9 d3bc d77c 5cbd
000003b0: 911e 473d 7b54 7ebc 0b65 03bd f7d1 a53a
000003c0: 3d1a b23c 712b 553c 3230 61bd cb50 66bd
000003d0: 9869 253c 58ee 0c3c 491b 923c d189 c4bb
000003e0: 8b5b 81bd 867d 6abd 7861 2fbb ca60 87bd
000003f0: fd22 4cbd 7fb7 1b3b 736d 18bd d727 45bc

net.4.bias f4 [256]
0.04927793 -0.0077793063 -0.0543681 -0.0086670825 0.026472142 0.048536554 -0.06733725 -0.060150735
0.011886515 0.0203949 0.0024903992 -0.038754754 -0.050115835 -0.05332004 0.016373558 0.007887824
0.016129477 0.03903577 -0.057678536 -0.0624437 -0.05163664 0.0359652 -0.00020603526 0.020187037
0.04302834 0.030972527 0.03402079 -0.0070806793 -0.004645271 0.0057395953 -0.04211944 0.04621959
0.03647974 -0.0031680136 0.028754821 -0.05872561 0.015542821 -0.064310744 -0.013660702 -0.014396009
-0.05327 0.0022742862 -0.01163688 0.040695228 -0.023982102 0.054569088 -0.05227986 -0.029397842
-0.042065114 -0.057306457 0.02597993 -0.060100947 -0.061395977 0.047959626 0.023651995 -0.060017977
-0.026991684 -0.029435102 0.030075446 0.038247894 0.038946107 -0.023850985 -0.06804099 0.0063214097
-0.021256743 -0.033315875 0.0073426794 0.03152562 0.034875233 0.05491658 -0.054585047 -0.022327185
-0.028671043 0.03323385 -0.04065646 -0.0063136164 -0.025288649 -0.009039727 -0.058362503 -0.028638935
-0.012320505 0.008697768 -0.06569828 -0.026654659 0.004603544 0.036836393 -0.0022093556 0.045322157
-0.051557798 0.001501551 -0.035328563 -0.004387188 -0.021940522 0.001353037 -0.0065619755 -0.03623156
-0.016448379 0.020336833 0.04160452 -0.0268239 -0.0020667126 -0.01583801 0.055849567 -0.02950813
-0.0007781633 -0.010487967 -0.05864609 -0.05533912 -0.06258168 -0.020450763 -0.06544615 -0.018513609
-0.029212428 -0.024896562 -0.019474315 -0.045754634 0.010903238 0.011833649 0.016633723 -0.013272097
-0.06013776 0.011406121 -0.055988397 0.0026078066 0.0005783817 0.044342276 -0.055594586 -0.028333126
0.032762285 0.008589088 -0.043244362 -0.02380514 -0.06143958 0.017973708 -0.021177286 0.04759712
0.01742785 0.00470898 -0.015654355 -0.009293003 0.008428392 -0.03163914 -0.012859589 0.041802034
-0.00588924 -0.00873903 -0.05068788 -0.06462001 -0.002192945 0.038254622 0.053130608 -0.048913058
-0.022157902 -0.040422216 0.04848016 -0.0226544 -0.053252853 -0.033440668 0.012914132 0.038138412
0.026560929 0.012922047 -0.05172694 0.0017812572 0.0134611735 -0.026513945 -0.04305154 -0.016048454
0.049341068 -0.06505235 -0.06517521 -0.00979689 -0.021874547 0.02331517 0.0077285953 -0.050837055
0.020652829 0.035779856 -0.037020713 0.04296797 0.026199324 -0.0045225048 0.037217345 -0.041867074
-0.049182463 -0.031629324 -0.016941968 0.056021336 0.034673024 0.030881088 -0.062446583 -0.05256976
0.022720436 -0.0057152337 -0.008972325 -0.0020170752 0.006364802 -0.004637313 -0.058091085 0.025593158
-0.058197156 -0.04545951 0.036444966 0.009255745 0.04307229 -0.01698861 -0.016896766 -0.040112652
0.020563262 0.022523379 0.01589905 -0.011172895 0.0445101 -0.018699659 0.015318638 -0.0022954303
0.013603199 0.027926655 0.041902043 0.024000943 -0.025236173 0.013755283 -0.06220932 -0.0651393
0.0014307739 -0.029977286 0.042560223 -0.07093172 -0.009972685 0.003964093 0.02617011 0.041641366
-0.037122894 0.013440908 -0.036240406 -0.059342813 -0.06153802 0.033031177 -0.010557526 0.054569125
0.04269311 0.020148091 0.058576234 0.020810101 -0.059642524 -0.004048108 0.0076209283 0.03640776
-0.009244654 -0.032837015 -0.019402152 0.012084239 0.021931298 0.01919378 0.018940087 0.04672906
00000000: a8d7 493d 8de9 febb 16b1 5ebd 6100 0ebc
00000010: 1bdc d83c 44ce 463d 1de8 89bd 9e60 76bd
00000020: a8bf 423c 3513 a73c f735 233b 4ebd 1ebd
00000030: 4346 4dbd 1d66 5abd d721 863c ef3b 013c
00000040: f721 843c f9e3 1f3d 5440 6cbd f7c4 7fbd
00000050: f180 53bd 3f50 133d 2b0b 58b9 495f a53c
00000060: 7c3e 303d 19ba fd3c 6259 0b3d 0b05 e8bb
00000070: 5c37 98bb 3713 bc3b 6f85 2cbd c150 3d3d
00000080: c86b 153d 739e 4fbb 3b8f eb3c 448a 70bd
00000090: 51a7 7e3c 5ab5 83bd 23d1 5fbc 3ddd 6bbc
000000a0: a531 5abd 310c 153b 9da8 3ebc 0ab0 263d
000000b0: 1d76 c4bc d683 5f3d 6823 56bd bed3 f0bc
000000c0: 784c 2cbd 2dba 6abd ddd3 d43c 692c 76bd
000000d0: 597a 7bbd 5071 443d d4c1 c13c 69d5 75bd
000000e0: aa1d ddbc e221 f1bc c860 f63c d3a9 1c3d
000000f0: f485 1f3d 2463 c3bc 1359 8bbd d423 cf3b
00000100: 9f22 aebc 3a76 08bd dc9a f03b 0221 013d
00000110: 55d9 0e3d 35f0 603d 9294 5fbd 80e7 b6bc
00000120: 89df eabc 3820 083d 6387 26bd 74e2 cebb
00000130: 242a cfbc 5d1b 14bc 850d 6fbd 339c eabc
00000140: f2db 49bc 1581 0e3c d28c 86bd df5a dabc
00000150: 53d9 963b c2e1 163d d6ca 10bb baa3 393d
00000160: 452e 53bd b1cf c43a afb4 10bd 66c2 8fbb
00000170: 9cbc b3bc 6358 b13a d705 d7bb 8b67 14bd
00000180: c0be 86bc 6e99 a63c 8069 2a3d ccbd dbbc
00000190: af71 07bb b7be 81bc 84c2 643d 09bb f1bc
000001a0: a8fd 4bba b9d5 2bbc e236 70bd 46ab 62bd
000001b0: d32a 80bd 5c88 a7bc a208 86bd daa9 97bc
000001c0: e74e efbc e0f3 cbbc 9988 9fbc 3669 3bbd
000001d0: 7fa3 323c ece1 413c 7243 883c 3673 59bc
000001e0: 0353 76bd bde0 3a3c 1754 65bd bce7 2a3b
000001f0: 8a9e 173a 3fa0 353d 26b7 63bd df1a e8bc
00000200: bf31 063d 3fb9 0c3c 0021 31bd ff02 c3bc
00000210: 12a8 7bbd 993d 933c fd7b adbc 33f5 423d
00000220: dac4 8e3c ca4d 9a3b 903d 80bc ae41 18bc
00000230: 3d17 0a3c 0b98 01bd 07b1 52bc 9c38 2b3d
00000240: 87fa c0bb 262e 0fbc 189e 4fbd 7f57 84bd
00000250: 83b7 0fbb e1b0 1c3d 7b9f 593d 0f59 48bd
00000260: 7d84 b5bc c491 25bd 2293 463d b895 b9bc
00000270: aa1f 5abd 15f9 08bd cc95 533c 0637 1c3d
00000280: 4e96 d93c feb6 533c a1df 53bd 1379 e93a
00000290: 418c 5c3c c633 d9bc d056 30bd 0c78 83bc
000002a0: dc19 4a3d 2b3a 85bd 957a 85bd 2383 20bc
000002b0: 4032 b3bc 75ff be3c 2840 fd3b 843a 50bd
000002c0: 1f30 a93c e68d 123d 08a3 17bd 2fff 2f3d
000002d0: f79f d63c 8531 94bb 3771 183d cf7c 2bbd
000002e0: 8d73 49bd c08d 01bd e2c9 8abc a176 653d
000002f0: 4d05 0e3d 56fa fc3c fdc7 7fbd 6353 57bd
00000300: 3520 ba3c db46 bbbb a900 13bc e830 04bb
00000310: d48f d03b 9af4 97bb ebf0 6dbd bea8 d13c
00000320: 2460 6ebd c033 3abd 5147 153d 69a5 173c
00000330: 926c 303d b32b 8bbc 166b 8abc 2a4d 24bd
00000340: 4974 a83c f382 b83c b93e 823c 850e 37bc
00000350: 3950 363d 0730 99bc 06fb 7a3c ee6e 16bb
00000360: f4df 5e3c 71c6 e43c 7aa1 2b3d a09d c43c
00000370: 17bc cebc d75d 613c 33cf 7ebd c167 85bd
00000380: ce88 bb3a ed92 f5bc a153 2e3d a644 91bd
00000390: 7964 23bc 39e5 813b b362 d63c 2390 2a3d
000003a0: 2d0e 18bd 4137 5c3c d270 14bd 7311 73bd
000003b0: 4a0f 7cbd b34b 073d 79f9 2cbc e083 5f3d
000003c0: f8de 2e3d 9c0d a53c a2ed 6f3d f279 aa3c
000003d0: b84b 74bd fea5 84bb fbb8 f93b 4e20 153d
000003e0: e476 17bc 1b80 06bd 43f1 9ebc f9fc 453c
000003f0: 44a9 b33c 463c 9d3c 3e28 9b3c f966 3f3d

net.6.weight f4 [256, 256]
0.0341855 0.015180316 0.017263703 0.036468044 -0.02342153 -0.05627114 -0.029707914 -0.029005459
-0.023851871 0.030480402 0.024097968 -0.04319992 -0.008990713 0.026885001 0.03811524 -0.04833975
0.05616178 0.009357394 -0.05955051 0.05909315 0.037909005 0.037355974 0.039761852 0.049949072
-0.047581755 -0.053942136 -0.05531833 -0.03409311 0.037569046 0.026294867 0.040843647 0.029088844
-0.036591094 0.012344563 5.755881e-05 -0.011759095 -0.012916247 -0.053760752 0.011484816 0.014568883
-0.010994709 -0.012219924 0.05772088 0.058025062 -0.033176944 0.016762773 0.003997393 -0.044787012
0.031458702 0.027450928 -0.048757046 -0.019388134 -0.051779263 0.040806953 -0.04360841 -0.022807589
-0.031154498 -0.0068558827 -0.021910239 0.015083982 -0.0080975 -0.017005181 0.048109125 0.054929517
0.05713483 0.038812235 -0.043341774 0.02970904 0.02324423 0.02156815 -0.006453773 -0.034687568
-0.055203006 0.017096438 -0.042564772 0.030873552 0.019494753 0.054833695 -0.045363426 0.03395428
0.043359015 -0.032044873 0.0034442265 -0.01506435 -0.00949519 0.014466594 0.06252863 -0.008316024
-0.047173057 -0.059216812 0.024704529 -0.056434352 0.052140176 0.0045760185 -0.004171243 0.027137546
0.0062978915 0.01001448 -0.053510204 -0.015922306 -0.052817825 0.0023109806 -0.0091812825 0.04584238
-0.019844921 -0.053649694 0.022337718 -0.0064827693 0.032900155 -0.06423757 0.039119188 -0.045773737
-0.028403498 0.05215848 -0.015488966 0.026800383 -0.026588788 0.055631157 0.037062746 -0.032005593
0.055642452 -0.010431523 0.034226134 -0.03538459 0.05761722 -0.048304014 0.05354086 0.024528522
-0.0074561806 -0.03542865 -0.021181252 0.053333018 0.013681086 0.02345991 0.01969608 -0.043206017
0.010037623 0.05856856 -0.06051958 0.04974107 -0.027775297 0.025024649 -0.037963193 -0.01290752
-0.052485473 -0.047398794 0.024488349 0.0061992183 -0.011993852 -0.055190846 0.045906287 -0.061522134
0.005632598 0.030595249 -0.029105393 -0.062339406 0.06052855 -0.015701005 0.049716137 0.02794218
-0.0065441392 0.059211154 -0.044078015 0.036274683 0.05186127 0.0384826 -0.017641693 0.007053943
-0.06391796 0.0032714806 0.013041005 -0.028736861 -0.03760686 0.038884394 -0.0026143235 -0.041876
-0.017073158 -0.014151545 0.029921465 -0.04601969 0.043453205 -0.05868059 0.02796398 -0.0152080925
0.0071785566 0.027763983 -0.0007558686 -0.011488656 0.03651568 0.046278916 -0.059984986 0.034745645
-0.046661098 0.0057848324 0.0029359148 0.007927665 0.016393486 0.02793574 -0.060627993 -0.03625785
0.04583388 -0.04077417 -0.05228704 -0.060010016 -0.052952882 0.01567341 0.046129066 -0.050518017
0.041410644 0.0081719095 -0.054081753 -0.016102292 0.039198343 -0.004773389 0.013557664 -0.020706864
0.034829903 -0.05558433 0.012169702 -0.062617436 0.0077871997 0.06376569 -0.028814042 0.02703187
-0.03800629 0.0361961 -0.0053611784 -0.06160682 -0.039444983 -0.020518688 0.015481581 0.02980439
0.056791253 0.05246312 0.0029068808 -0.037141416 0.06001471 0.0459401 0.010219231 -0.0068855234
0.004468942 0.020443747 0.010731718 0.007478368 0.051027957 -0.024995893 0.013632368 0.0021183658
0.047977984 -0.029196927 0.018482529 0.048010286 0.00040503696 -0.029824276 -0.031916182 -0.056599937
00000000: 1806 0c3d dcb6 783c 9c6c 8d3c 845f 153d
00000010: 82de bfbc 917c 66bd 035e f3bc db9c edbc
00000020: 0065 c3bc 09b2 f93c 1a69 c53c 66f2 30bd
00000030: c94d 13bc ef3d dc3c ba1e 1c3d e7ff 45bd
00000040: e509 663d c14f 193c 3ceb 73bd a90b 723d
00000050: 7946 1b3d 9402 193d 53dd 223d 6697 4c3d
00000060: 16e5 42bd 6ef2 5cbd 7995 62bd 38a5 0bbd
00000070: 00e2 193d 5568 d73c ab4b 273d ba4b ee3c
00000080: 8be0 15bd da40 4a3c 4d6b 7138 38a9 40bc
00000090: ab9e 53bc 3c34 5cbd cf2a 3c3c 53b2 6e3c
000000a0: 2723 34bc 1336 48bc bb6c 6c3d b0ab 6d3d
000000b0: 8ce4 07bd 1552 893c 90fc 823b 9672 37bd
000000c0: d7da 003d c5e0 e03c 78b5 47bd ddd3 9ebc
000000d0: 7e16 54bd 3125 273d bb9e 32bd fbd6 babc
000000e0: b837 ffbc 50a7 e0bb 1a7d b3bc ce22 773c
000000f0: 60ab 04bc 734e 8bbc 130e 453d c6fd 603d
00000100: 3606 6a3d 94f9 1e3d 2587 31bd 5f60 f33c
00000110: af6a be3c b0af b03c 2c7a d3bb 8d14 0ebd
00000120: 8c1c 62bd d40d 8c3c 6658 2ebd 88ea fc3c
00000130: 76b3 9f3c 4c99 603d 00cf 39bd a513 0b3d
00000140: 3999 313d 7c41 03bd 88b8 613b 77d0 76bc
00000150: b791 1bbc 4b05 6d3c 030f 803d ef3f 08bc
00000160: 8938 41bd 548d 72bd 2761 ca3c b527 67bd
00000170: f090 553d 6df2 953b ecae 88bb 8f4f de3c
00000180: 8b5e ce3b c613 243c 842d 5bbd 7f6f 82bc
00000190: 8157 58bd d273 173b 176d 16bc 38c5 3b3d
000001a0: d191 a2bc c8bf 5bbd 97fd b63c 696d d4bb
000001b0: 50c2 063d fd8e 83bd 713b 203d 3e7d 3bbd
000001c0: 74ae e8bc 21a4 553d 6fc5 7dbc 7a8c db3c
000001d0: bbd0 d9bc 7fdd 633d 1bcf 173d 4c18 03bd
000001e0: 57e9 633d fbe8 2abc b430 0c3d 6fef 10bd
000001f0: 0900 6c3d 6eda 45bd a94d 5b3d 0af0 c83c
00000200: fa52 f4bb a21d 11bd 4e84 adbc b973 5a3d
00000210: a226 603c ff2e c03c ac59 a13c cbf8 30bd
00000220: d874 243c 96e5 6f3d 61e3 77bd 4bbd 4b3d
00000230: 0589 e3bc 7e00 cd3c 4b7f 1bbd 107a 53bc
00000240: 02fb 56bd 3d25 42bd ca9b c83c d022 cb3b
00000250: dd81 44bc cc0f 62bd 3b08 3c3d a2fe 7bbd
00000260: a891 b83b e3a2 fa3c 6f6e eebc 9b57 7fbd
00000270: c9ec 773d 659f 80bc 26a3 4b3d 00e7 e43c
00000280: 3870 d6bb 6587 723d 268b 34bd c394 143d
00000290: 7c6c 543d ee9f 1d3d 5085 90bc c324 e73b
000002a0: 6be7 82bd 5666 563b f0a9 553c 9169 ebbc
000002b0: a709 1abd 3e45 1f3d 1255 2bbb 2b86 2bbd
000002c0: 02dd 8bbc e2db 67bc dc1d f53c 247f 3cbd
000002d0: fdfb 313d 0f5b 70bd b714 e53c 5d2b 79bc
000002e0: 193a eb3b 4b71 e33c 7c25 46ba ea3a 3cbc
000002f0: 7791 153d f68e 3d3d d1b2 75bd 7351 0e3d
00000300: b51f 3fbd b18e bd3b 7a68 403b 09e3 013c
00000310: a24b 863c 7ed9 e43c 0f55 78bd 1c83 14bd
00000320: 4ebc 3b3d d102 27bd ef2a 56bd 10cd 75bd
00000330: 1fe5 58bd 8665 803c d5f1 3c3d fbeb 4ebd
00000340: 359e 293d 79e3 053c d484 5dbd f4e8 83bc
00000350: 718e 203d 176a 9cbb f720 5e3c 71a1 a9bc
00000360: cda9 0e3d 65ac 63bd 6e63 473c 923d 80bd
00000370: c42b ff3b 9697 823d 6d0b ecbc f171 dd3c
00000380: 7cac 1bbd 5d42 143d d3ac afbb 6f57 7cbd
00000390: 1091 21bd cf16 a8bc 75a6 7d3c 5628 f43c
000003a0: f29d 683d 92e3 563d 5e81 3e3b 9921 18bd
000003b0: fcd1 753d b02b 3c3d 906e 273c f59f e1bb
000003c0: 3470 923b a579 a73c 16d4 2f3c 190d f53b
000003d0: b102 513d 30c4 ccbc 4c5a 5f3c 48d4 0a3b
000003e0: 9084 443d 652e efbc ac68 973c 6fa6 443d
000003f0: 245b d439 0a52 f4bc 8bba 02bd 56d5 67bd

net.6.bias f4 [256]
0.05890193 -0.017640803 0.011573564 -0.06404284 -0.03729977 0.04496382 0.025978781 -0.0207706
0.058292728 -0.026196506 -0.016469209 0.055783566 0.04768795 -0.04831674 -0.013309913 -0.031446587
0.041264974 -0.021451212 -0.024717832 -0.03819151 0.031534407 0.047504444 -0.023054978 0.013151065
0.05154455 -0.052489612 -0.060137685 -0.018706324 0.014727267 -0.04829938 -0.08267281 0.052813634
-0.020132069 0.0007889617 0.0189679 0.03744879 -0.02727259 -0.02022476 0.009840124 -0.012176945
-0.006637568 -0.04198795 0.052257314 0.008697266 0.030386172 0.0021863997 -0.032924324 0.049879476
-0.017042758 0.024117472 0.030098652 0.0117379725 -0.020962982 -0.027501391 0.008477238 -0.054177996
-0.062326413 -0.06471681 0.03850614 0.047126643 0.056908343 -0.057628054 0.0034445385 0.032333676
-0.025153846 -0.042606674 0.054038256 0.015584518 0.055351872 0.025181757 -0.029257352 0.01952939
0.026012324 -0.01701786 0.007866009 -0.02025164 0.03230869 0.0023565919 -0.0521487 0.037551735
-0.004985595 0.005558648 -0.020129556 -0.0593836 -0.046849966 -0.01563917 -0.059454076 -0.063448735
-0.03745058 -0.008838579 0.03273493 -0.04925998 0.0372722 -0.044495746 0.021587564 0.05495675
0.02637365 -0.03742979 -0.056452293 -0.02019066 0.0465369 -0.042514376 0.047168307 0.011745868
-0.018127477 0.034574598 -0.059269026 -0.039155528 0.021314275 -0.04468363 -0.050463833 -0.059985667
0.03824593 0.061342224 -0.014089703 0.045752067 0.041594453 0.035486005 0.0051175747 0.030043267
0.032084424 0.011487818 -0.06504213 -0.024254682 0.024770943 -0.026985273 -0.04900718 0.038871605
0.0071505434 -0.025973123 0.022472408 -0.05421871 -0.042724617 -7.976527e-06 -0.030116616 0.009702811
-0.0048303935 0.0058339704 0.04011858 -0.03545711 0.020060878 -0.015732523 -0.00813074 0.047372457
0.0180049 0.053394184 0.028836086 -0.024643278 0.029248118 0.040669724 -0.04939528 -0.048662204
0.02257938 -0.059771407 0.022971263 0.03156287 0.02147498 -0.036853194 0.00069020677 0.045861416
-0.037191555 -0.03210869 -0.01972424 -0.001712489 -0.0067998464 -0.057777345 0.0053216307 -0.014690674
-0.0053046127 -0.02725513 -0.010866734 0.047560044 -0.035030928 0.032238882 -0.047513444 0.0007718502
-0.03198739 0.048528075 0.035908766 0.0030164176 0.058797255 -0.028235584 -0.017466761 0.025244914
0.051097117 -0.019897064 -0.018692592 0.05683056 -0.01637967 0.028645681 -0.047205105 -0.055160638
-0.009064562 -0.03105958 -0.03380277 0.013582768 -0.020176983 0.038457062 -0.053024653 -0.026049629
-0.008958006 0.02101752 0.030834826 0.051018745 0.026086167 0.028391385 0.05373134 -0.027564077
-0.047619298 -0.032322675 -0.024127265 0.02738475 0.02400434 -0.00685305 0.04335475 -0.03481412
-0.011672297 -0.016616944 0.006325007 0.01244111 -0.012360439 -0.021041673 0.016427327 -0.008116664
-0.0469404 0.06028099 -0.06458927 0.03888924 -0.01621436 0.030705817 0.015300439 -0.04967715
-0.027640881 0.034295823 0.050788224 -0.0053756963 -0.049191568 0.017774122 0.05510561 -0.023108387
0.029693682 0.0041495254 0.022859778 0.017581109 0.003558533 -0.052646782 -0.0506373 -0.009596379
0.027780728 0.026868975 0.054311153 0.035846137 0.010025994 0.04809948 -0.012088823 0.02965139
00000000: 2643 713d 7283 90bc 0c9f 3d3c e428 83bd
00000010: a5c7 18bd fc2b 383d 74d1 d43c 1b27 aabc
00000020: 5bc4 6e3d 0e9a d6bc 6fea 86bc 4f7d 643d
00000030: 7154 433d c6e7 45bd d211 5abc 23ce 00bd
00000040: 7605 293d 74ba afbc 0d7d cabc b36e 1cbd
00000050: 392a 013d 0594 423d cbdd bcbc 9177 573c
00000060: 6120 533d 59ff 56bd ef52 76bd 013e 99bc
00000070: a34a 713c 92d5 45bd 5d50 a9bd 1c53 583d
00000080: 02ec a4bc 53d2 4e3a 9262 9b3c e763 193d
00000090: c46a dfbc 65ae a5bc 7938 213c cf81 47bc
000000a0: f57f d9bb 8ffb 2bbd c40b 563d fa7e 0e3c
000000b0: 6cec f83c b349 0f3b a8db 06bd 6c4e 4c3d
000000c0: 419d 8bbc 0192 c53c 7391 f63c a050 403c
000000d0: 8fba abbc 994a e1bc 1de4 0a3c bfe9 5dbd
000000e0: fb49 7fbd 3f8a 84bd 9db8 1d3d de07 413d
000000f0: b918 693d 650b 6cbd c4bd 613b 5170 043d
00000100: 700f cebc 5684 2ebd 3857 5d3d 3556 7f3c
00000110: a5b8 623d f949 ce3c 1dad efbc 19fc 9f3c
00000120: cc17 d53c 0a69 8bbc 6fe0 003c c4e6 a5bc
00000130: 1e56 043d 0d71 1a3b e099 55bd d9cf 193d
00000140: 345e a3bb 5225 b63b bde6 a4bc 383c 73bd
00000150: c0e5 3fbd b71d 80bc 1e86 73bd 69f1 81bd
00000160: c865 19bd b0cf 10bc 1015 063d d5c4 49bd
00000170: bcaa 183d 2c41 36bd 67d8 b03c 541a 613d
00000180: 8e0d d83c fb4f 19bd 853a 67bd e266 a5bc
00000190: 7a9d 3e3d 8e23 2ebd 8e33 413d be71 403c
000001a0: 1380 94bc 189e 0d3d 14c4 72bd 8c61 20bd
000001b0: 469b ae3c 2f06 37bd 2ab3 4ebd 88b3 75bd
000001c0: c4a7 1c3d fc41 7b3d 7fd8 66bc 8566 3b3d
000001d0: f25e 2a3d c659 113d 54b1 a73b 4c1d f63c
000001e0: f56a 033d 6737 3c3c cf34 85bd c1b1 c6bc
000001f0: 6fec ca3c 3810 ddbc c1bb 48bd d537 1f3d
00000200: 1b4f ea3b 96c5 d4bc 0e18 b83c 7014 5ebd
00000210: 0200 2fbd ecd2 05b7 1fb7 f6bc 8af8 1e3c
00000220: 4748 9ebb e42a bf3b 6153 243d 793b 11bd
00000230: b656 a43c 7ee1 80bc cc36 05bc 9f09 423d
00000240: 037f 933c dcb3 5a3d a839 ec3c b3e0 c9bc
00000250: c099 ef3c 4c95 263d b552 4abd 0552 47bd
00000260: 64f8 b83c ddd2 74bd 3b2e bc3c 1148 013d
00000270: 4cec af3c 60f3 16bd feee 343a 2ed9 3b3d
00000280: 2c56 18bd 6784 03bd bb94 a1bc 9875 e0ba
00000290: 3fd1 debb f0a7 6cbd 1361 ae3b 27b1 70bc
000002a0: 51d2 adbb 2646 dfbc 630a 32bc 52ce 423d
000002b0: 977c 0fbd eb0c 043d 759d 42bd fd55 4a3a
000002c0: 3605 03bd 60c5 463d 1215 133d 17af 453b
000002d0: 64d5 703d 504e e7bc 7416 8fbc 6cce ce3c
000002e0: 364b 513d 2bff a2bc 3521 99bc 29c7 683d
000002f0: a82e 86bc 59aa ea3c 245a 41bd 1ff0 61bd
00000300: 8783 14bc a970 febc c674 0abd 428a 5e3c
00000310: 334a a5bc 2785 1d3d 6130 59bd 0866 d5bc
00000320: 9ac4 12bc ef2c ac3c 5199 fc3c 08f9 503d
00000330: a8b2 d53c 0d95 e83c 6515 5c3d 0fce e1bc
00000340: 740c 43bd c864 04bd 8ba6 c5bc fc55 e03c
00000350: c0a4 c43c 8d8f e0bb c094 313d 4099 0ebd
00000360: 293d 3fbc 4220 88bc 0142 cf3b ccd5 4b3c
00000370: 7083 4abc 965f acbc 9a92 863c c2fb 04bc
00000380: 9444 40bd 33e9 763d 6147 84bd 534a 1f3d
00000390: fad3 84bc c48a fb3c b1ae 7a3c 447a 4bbd
000003a0: 216f e2bc c779 0c3d 5007 503d 9c26 b0bb
000003b0: 197d 49bd 099b 913c 6cb6 613d cd4d bdbc
000003c0: 2a40 f33c bef8 873b 6e44 bb3c 4206 903c
000003d0: 4736 693b 27a4 57bd 0f69 4fbd 213a 1dbc
000003e0: 6994 e33c 531c dc3c 5f75 5e3d 66d3 123d
000003f0: 1144 243c f603 453d 3310 46bc 79e7 f23c
