pinn_fiber_elasticity_compression.pth (torch, 670372 bytes, 10 tensors)

net.0.weight f4 [128, 2]
0	0x3f03a911	0.5142985
1	0xbf23197b	-0.63710755
2	0x3db75b90	0.08953011
3	0x3f329204	0.6975405
4	0x3e9bba9b	0.30415806
5	0x3e8f4dfa	0.2798918
6	0xbeedb3e1	-0.464263
7	0x3ecc001b	0.3984383
8	0x3ef4213d	0.4768161
9	0x3da624cd	0.08112488
10	0x3e84c63c	0.2593249
11	0x3dede8c4	0.11616662
12	0x3dcd80e1	0.10034347
13	0x3e732d12	0.23747662
14	0x3f03702d	0.5134304
15	0xbee8d56a	-0.45475322
16	0xbe4e4180	-0.20142174
17	0xbf165356	-0.5872091
18	0xbeced084	-0.4039346
19	0xbe192b05	-0.14957817
20	0x3e9c0283	0.30470666
21	0x3f10d071	0.56568056
22	0x3eb0fb65	0.345668
23	0xbf2d09ce	-0.67593086
24	0x3f0a3c8e	0.5399865
25	0xbe5db515	-0.21651109
26	0xbec623b6	-0.3869912
27	0x3f3030c9	0.6882444
28	0x3f0149c6	0.50503194
29	0x3ebb923e	0.3663501
30	0xbf2faf07	-0.68626446
31	0xbe1b83d6	-0.1518701
32	0xbf10910c	-0.56471324
33	0xbe28236d	-0.16419764
34	0xbef28880	-0.47369766
35	0xbf1e761f	-0.6189899
36	0x3ebc3254	0.36757147
37	0x3f18b87a	0.5965649
38	0x3ea280a8	0.31738782
39	0xbbae1179	-0.0053121415
40	0xbd41e73a	-0.047339655
41	0x3d4af0f7	0.04954621
42	0x3f0b5e4b	0.54440755
43	0x3eda2039	0.4260271
44	0x3e016baf	0.12638734
45	0xbeee1d7c	-0.4650687
46	0xbf319470	-0.6936712
47	0x3d82b0e2	0.06381394
48	0xbf31d38e	-0.6946343
49	0x3ee247ed	0.441955
50	0x3f1ea4c5	0.6197017
51	0x3dad1dce	0.084529504
52	0x3d39f1e5	0.045396704
53	0x3dde83ef	0.10865008
54	0xbe650fcf	-0.22369312
55	0xbefa70c0	-0.48914146
56	0xbefd5416	-0.49478215
57	0xbed7487e	-0.42047495
58	0x3f0a0a2f	0.5392179
59	0x3ed4200b	0.41430697
60	0x3e94bc54	0.29049933
61	0xbf04e2c0	-0.51908493
62	0xbf016f94	-0.5056088
63	0xbe7b1d95	-0.24523003
64	0x3f1c8e2c	0.6115444
65	0xbeb6acc3	-0.35678682
66	0x3e948877	0.29010364
67	0xbedf74e1	-0.4364386
68	0x3e74ebce	0.23918077
69	0x3c91a4c9	0.017778771
70	0xbf1b5487	-0.60675853
71	0x3f17cc0d	0.5929573
72	0xbf1c067c	-0.60947394
73	0x3d683474	0.05669065
74	0x3eeac317	0.45851967
75	0x3f090aa2	0.5353185
76	0x3f26af8c	0.65111613
77	0xbf112bf3	-0.56707686
78	0xbec22573	-0.37919196
79	0x3e9fcfbc	0.31213176
80	0xbf0d4ec7	-0.5519833
81	0xbe3ebc51	-0.18626525
82	0x3ec50c19	0.38485792
83	0x3f0b3cb0	0.54389477
84	0xbe216bf9	-0.15763845
85	0x3ee3584f	0.44403312
86	0x3f3003e5	0.6875594
87	0x3f25c5c0	0.6475487
88	0xbea6dc24	-0.3258983
89	0x3e87f646	0.2655508
90	0xbd6b130e	-0.05739122
91	0xbf1d3444	-0.61407876
92	0xbe91a3d5	-0.28445306
93	0xbe640f74	-0.2227152
94	0xbf13ebee	-0.57781875
95	0xbe485fb2	-0.19567755
96	0x3eddf978	0.43354392
97	0x3f34023b	0.70315903
98	0x3e91543b	0.28384575
99	0xbe25c80c	-0.16189593
100	0x3ef9adc9	0.487654
101	0xbefbafa9	-0.49157456
102	0x3e69f5f2	0.22847727
103	0x3e6dc922	0.23221257
104	0x3f0d5e06	0.55221593
105	0x3efb7c01	0.49118045
106	0x3f1fd40d	0.6243294
107	0xbf2b21e2	-0.66848576
108	0x3e8f09ca	0.27937156
109	0x3f058743	0.5215952
110	0x3eddef01	0.43346408
111	0x3eb536da	0.3539341
112	0x3ee2bde0	0.44285488
113	0xbe2935ac	-0.1652438
114	0xbf29d0e9	-0.66334397
115	0xbb3431ab	-0.0027495425
116	0x3f0988db	0.5372445
117	0xbe1b1031	-0.15142895
118	0xbdcabaae	-0.098988876
119	0x3ec4a169	0.38404396
120	0xbf293950	-0.66103077
121	0xbf17eec0	-0.5934868
122	0x3da168a2	0.07881285
123	0x3e981b54	0.2970835
124	0x3e87c567	0.26517794
125	0xbe83ccaa	-0.25742084
126	0x3e668f28	0.22515547
127	0xbe8135e1	-0.2523642
128	0x3e7a2c72	0.24431017
129	0x3f2ba47c	0.6704786
130	0x3e8222ea	0.25417262
131	0xbef6e86d	-0.48224202
132	0xbede75f3	-0.43449363
133	0xbef72cf1	-0.48276475
134	0xbd575563	-0.052571665
135	0x3e1a986b	0.15097205
136	0x3e573c41	0.21019079
137	0x3f2e9b6b	0.682059
138	0x3f22ddce	0.636197
139	0x3ec1994c	0.3781227
140	0xbee57028	-0.4481213
141	0xbec7a17c	-0.3899039
142	0xbde465a0	-0.11152196
143	0xbed6c417	-0.4194648
144	0x3e681a46	0.22666273
145	0x3e072972	0.13199404
146	0x3ed988b7	0.42487118
147	0xbec60fc1	-0.38683894
148	0xbf140a96	-0.5782865
149	0xbe5160d2	-0.2044709
150	0xbf2a893a	-0.6661564
151	0x3f071587	0.52767223
152	0x3d61279b	0.05496941
153	0xbec6bf9f	-0.3881807
154	0x3ec6081c	0.38678062
155	0x3d158481	0.03650332
156	0xbf0cdd77	-0.5502543
157	0xbe9dd5ec	-0.30827272
158	0x3f2808f2	0.6563865
159	0xbeff98c1	-0.4992123
160	0x3cf48a6b	0.02985116
161	0x3e8ec1ab	0.27882132
162	0xbf2092ec	-0.62724185
163	0xbefb2ee7	-0.4905922
164	0xbec10bae	-0.37704223
165	0x3f28207a	0.65674555
166	0xbe6b483b	-0.22976772
167	0x3ee5cc0b	0.44882235
168	0xbeb13b0d	-0.34615365
169	0xbe8e66ca	-0.27812797
170	0xbea0ffdb	-0.31445202
171	0x3db963d2	0.09052242
172	0xbce03aeb	-0.027371844
173	0xbe523756	-0.20528921
174	0x3ed5e176	0.41773576
175	0xbe2ef407	-0.17085277
176	0x3eb73fc5	0.3579084
177	0xbf07075b	-0.527456
178	0x3d926970	0.07149017
179	0xbe0e856d	-0.13918085
180	0x3ecbdbf2	0.39816242
181	0x3e2b1bf6	0.16709885
182	0xbe3d8889	-0.18509115
183	0x3f0e36eb	0.5555255
184	0x3e540d86	0.20708284
185	0x3e657838	0.22409141
186	0x3e84d837	0.2594621
187	0xbf1c7f5b	-0.6113183
188	0x3ca009b2	0.019535873
189	0xbd82e30c	-0.06390962
190	0xbf2fe2c3	-0.68705386
191	0xbed4ff3e	-0.41600984
192	0x3f01b76a	0.5067049
193	0xbe4be8d9	-0.19913043
194	0x3e1901ea	0.14942136
195	0xbec37168	-0.3817246
196	0x3e8534de	0.26016897
197	0x3eb702f0	0.3574443
198	0xbea0eea9	-0.31432083
199	0xbe2d9890	-0.16952729
200	0xbe8045dc	-0.25053298
201	0x3e97b595	0.29630724
202	0xbf0bd23d	-0.54617673
203	0xbe8efd95	-0.27927843
204	0xbe1e32f1	-0.1544912
205	0xbe7539ad	-0.23947783
206	0x3f211535	0.62922984
207	0x3d287660	0.041128516
208	0x3d070d1e	0.032971494
209	0x3e37e1ae	0.17957184
210	0xbdc97fb8	-0.098388135
211	0xbea9bab6	-0.33150262
212	0xbee6eafb	-0.4510115
213	0x3d1cdf5b	0.038298946
214	0xbf2d03d0	-0.6758394
215	0xbe83e64a	-0.25761634
216	0xbeeecec9	-0.4664214
217	0xbe5b2ae9	-0.21403088
218	0x3ee3b71d	0.44475642
219	0xbeeeedbd	-0.46665755
220	0xbd094682	-0.033514507
221	0x3e25656b	0.16151969
222	0x3e1aa8f1	0.15103509
223	0xbd610fd2	-0.054946728
224	0x3e4d284f	0.20034908
225	0xbc2f3888	-0.01069463
226	0xbee97bb5	-0.45602193
227	0x3e7ec548	0.24879944
228	0x3f014b06	0.505051
229	0xbf2f0fe4	-0.6838362
230	0x3ee44ff7	0.44592258
231	0xbf12b225	-0.57303077
232	0xbecd37b8	-0.40081573
233	0x3e887398	0.2665069
234	0xbf113b37	-0.5673098
235	0xbc0869a5	-0.008325969
236	0x3f0223fb	0.5083615
237	0x3d261a7e	0.04055261
238	0xbe46ed40	-0.19426441
239	0x3ea32730	0.31865835
240	0xbf29b7b8	-0.6629596
241	0x3e74fc53	0.23924379
242	0xbd143fcf	-0.036193665
243	0xbe83a699	-0.2571304
244	0xbf06d415	-0.5266736
245	0xbf11c99c	-0.56948256
246	0x3f2caccf	0.67451185
247	0xbe153bc0	-0.14573574
248	0xbeff18e0	-0.49823666
249	0xbec2dac2	-0.38057524
250	0x3e9919c0	0.29902458
251	0x3e9c19da	0.30488473
252	0x3ef30560	0.47465038
253	0x3dcb58ec	0.0992907
254	0x3ea5dada	0.32393533
255	0x3e0f50d4	0.13995677

net.0.bias f4 [128]
0	0xbe43a148	-0.19104493
1	0xbf0bce6e	-0.5461186
2	0x3f20d82f	0.6282987
3	0x3eebb751	0.46038297
4	0x3db94626	0.09046583
5	0xbe8bd602	-0.27311713
6	0xbe9c82d1	-0.30568555
7	0x3e09ff83	0.13476376
8	0xbf31e6d1	-0.6949282
9	0xbf2d3fa8	-0.67675257
10	0x3cbec301	0.023286344
11	0x3e6bf073	0.23040943
12	0x3e60de37	0.21959768
13	0x3e8fc52d	0.2808012
14	0xbeef2966	-0.46711272
15	0xbea661f9	-0.32496622
16	0xbf172548	-0.5904126
17	0x3e83feb3	0.25780258
18	0x3d22d83b	0.039756995
19	0xbe43bdb6	-0.19115338
20	0x3effb8b6	0.4994561
21	0xbd811424	-0.0630267
22	0x3f2bb2b5	0.6706956
23	0xbf1c3e2f	-0.61032385
24	0x3e856cf7	0.26059696
25	0xbdc3232d	-0.095281936
26	0x3eeb2e0e	0.45933574
27	0x3e9607df	0.2930288
28	0x3d2490da	0.040177204
29	0x3dd6fca5	0.10497407
30	0x3e0a7948	0.13522828
31	0x3dbb3980	0.09141827
32	0xbebd9922	-0.37030894
33	0xbe5838d2	-0.21115425
34	0xbe933ead	-0.28758755
35	0xbef54897	-0.47906944
36	0xbf0a301b	-0.53979653
37	0x3f1555e4	0.58334184
38	0x3f03df39	0.51512486
39	0x3ecd5cf9	0.40109995
40	0x3f223b2f	0.63371557
41	0xbd7fdc13	-0.06246574
42	0xbd8329c0	-0.064044476
43	0xbe75c0ad	-0.23999281
44	0xbe9b03eb	-0.30276427
45	0xbdf86cc5	-0.12130121
46	0xbf2313c3	-0.6370203
47	0x3edc9f7e	0.43090433
48	0x3f2776e5	0.65415794
49	0xbe5115f4	-0.2041853
50	0x3f25b8ad	0.6473492
51	0x3f081128	0.5315118
52	0xbd9fdff5	-0.07806388
53	0x3eceb880	0.40375137
54	0xbeb804b3	-0.35941085
55	0x3e86ffc6	0.26367015
56	0x3ebb5c81	0.36594012
57	0xbde781c2	-0.11304046
58	0xbf0c87dc	-0.54894805
59	0xbe972e41	-0.29527476
60	0x3ecf069e	0.40434736
61	0xbf32d71c	-0.6985948
62	0x3f26a1d3	0.65090674
63	0xbeb4ce5c	-0.3531369
64	0x3f09ec4e	0.538762
65	0xbeb06f97	-0.34460136
66	0xbe5fa167	-0.21838914
67	0xbf20227a	-0.6255261
68	0x3e850361	0.2597914
69	0xbef27e7e	-0.4736213
70	0xbf023d5e	-0.5087489
71	0xbeb8006b	-0.3593782
72	0xbe56fc1d	-0.20994611
73	0x3db21f09	0.08697326
74	0x3e7b880d	0.24563618
75	0x3e3ffb1a	0.18748131
76	0xbe8397a4	-0.2570163
77	0xbed1914d	-0.40931168
78	0x3d93ed69	0.07223017
79	0x3e7586ec	0.2397725
80	0xbd158a4e	-0.03650885
81	0xbee9f9d2	-0.4569841
82	0x3e063993	0.131079
83	0xbeb77141	-0.35828593
84	0x3eb23ffb	0.34814438
85	0xbd1464fb	-0.036229115
86	0x3f238e81	0.6388932
87	0xbf1b24af	-0.6060285
88	0xbebbc04b	-0.36670145
89	0xbea96add	-0.33089343
90	0xbe3a5f3a	-0.18200389
91	0x3e8005c6	0.25004405
92	0xbf270a87	-0.6525044
93	0xbe459d31	-0.19298245
94	0xbf20745d	-0.62677556
95	0x3ebae73d	0.36504546
96	0xbe96b87d	-0.29437628
97	0xbf14c320	-0.5811024
98	0xbf1594af	-0.5843
99	0x3efd387f	0.49457166
100	0x3f2f2c2f	0.68426794
101	0x3f182f4e	0.5944718
102	0x3d5694a9	0.052387867
103	0x3db5d0c1	0.08877707
104	0x3f07c192	0.5302974
105	0xbd82f800	-0.063949585
106	0x3f14c34a	0.5811049
107	0x3e24ba0c	0.16086596
108	0xbedb3ba5	-0.42818943
109	0xbf2aee0c	-0.6676948
110	0x3dfcfcc1	0.123528965
111	0xbea20cb8	-0.3165033
112	0xbeaf31bb	-0.3421763
113	0xbec21271	-0.37904695
114	0x3db8ec72	0.09029473
115	0xbd6ea346	-0.05826118
116	0xbf117550	-0.5681963
117	0x3f318091	0.693368
118	0x3ee7aa67	0.45247194
119	0xbe6a8ce4	-0.22905308
120	0xbeb9ce4b	-0.36290202
121	0xbe7fb328	-0.24970686
122	0xbf183d82	-0.59468853
123	0x3f0dbf7c	0.55370307
124	0x3f2cbfdd	0.6748026
125	0x3dd3b167	0.10336571
126	0xbe17543d	-0.14778228
127	0x3f0f3193	0.5593502

net.2.weight f4 [256, 128]
0	0x3d104222	0.03521932
1	0xbcf1f255	-0.029534498
2	0xbda67320	-0.08127427
3	0xbc6647aa	-0.014055172
4	0x3d4b5527	0.049641754
5	0xbd10e55c	-0.035374984
6	0x3d5486e1	0.051886443
7	0x3d41423b	0.047182303
8	0xbd16a9a8	-0.03678289
9	0xbdb7deb0	-0.08978021
10	0xbd591293	-0.05299623
11	0xbc13d4ef	-0.009022935
12	0xbd60eabc	-0.05491136
13	0xbdb53957	-0.08848827
14	0xbcba9f15	-0.022780934
15	0x3d7caf59	0.061690662
16	0xbd07acef	-0.033123907
17	0x3d9a78c7	0.07542568
18	0xbc5b4a6d	-0.013384444
19	0x3c79bc4c	0.015242647
20	0x3d81a4d1	0.06330264
21	0xbd0b0f58	-0.03395018
22	0xbcdcaf29	-0.026938992
23	0x3d98fb9f	0.07469868
24	0x3d908e81	0.070584305
25	0x3d4b6037	0.049652305
26	0x3d92238f	0.071356885
27	0x3d99872a	0.074964836
28	0xbcdcb63f	-0.02694237
29	0xbd25ef2f	-0.040511306
30	0x3da3ceb8	0.07998413
31	0x3d2c9f3c	0.042144045
32	0xbc3966d0	-0.011316016
33	0xbcec266d	-0.028826917
34	0x3d05fed9	0.032713745
35	0x3d13a159	0.036042545
36	0x3d19fc80	0.03759432
37	0x3d49515a	0.04914985
38	0xb7c7b0c1	-2.3804956e-05
39	0xbd47ad1b	-0.04874907
40	0x3cd7faae	0.02636465
41	0xbd76d50e	-0.06026178
42	0xbd76d388	-0.060260326
43	0xbdb6bc5b	-0.08922645
44	0x3d6f0f5f	0.05836427
45	0xbdb6d9ed	-0.08928285
46	0xbd82c85c	-0.06385872
47	0xbd39cf75	-0.045363862
48	0x3d67c1b4	0.056581214
49	0x3c211de6	0.0098337885
50	0xbd3b9628	-0.045797497
51	0xbd8f4b84	-0.06996825
52	0x3d4b6020	0.04965222
53	0x3d8ecfad	0.06973205
54	0x3bb20516	0.005432735
55	0xbdb2b645	-0.087261714
56	0xbd0c73cc	-0.03429012
57	0xbd5488bf	-0.051888224
58	0x3d60acb0	0.054852188
59	0xbdbc5c79	-0.09197325
60	0xbd2f4b5a	-0.04279647
61	0xbd84f064	-0.064911634
62	0xbbfd8322	-0.0077365795
63	0x3da38687	0.079846434
64	0x3d1feeb1	0.039045993
65	0xbd6d617e	-0.057954304
66	0x3c8321f8	0.016007408
67	0xbd5db22d	-0.054125
68	0x3d422bb7	0.04740497
69	0xbd3fa19a	-0.046784975
70	0x3d8edfae	0.06976257
71	0x3daa4702	0.08314325
72	0x3d1b9f94	0.037993982
73	0x3c230f86	0.009952432
74	0xbd8ee692	-0.069775715
75	0xbc8da072	-0.01728842
76	0xbd0f6e6c	-0.035017416
77	0x3daad5aa	0.083415344
78	0x3d78dc84	0.060757175
79	0x3ceaab66	0.028646182
80	0x3d30a9b0	0.043130577
81	0xbc290a38	-0.010317378
82	0x3d7789b9	0.060434077
83	0x3d5b1743	0.05348898
84	0xbcf6028f	-0.030030517
85	0xbd9ae81f	-0.07563805
86	0xbc34efba	-0.011043483
87	0x3d152a1c	0.03641711
88	0xbd318634	-0.043340877
89	0x3b03d55f	0.0020116193
90	0xbd05b804	-0.032646194
91	0xbd603d3b	-0.054745894
92	0xbbac7533	-0.0052629947
93	0x38d50877	0.00010158208
94	0xbd3fd7e7	-0.04683676
95	0xbc821bb7	-0.015882356
96	0xbdb0d674	-0.08634654
97	0xbda980ac	-0.08276495
98	0x3d5e97fd	0.054344166
99	0xbdbb393b	-0.09141775
100	0xbbeff262	-0.0073225955
101	0xbc9ce843	-0.01915372
102	0xbd77ed5f	-0.06052911
103	0xbda3668b	-0.07978543
104	0xbdb4ad7e	-0.088221535
105	0xbc88efe9	-0.01671596
106	0xbd9b730d	-0.075903036
107	0xbdbc8437	-0.092049055
108	0x3d6dd88d	0.058067847
109	0xbd191f17	-0.037383165
110	0x3da28ecc	0.079373926
111	0xbbe03a4a	-0.006842886
112	0x3d87655d	0.066111304
113	0xbd79c21e	-0.06097614
114	0x3da3065d	0.07960198
115	0xbd580421	-0.052738313
116	0x3c7d4afa	0.01545977
117	0x3d96131d	0.07327864
118	0xbd00577a	-0.031333424
119	0x3d94fea7	0.072751336
120	0x3b8fdc6b	0.0043902895
121	0xbd356c54	-0.044292763
122	0xbd8c2089	-0.06842143
123	0x3d5813d0	0.05275327
124	0x3d7f615d	0.062348712
125	0xbd349696	-0.044088922
126	0xbd8907b6	-0.06690924
127	0x3d9ea581	0.07746411
128	0xbcbe2c98	-0.023214623
129	0x3d78d23d	0.060747374
130	0x3d8f9097	0.0701
131	0x3d0f080a	0.034919776
132	0xbc010010	-0.00787355
133	0x3d9cde3c	0.07659575
134	0x3d8a4638	0.067516744
135	0x3d15527f	0.036455628
136	0x3cfac3e6	0.03061099
137	0x3c202887	0.0097752875
138	0xbd7b9fa4	-0.061431542
139	0xbc876212	-0.016526256
140	0xbd54232c	-0.051791355
141	0x3d0e3f57	0.034728374
142	0xbd99e34f	-0.07514059
143	0x3d4c753d	0.049916495
144	0x3ce892ff	0.028390406
145	0x3d4bf969	0.049798403
146	0xbcd6dbbd	-0.026227826
147	0x3b6d76fb	0.0036234248
148	0xbcd04d58	-0.025427505
149	0xbc71c9db	-0.014757599
150	0x3d107e45	0.03527667
151	0xbd695b22	-0.056971677
152	0x3d886240	0.06659365
153	0x3d81869f	0.06324505
154	0x3bfd8863	0.007737206
155	0x3d34cc3e	0.044140093
156	0xbd644fa9	-0.055740032
157	0x3c22a5ad	0.0099271955
158	0x3d8f6fb0	0.070037246
159	0x3d751960	0.059838653
160	0x3d4b98e7	0.049706366
161	0x3cdef1ca	0.027214903
162	0xbb363c29	-0.0027806854
163	0x3d9d7bae	0.07689606
164	0xbda73bff	-0.0816574
165	0xba5dbfcb	-0.00084590603
166	0x3c61c8e4	0.013780806
167	0xbd867f58	-0.06567258
168	0x3d9ff5aa	0.078105286
169	0xbc887e60	-0.016661823
170	0x3d97b2cf	0.07407152
171	0x3d4fe04e	0.050751023
172	0xbca8dba6	-0.020612549
173	0x3d28f45c	0.041248664
174	0x3bfa1539	0.0076319245
175	0x3d52a72b	0.051428955
176	0x3d29a2c8	0.041415006
177	0x3d0b70d3	0.034043144
178	0x3d1c11db	0.038102966
179	0xbc4b53fb	-0.012410159
180	0x3d9dface	0.07713853
181	0x3d18cd3c	0.0373051
182	0xbcdca0d2	-0.026932154
183	0x3d0df856	0.03466066
184	0x3d46a0e9	0.0484933
185	0xbd51ebdf	-0.051250335
186	0x3d3c085b	0.045906406
187	0x3d2790d0	0.04090959
188	0xbcb0e7b0	-0.021594852
189	0xbccec21f	-0.025239049
190	0x3d89d4cf	0.06730043
191	0xbb031d9e	-0.0020006667
192	0xbc18a4eb	-0.009316663
193	0xbd51bf1a	-0.05120764
194	0xbd83ef95	-0.06442181
195	0xbdadc79a	-0.084853366
196	0x3d8bf4dd	0.06833813
197	0xbd97c4aa	-0.074105576
198	0xbd8113a4	-0.06302574
199	0x3c2d7dbc	0.010589059
200	0xbcd770d0	-0.02629891
201	0xbd413d33	-0.047177505
202	0xbca98548	-0.020693436
203	0xbd6e9606	-0.058248542
204	0xbdb439e9	-0.08800108
205	0x3d7b7b39	0.06139681
206	0xbda453d0	-0.080237985
207	0xbc24359b	-0.010022546
208	0x3d8252db	0.0636346
209	0xbdb28f9b	-0.08718797
210	0x3d936a2d	0.07197986
211	0x3d926a78	0.071492136
212	0x3d30a16f	0.043122705
213	0x3d186f51	0.037215535
214	0x3d192012	0.0373841
215	0xbd5761d8	-0.052583545
216	0xbda83dca	-0.0821491
217	0xbd9d4f82	-0.076811805
218	0xbd862106	-0.065492675
219	0x3d750b56	0.059825264
220	0xbd27b8a5	-0.040947575
221	0xbdb585a4	-0.088633806
222	0x3b95fcb8	0.0045772456
223	0xbc1537e6	-0.0091075655
224	0x3d86e145	0.065859355
225	0xbd2c53bc	-0.042072043
226	0x3c1bb470	0.009503469
227	0x3c561d6e	0.01306854
228	0xbd963b76	-0.0733556
229	0xbda91765	-0.08256415
230	0x3d37851a	0.04480467
231	0xbcdce9fd	-0.026967043
232	0x3c6750f1	0.014118419
233	0xbd2b75ff	-0.041860577
234	0xbdac2590	-0.08405602
235	0x3d7b3a23	0.06133474
236	0xbd9ffd71	-0.07812012
237	0x3d6fde9e	0.058561914
238	0x3d0d8054	0.03454621
239	0xbc3e0540	-0.011597931
240	0xbbf2231c	-0.0073894393
241	0x3d4f7123	0.050645005
242	0xbd9ede90	-0.07757294
243	0x3d03b649	0.032156263
244	0xbd86934a	-0.06571062
245	0xbd732658	-0.05936274
246	0xbca99882	-0.020702604
247	0x3c9267a1	0.01787168
248	0x3d38c736	0.045111857
249	0xbc0fde54	-0.0087810345
250	0x3d8754f1	0.06607998
251	0xbd9fb139	-0.077974744
252	0x3c9ee618	0.019396827
253	0xbdb6d205	-0.08926777
254	0x3d54b9b0	0.051934898
255	0xbac86c10	-0.0015290994

net.2.bias f4 [256]
0	0x3cfb5252	0.030678902
1	0x3d9c1cb6	0.07622664
2	0xbda9a80d	-0.08284006
3	0x3dab1fc0	0.08355665
4	0xbd0ac7c5	-0.03388192
5	0xbd677b9a	-0.05651436
6	0xbca34380	-0.019929647
7	0xbd366ee4	-0.044539347
8	0xbbb7a1b4	-0.0056039933
9	0x3d02cea8	0.031935364
10	0xbcedf520	-0.029047549
11	0x3c40687e	0.011743663
12	0xbd3e9b86	-0.046535037
13	0xbd882a89	-0.06648738
14	0x3d9eb5cc	0.07749519
15	0xbd2cfa67	-0.04223099
16	0xbd991fbe	-0.074767575
17	0x3d507cba	0.0509002
18	0xbc1bc59a	-0.009507561
19	0xbc1c9589	-0.009557136
20	0x3c303057	0.010753713
21	0x3d8d3623	0.068950914
22	0x3d930062	0.071778074
23	0x3d669735	0.056296546
24	0xbd72833f	-0.059207197
25	0x3d922613	0.07136168
26	0x3aef1009	0.0018239032
27	0xbd6ac894	-0.057320192
28	0x3bbe8eab	0.005815347
29	0xbd9d8dfb	-0.07693096
30	0xbbba2cd5	-0.005681614
31	0x3ca32132	0.01991329
32	0xbd87270e	-0.06599246
33	0x3d2fe1b8	0.04293987
34	0x3d99af26	0.0750411
35	0xbc97af67	-0.018516256
36	0x3da191de	0.0788915
37	0xbda1d8bd	-0.07902668
38	0xbda4ae36	-0.080410406
39	0xbd0df5c0	-0.034658194
40	0xbda9abcb	-0.0828472
41	0xbd31401b	-0.043274026
42	0x3d447abb	0.047968607
43	0x3d549f1e	0.05190956
44	0x3c7acb93	0.015307325
45	0xbba45dcb	-0.005016064
46	0x3d7aaa29	0.061197434
47	0xbc273049	-0.010204383
48	0x3db8e9af	0.090289466
49	0x3d43e524	0.047825947
50	0xbbaad801	-0.005213738
51	0x3d6504f6	0.055912934
52	0xbd5bfc2c	-0.053707287
53	0xbdb79fd7	-0.08966034
54	0xbd4f616e	-0.050630026
55	0xbdc1dcae	-0.094659194
56	0xbd7f7bc3	-0.062373888
57	0xbc84de02	-0.016219143
58	0xbd7d81ad	-0.061891247
59	0x3cee6403	0.029100424
60	0x3d06cde5	0.0329112
61	0x3db2378e	0.087020025
62	0xbd521563	-0.051289927
63	0xbd003d6d	-0.03130858
64	0xbd87a0b3	-0.06622448
65	0xbd838dfd	-0.064235665
66	0xbb3712ce	-0.0027934792
67	0xbdb3fef2	-0.08788861
68	0x3caa82d2	0.020814333
69	0x3d51cdff	0.051221844
70	0x3cdc9e49	0.026930945
71	0x3d81b7cd	0.06333885
72	0x3d889a20	0.06670022
73	0x3d4cb18a	0.049974002
74	0xbda46a29	-0.08028061
75	0xbd1504ff	-0.036381718
76	0x3c8b0d89	0.016974228
77	0xbdca90fa	-0.09890933
78	0xbd8e0ff2	-0.06936635
79	0x3c20cefb	0.009814973
80	0x3d6cc896	0.05780848
81	0xbc0eca74	-0.008715261
82	0xbd2d48d9	-0.0423058
83	0x3d90b3ac	0.0706552
84	0xbdacc13d	-0.08435295
85	0x3cb23f8b	0.021758815
86	0x3d12e7d9	0.03586564
87	0x3c4542ed	0.012039882
88	0x3da83406	0.08213048
89	0x3c3cf7e8	0.011533715
90	0x3d8fc6cf	0.070203416
91	0xbcf7e09a	-0.030258466
92	0x3d575837	0.052574363
93	0xbd8a70d0	-0.067597985
94	0x3d798619	0.0609189
95	0x3cdfe0a1	0.027328791
96	0x3d3c5f73	0.045989465
97	0x3d9f7fff	0.07788085
98	0x3d298254	0.041384056
99	0xbdaa6d2f	-0.08321606
100	0xbc827bc9	-0.015928166
101	0xbd56b03b	-0.05241416
102	0xbd82906a	-0.06375201
103	0xbcc692ef	-0.024239985
104	0x3d935279	0.07193465
105	0xbc94dfb0	-0.018173069
106	0xbdb7c2f0	-0.08972728
107	0x3d0f132a	0.034930386
108	0xbdb38834	-0.08766213
109	0xbd7067b6	-0.058692656
110	0xbd9e6874	-0.077347666
111	0xbce562e8	-0.028001264
112	0x3dac23c1	0.08405257
113	0x3c818a48	0.015813008
114	0x3d48e5a6	0.049047135
115	0x3d9eb378	0.07749075
116	0xbd28ed13	-0.041241717
117	0xbc9bc3ac	-0.019014202
118	0x3d2fa712	0.04288394
119	0x3dae049e	0.084969744
120	0xbc9524c8	-0.018206015
121	0xbcf5eb04	-0.03001929
122	0x3d080cd3	0.033215355
123	0xbd3d2c03	-0.04618455
124	0x3c440ad2	0.01196547
125	0x3c57af89	0.013164409
126	0xbcb8e78b	-0.022571346
127	0x3d288190	0.041139185
128	0xbd620888	-0.055183917
129	0xbca0d3c3	-0.019632226
130	0xbd8906e9	-0.06690771
131	0x3d652d03	0.05595113
132	0x3ce94bb0	0.028478473
133	0xbc58b4e2	-0.01322672
134	0x3c6d3aa8	0.014479317
135	0xbbf85c04	-0.0075793285
136	0xbb5c618b	-0.0033627476
137	0xbd0942a6	-0.033510827
138	0x3ca02d75	0.019552926
139	0x3d69af27	0.057051804
140	0x3d48b108	0.048996955
141	0x3d8800da	0.066407874
142	0x3d7f61a3	0.062348973
143	0xbd089e8b	-0.033354323
144	0xbcc22695	-0.023700038
145	0xbb204d4c	-0.0024460135
146	0xbd20d4da	-0.03926549
147	0x3c61bdb4	0.013778139
148	0xbd8833b0	-0.066504836
149	0xbd9121cb	-0.070865236
150	0xbb927523	-0.00446953
151	0xbd0c6393	-0.03427465
152	0xbda61377	-0.081091814
153	0xbb4e24f2	-0.0031455127
154	0x3bd84466	0.0065999506
155	0xbce5c3e2	-0.028047506
156	0x3d65e5cd	0.05612736
157	0x3d5d178c	0.053977534
158	0xbdab0bef	-0.083518855
159	0xbd2f2ab5	-0.042765338
160	0x3d5c21f9	0.053743336
161	0xbc560688	-0.013063081
162	0x3caf0011	0.021362336
163	0xbd73c6c2	-0.059515722
164	0xbdac52c3	-0.08414223
165	0x3d13dfc6	0.03610208
166	0xbd72a758	-0.059241623
167	0xbd918cb1	-0.07106913
168	0xbda92203	-0.0825844
169	0x3d9e0dcc	0.07717475
170	0x3d2a6480	0.04159975
171	0x3ca82ce9	0.020529227
172	0x3c93bade	0.018033441
173	0xbc9dcff5	-0.0192642
174	0xbce2b3bd	-0.027673597
175	0x3d17b3ed	0.037036825
176	0x3da2527d	0.0792589
177	0xbd58e9e1	-0.05295742
178	0x3d75467c	0.059881672
179	0xbd1f3444	-0.038868204
180	0x3da4ee87	0.08053308
181	0x3ad99d4e	0.0016602667
182	0xbc7be119	-0.015373492
183	0x3d3195d9	0.043355796
184	0x3d292581	0.041295532
185	0xbc2dc450	-0.010605887
186	0xbd19d55c	-0.03755699
187	0x3cff3e85	0.031157741
188	0x3d1b7143	0.03794981
189	0xbc5ddc60	-0.013541311
190	0xbdaebad8	-0.08531731
191	0xbdacebd5	-0.08443419
192	0xbd5eb50d	-0.054371882
193	0xbc868892	-0.016422544
194	0xbcf16dd0	-0.029471308
195	0x3db0d2c8	0.08633953
196	0xbd834290	-0.0640918
197	0xbd2cade9	-0.04215804
198	0x3a2f823c	0.00066951266
199	0xbbf20d48	-0.007386837
200	0xbd672e3a	-0.05644057
201	0xbd8725b5	-0.06598989
202	0xbd0af979	-0.033929322
203	0xbc8c7029	-0.017143326
204	0x3c8afda1	0.016966643
205	0xbd5d9dc1	-0.054105524
206	0x3cba7158	0.022759125
207	0x3d26d560	0.040730834
208	0x3cd11dbe	0.025526877
209	0xbd530890	-0.051521838
210	0x3c66b839	0.014082008
211	0xbc5215e5	-0.012822603
212	0x3d862117	0.0654928
213	0x3d83e9d5	0.06441084
214	0x3da93442	0.082619205
215	0x3d5916bb	0.053000193
216	0x3d8b6bc1	0.06807662
217	0xbd8ef481	-0.06980229
218	0xbca5cc8c	-0.020239137
219	0xbd8a771b	-0.06760999
220	0x3da0911a	0.07840176
221	0x3dacdcbf	0.084405415
222	0x3c4ca948	0.012491532
223	0xbd8dad9d	-0.0691788
224	0x3d62a777	0.05533549
225	0xb9c0d64e	-0.00036780763
226	0xbd0a8104	-0.033814445
227	0x3d27cb80	0.040965557
228	0xbd9189ce	-0.07106362
229	0xbc9e2486	-0.019304525
230	0x3d043b8a	0.032283343
231	0xbd7322a2	-0.0593592
232	0xbdb93e65	-0.09045104
233	0x3d9b38df	0.07579207
234	0xbaa50f23	-0.0012593012
235	0x3d75117b	0.059831124
236	0xba2eec6e	-0.0006672804
237	0xbd024cd5	-0.031811554
238	0xbb813e19	-0.00394417
239	0xbb252ad5	-0.0025202532
240	0x3d57ea51	0.052713696
241	0x3c903c61	0.017606916
242	0x3c65898a	0.014009843
243	0x3b7df150	0.003874857
244	0x3c9bb990	0.019009382
245	0x3da65092	0.08120836
246	0xbc98e7cc	-0.018665217
247	0xbc47f6e5	-0.01220486
248	0x3d5b661c	0.053564176
249	0xbda22eb3	-0.079190634
250	0xbcf15428	-0.029459074
251	0x3c92ca4a	0.017918725
252	0x3d9df586	0.077128455
253	0xbb19843a	-0.002342476
254	0x3c8ec56b	0.01742812
255	0xbd63e5ff	-0.055639263

net.4.weight f4 [256, 256]
0	0x3bf4cb30	0.007470511
1	0xbc18938c	-0.009312522
2	0x3d38da8a	0.04513029
3	0xbd266075	-0.040619332
4	0xbd34bbe2	-0.04412449
5	0x3c7a93de	0.015294043
6	0x3d3cfb38	0.04613802
7	0x3c15c903	0.009142163
8	0x3ce74df7	0.028235419
9	0xbb8087f9	-0.003922459
10	0xbcf20f8e	-0.029548433
11	0x3d3f7770	0.046744764
12	0x3bf2a917	0.007405411
13	0xbd30635b	-0.043063503
14	0xbd4b820f	-0.04968458
15	0xbd59172e	-0.05300062
16	0x3bccc811	0.0062494357
17	0xbd5db921	-0.05413163
18	0xbcf471d7	-0.02983944
19	0x3d54cd66	0.051953696
20	0xbc79ad61	-0.015239091
21	0xbd2d3d1a	-0.0422946
22	0xbc958f9d	-0.018256957
23	0xbd6167f5	-0.05503078
24	0x3a7301ff	0.0009270012
25	0xbcf7fbb5	-0.03027139
26	0x3c437cf5	0.011931648
27	0x3d648d41	0.055798773
28	0xbd23182d	-0.039817978
29	0xbd164391	-0.03668553
30	0x3d3b1644	0.04567553
31	0x3d07bdd5	0.033140022
32	0x3bbffd6c	0.0058590677
33	0x3d502c26	0.050823353
34	0x3d3fb5dc	0.046804294
35	0x3d2cc247	0.042177465
36	0x3cb997ef	0.022655455
37	0x3851cc56	5.0019786e-05
38	0x3ca9b286	0.02071501
39	0xba46c487	-0.00075823854
40	0x3c0a8e6b	0.008456807
41	0x3d3551d8	0.044267505
42	0x3ccad1e3	0.024758285
43	0xbd57271e	-0.05252754
44	0xbd2330a7	-0.03984132
45	0x3c76a13e	0.015053092
46	0x3ca62d0e	0.020285156
47	0xbd0b63ae	-0.03403061
48	0x3d06522d	0.032793213
49	0xbc39065e	-0.011293022
50	0xbc94a365	-0.018144319
51	0xbd3ef06d	-0.046616007
52	0xbcc7b83d	-0.024379844
53	0xbc897aaf	-0.016782133
54	0x3d191deb	0.037382048
55	0xbc7452c0	-0.014912307
56	0xbc00937f	-0.007847666
57	0x3c9a364f	0.018824724
58	0x3d19707e	0.037460797
59	0xbcd82203	-0.026383406
60	0x3c30b56f	0.010785445
61	0x3d2175aa	0.039418854
62	0x3d0b2e4a	0.03397969
63	0xba08d3e3	-0.0005219562
64	0xbc96a8cb	-0.018391034
65	0x3c462874	0.012094606
66	0xbd432623	-0.047643792
67	0xbcb8bc69	-0.022550778
68	0xba79df04	-0.0009531828
69	0xbc82f8c1	-0.015987756
70	0xbd667f51	-0.056273762
71	0x3d4f0044	0.050537363
72	0xbbdbe118	-0.006710183
73	0x3d15259e	0.036412828
74	0xbc77a93f	-0.015116035
75	0x3d22c0d8	0.03973469
76	0x3c8a6b69	0.01689692
77	0xbd2899e5	-0.04116239
78	0x3d140c0c	0.0361443
79	0x3d014270	0.0315575
80	0x3cdb7531	0.02678928
81	0xbd615070	-0.05500835
82	0xbd390f50	-0.04518062
83	0x3d41056f	0.047124323
84	0xbd547fbd	-0.051879633
85	0xbd08ff04	-0.033446327
86	0x3d3f68ab	0.04673068
87	0x3cd3bdd7	0.025847359
88	0xbd068796	-0.03284415
89	0xbccaf632	-0.024775598
90	0xbcaf7b67	-0.021421148
91	0xbd306006	-0.043060325
92	0x3ce327ea	0.027728993
93	0x3d4b1ab2	0.049586006
94	0x3d1a5f5d	0.0376886
95	0xbc8cd047	-0.017189158
96	0xbd5def8a	-0.05418352
97	0x3d4f9434	0.050678447
98	0x3d45319f	0.048143025
99	0xbb5089bc	-0.0031820377
100	0x3d2f03e9	0.04272834
101	0xbd358a46	-0.04432132
102	0xbd08bcb1	-0.033383075
103	0x3d0c168c	0.03420119
104	0x3d2178b3	0.03942175
105	0x3c1af458	0.00945767
106	0xbd122ecc	-0.03568916
107	0x3c514784	0.012773398
108	0x3d0b1e84	0.03396465
109	0xbc7e6371	-0.015526638
110	0x3d635f21	0.055510644
111	0x3d592651	0.053015057
112	0xbcd5c47e	-0.026094671
113	0xbc4634f7	-0.012097589
114	0x3bda1e7d	0.0066564665
115	0xbc234684	-0.009965543
116	0x3c6ab048	0.014324255
117	0xbce35e89	-0.027755039
118	0x3c3ad80a	0.011404047
119	0xbd420dae	-0.047376327
120	0xbd0626c3	-0.03275181
121	0x3c8eed6e	0.0174472
122	0x3d2b2ad7	0.041788902
123	0xbd769fb8	-0.060210913
124	0x3d4e6239	0.05038664
125	0xb833c3ec	-4.2859392e-05
126	0x3d02a8e8	0.031899363
127	0xbcf1e787	-0.029529346
128	0xbd296efd	-0.041365612
129	0xbc0b9b5a	-0.008520925
130	0x3d6c4ffb	0.057693463
131	0x3c7d6b33	0.015467453
132	0x3c324d64	0.010882709
133	0xbcb16283	-0.02165342
134	0x3d3a1e27	0.04543891
135	0x3c8b8823	0.017032688
136	0x3c64354b	0.013928722
137	0x3d3cb08a	0.0460668
138	0x3c641629	0.013921299
139	0x3d156b3f	0.03647923
140	0xbd867fff	-0.06567382
141	0x3cbda26b	0.023148736
142	0x3d4d4b24	0.050120488
143	0xbd27c2cb	-0.040957253
144	0x3ceaa784	0.02864433
145	0xbd2cec3e	-0.042217486
146	0x3d5b2a0a	0.05350689
147	0xbd277c39	-0.040889952
148	0xbbe339c6	-0.0069343774
149	0x3b00eba8	0.0019671712
150	0xbd4d19df	-0.0500735
151	0xbd4d59da	-0.050134517
152	0x3d042b0a	0.032267608
153	0xbd40f4bf	-0.047108408
154	0x3c141717	0.009038708
155	0x3d18cebb	0.03730653
156	0xbd1e6ac7	-0.03867605
157	0x3ba6f4cf	0.0050951014
158	0xbbb1695f	-0.0054141725
159	0xbd0baf71	-0.03410286
160	0x3d679a6c	0.056543753
161	0x3bd6fe71	0.0065610935
162	0xbcfd4da4	-0.030920811
163	0x3d16dc4b	0.03683118
164	0x3d57b654	0.052664116
165	0xbd7a8d29	-0.061169777
166	0x3d1ab60f	0.03777128
167	0xbca2fc13	-0.019895589
168	0x3cdd5811	0.027019532
169	0xbd00b325	-0.031420846
170	0x3d14dece	0.036345296
171	0xbc290788	-0.010316737
172	0x3d17181d	0.03688823
173	0xba83c347	-0.0010052704
174	0x3c19faa4	0.009398136
175	0xbd6b048b	-0.05737738
176	0x3c9522ba	0.018205035
177	0x3d167990	0.036737025
178	0xbd21de08	-0.039518386
179	0x3cb222fa	0.021745194
180	0xbca4055a	-0.020022083
181	0xbd7896e2	-0.060690768
182	0x3c89ee9c	0.01683741
183	0xbd1639af	-0.036676105
184	0x3c9d09f2	0.019169781
185	0xbc7f861c	-0.015595939
186	0xbd01ef27	-0.031722214
187	0x3d054c3d	0.03254341
188	0xbd429de0	-0.047513843
189	0x3bdf5c5e	0.006816431
190	0x3d237504	0.039906517
191	0xbc6b91eb	-0.014378051
192	0xbd542b64	-0.051799193
193	0xbd8a9d14	-0.067682415
194	0xbcecc7a1	-0.028903784
195	0xbd53f500	-0.051747322
196	0xbb6e4b09	-0.0036360642
197	0x3ba2c127	0.004966873
198	0xbc54514b	-0.012958835
199	0xbc637248	-0.013882227
200	0x3caa3846	0.020778786
201	0x3d2c900e	0.04212957
202	0x3a91ec95	0.0011133129
203	0xbc8b2f61	-0.016990365
204	0x3d2a6a31	0.04160518
205	0x3c5b6c26	0.013392484
206	0xbcf99ed4	-0.030471243
207	0x3d2eba97	0.042658415
208	0x3caefea7	0.021361662
209	0xbd69fc92	-0.057125635
210	0x3b9d8202	0.004806758
211	0xbd36b946	-0.044610284
212	0xbcedfa6e	-0.029050078
213	0x3d235c1e	0.03988277
214	0xbd0b367a	-0.0339875
215	0x3cce171b	0.025157502
216	0xbd796358	-0.060885757
217	0x3cdffaf0	0.027341336
218	0x3cb101a3	0.021607226
219	0xbd5a3159	-0.053269718
220	0xbd24d29e	-0.040239923
221	0xbd8853b4	-0.0665659
222	0x3c7fd3e6	0.015614485
223	0xb9f0ac53	-0.0004590476
224	0xbb5c3bde	-0.003360502
225	0xbc0ce5fb	-0.0085997535
226	0x3d3da5a1	0.046300534
227	0x3cb45e49	0.022017615
228	0xbd73b82c	-0.05950181
229	0xbc5f210c	-0.013618719
230	0x3d40bc24	0.047054425
231	0x3d5b0575	0.053472
232	0x3cad52d3	0.021157658
233	0xbd87ffcb	-0.066405855
234	0x3cd964ea	0.026537377
235	0xbd492d8e	-0.04911571
236	0xbd4dbde3	-0.05022992
237	0xbc8c9f5a	-0.017165828
238	0xbd498e2a	-0.049207844
239	0xbd5a70f2	-0.05333037
240	0xbd87f6b0	-0.06638849
241	0xbd681d00	-0.05666828
242	0xbd7e25e4	-0.062047854
243	0x3d5e3ed3	0.054259133
244	0x3d1fa5ba	0.03897641
245	0xbb88f4f0	-0.0041795895
246	0x3d5549a0	0.052072167
247	0x3c5342d8	0.012894355
248	0xbcfab4e4	-0.030603833
249	0x3c572ef6	0.013133755
250	0x3c8c1bfb	0.017103186
251	0x3d5f380f	0.05449682
252	0x3ccec07b	0.025238266
253	0xbd06f974	-0.03295274
254	0xbd316f11	-0.04331881
255	0xbc9aec0f	-0.01891139

net.4.bias f4 [256]
0	0xbd816743	-0.06318524
1	0xbb31fe4b	-0.0027159627
2	0xbcdb7458	-0.026788875
3	0xbd0b51ea	-0.034013666
4	0x3d3e1d2d	0.046414543
5	0x3cf757c3	0.030193215
6	0xbcdec80c	-0.027195
7	0xbd560379	-0.052249406
8	0xbd4cfd9e	-0.050046556
9	0x3d115c0d	0.035488177
10	0x3c83f595	0.016108314
11	0xbd053d92	-0.03252942
12	0x3bad3824	0.0052862335
13	0x3d57d62a	0.052694477
14	0xbcf2ff7e	-0.029662844
15	0x3d102b64	0.03519763
16	0xbce26f81	-0.02764106
17	0x3c13e8ea	0.009027699
18	0x3ca999c7	0.02070321
19	0x3c37d057	0.011219106
20	0xbc0e737d	-0.008694527
21	0xbc96167f	-0.018321274
22	0x3cf52b62	0.029927913
23	0xbd78798e	-0.0606628
24	0xbd10c8c5	-0.03534772
25	0x3d004408	0.03131488
26	0x3c982b14	0.018575229
27	0xbb5226c9	-0.0032066575
28	0x3d56f84a	0.05248288
29	0xbd5d1db5	-0.05398341
30	0x3c8f0554	0.017458595
31	0xbbfc8b3f	-0.007707029
32	0xbd70c512	-0.05878169
33	0xbcf0b10c	-0.029381298
34	0x3d043f3c	0.032286867
35	0x3bb10ef5	0.0054033943
36	0xbd6499a0	-0.05581057
37	0x3caaf02e	0.02086648
38	0xbd20ebc4	-0.039287344
39	0x3c227c24	0.009917293
40	0xbc0569d6	-0.008142909
41	0x3cb4f22c	0.022088133
42	0x3a3ceb3b	0.0007206683
43	0xbd285ca7	-0.041103985
44	0xbb87a699	-0.004139733
45	0x3bc8a5e3	0.006123291
46	0xbd279db2	-0.040921874
47	0x3c81b061	0.015831174
48	0x3d1568b6	0.036476813
49	0xbbc494dd	-0.005999191
50	0xbd80b65f	-0.062847845
51	0xbd3fb7c2	-0.046806104
52	0xbc98c69c	-0.018649392
53	0x3c139887	0.009008533
54	0xbb8e0a1c	-0.004334701
55	0xbd0a6f1b	-0.033797365
56	0x3d691763	0.05690707
57	0xbcd21653	-0.02564541
58	0x3a479a97	0.0007614283
59	0xbd06b011	-0.032882754
60	0x3cff36d1	0.031154068
61	0x3c531fac	0.012885969
62	0xbd3ad4c0	-0.04561305
63	0xbd7b2efa	-0.061324097
64	0xbcbde385	-0.023179779
65	0xbc464d80	-0.012103438
66	0x3a3172ac	0.00067691016
67	0xbcf458a3	-0.029827422
68	0xbd7478f1	-0.05968565
69	0xba329648	-0.0006812555
70	0x3ca63f0b	0.020293733
71	0xbd30d28f	-0.043169554
72	0xbccbb5f6	-0.02486704
73	0x3cc5947d	0.024118656
74	0xbd5ef3ab	-0.0544316
75	0x3cca9898	0.024730965
76	0xbcccf011	-0.025016816
77	0xbc175bb6	-0.009238174
78	0x3caf9d3b	0.021437278
79	0x3ce1f6d3	0.027583515
80	0x3c0bb6c3	0.0085274605
81	0x3c35911e	0.011081962
82	0xbd4b2c38	-0.049602717
83	0x3d419394	0.047259882
84	0x3d5d52d0	0.054034054
85	0x3d2b38a3	0.04180206
86	0xbd313914	-0.043267325
87	0x3d2875f0	0.0411281
88	0xbd25cb04	-0.040476814
89	0xbcce38cf	-0.025173573
90	0x3bbcbe06	0.0057599572
91	0x3d09e4a0	0.0336653
92	0xbc994f98	-0.018714711
93	0x3c719c2c	0.014746707
94	0x3ba3a7cf	0.0049943696
95	0x3d1518cf	0.036400612
96	0xbccea35d	-0.025224382
97	0x3d22ad8b	0.039716285
98	0x3d01f613	0.031728815
99	0xbd156361	-0.03647173
100	0x3d2d301b	0.042282205
101	0xbd55b1b4	-0.052171424
102	0xbd75fbfa	-0.060054757
103	0x3d22dfd9	0.03976426
104	0x3d5c7b0e	0.05382829
105	0x3ca1230d	0.019670034
106	0xbd85f1a9	-0.06540234
107	0xbc561d97	-0.013068578
108	0x3c6911dc	0.014225449
109	0x3d36aa6b	0.044596117
110	0xbd72175c	-0.05910431
111	0xbd72d859	-0.059288356
112	0xbd498709	-0.049201045
113	0xbd625f94	-0.05526693
114	0x3d4c8b82	0.049937733
115	0x3d45807e	0.048218243
116	0xbc165edf	-0.0091778925
117	0x3ca84c66	0.020544242
118	0xbd710457	-0.05884203
119	0xbcac0340	-0.020997643
120	0x3c02b450	0.00797756
121	0xbc4cdc8c	-0.012503754
122	0x3c2ec0d4	0.010666091
123	0x3c1ba8ec	0.009500723
124	0xbcf9153e	-0.030405637
125	0xbbed5619	-0.0072429297
126	0x3c5ec873	0.0135975955
127	0xbd855d74	-0.065119654
128	0x3d0d4b63	0.034495723
129	0xbd4c9e32	-0.049955554
130	0x3cde361f	0.027125416
131	0x3ce70975	0.028202752
132	0xbd0a810b	-0.03381447
133	0xbcfaaeb8	-0.03060089
134	0x3c1cc0a3	0.009567413
135	0x3d5fcad2	0.054636784
136	0x3d0f89af	0.035043415
137	0x3cf4ec20	0.02989775
138	0x3d704eab	0.058668774
139	0xbd6c161a	-0.057638265
140	0xbd2c6353	-0.04208691
141	0xbc972c7c	-0.018453829
142	0xbade1b42	-0.0016945379
143	0xbd098308	-0.033572227
144	0xbccb5608	-0.024821296
145	0xbd24eb55	-0.040263493
146	0x3d18fd71	0.037351076
147	0xbbdc02ed	-0.006714216
148	0x3d0d1ad2	0.034449406
149	0xbb4c659e	-0.0031188498
150	0x3d0f5ffb	0.035003643
151	0x3d443f14	0.04791172
152	0x3d6b49f8	0.05744359
153	0x3d07910c	0.03309731
154	0x3d376575	0.04477449
155	0xbd3b88b7	-0.04578468
156	0xbc988a91	-0.018620761
157	0xbd2c6b28	-0.04209438
158	0xbc67482d	-0.014116329
159	0xbd0a1ab9	-0.03371689
160	0x3cc98bfb	0.02460288
161	0xbd5bcd9f	-0.053662892
162	0xbd647e21	-0.05578435
163	0x3c9cfafb	0.019162646
164	0xbc82ee5e	-0.015982803
165	0x3c0adf31	0.008476065
166	0x3b6d4442	0.0036204015
167	0xbd07ff44	-0.033202425
168	0x3d05303a	0.032516696
169	0x3d1a6066	0.03768959
170	0xbb8663fb	-0.004101274
171	0x3d0e8969	0.034799013
172	0xbd3e3297	-0.046434965
173	0xbd7e8fba	-0.062148787
174	0xbcf3548f	-0.029703407
175	0xbca69849	-0.020336287
176	0x3c6c0193	0.014404672
177	0xbcf4cc61	-0.029882612
178	0xbd63ccff	-0.05561542
179	0xbd24d5ee	-0.04024308
180	0xbd44986f	-0.047996935
181	0x3ca760e1	0.020431938
182	0xbc8f1e8b	-0.017470619
183	0x3d164bde	0.036693446
184	0x3d1d2f64	0.038375273
185	0xbc63e267	-0.013908959
186	0x3d0bbeef	0.034117635
187	0x3bffe5ee	0.007809392
188	0x3c81a306	0.015824806
189	0x3ca82348	0.020524636
190	0xbd3f0069	-0.04663125
191	0x3d678cfd	0.05653094
192	0xbd882d5d	-0.06649277
193	0xbb2c86ed	-0.002632554
194	0xbd3f5442	-0.046711214
195	0x3d6137d2	0.054984875
196	0x3d5c74a8	0.05382219
197	0x3c833bcd	0.016019726
198	0xbc12d450	-0.008961752
199	0x3b8efac2	0.0043633888
200	0x3d765938	0.06014368
201	0xbc320973	-0.010866511
202	0xbd392e38	-0.045210093
203	0xbb4e76ae	-0.0031503844
204	0xbd86686b	-0.06562885
205	0x3d5ef981	0.054437164
206	0x3c866da6	0.016409706
207	0x3d61c193	0.055116247
208	0xbd2eedd9	-0.042707298
209	0x3d239b5a	0.039943077
210	0x3c474646	0.012162751
211	0xbbdc8b22	-0.006730453
212	0x3cf45f56	0.029830616
213	0xbd45d2bc	-0.048296675
214	0xbd5746b4	-0.052557662
215	0x3cd40f07	0.025886072
216	0x3c99ba21	0.018765511
217	0x3d382834	0.044960216
218	0xbc4f5bba	-0.012656147
219	0xbd874797	-0.066054516
220	0xbcdbb17b	-0.026818028
221	0xbcce4472	-0.025179122
222	0x3c0d2c87	0.008616573
223	0x3d5bf1c2	0.053697355
224	0x3d3e8391	0.04651219
225	0xbc767ba3	-0.015044126
226	0x3d228fb4	0.039687827
227	0xbcad3047	-0.021141184
228	0xbd5776fa	-0.0526037
229	0x3d1aee6d	0.037825037
230	0xbd4de3c8	-0.050266057
231	0xbd5af90b	-0.053460162
232	0xbd55a14c	-0.052155778
233	0x3ccd0b45	0.025029788
234	0x3d5a2833	0.053260993
235	0xbc67e5b5	-0.0141538875
236	0x3d4925ff	0.0491085
237	0x3c232843	0.00995833
238	0xbd6a14c1	-0.0571487
239	0x3d1de922	0.03855241
240	0xbd17f21a	-0.03709612
241	0x3cfecb88	0.03110291
242	0xbd6c54d5	-0.05769809
243	0xbd82b394	-0.06381908
244	0x3c964d42	0.018347386
245	0xbd320585	-0.043462295
246	0x3ced9d8d	0.02900579
247	0x3c9f8118	0.019470736
248	0x3c05436d	0.008133751
249	0x3c81c900	0.015842915
250	0x3c06bb29	0.008223333
251	0x3c722142	0.014778437
252	0x3ca261f8	0.019822106
253	0x3d06ee39	0.03294203
254	0xbd30c8ec	-0.043160364
255	0x3d4137a5	0.047172207

net.6.weight f4 [256, 256]
0	0xbd346b54	-0.04404767
1	0xbd7ff3c5	-0.062488336
2	0x3d104e69	0.035231028
3	0xbd4e0771	-0.050300065
4	0xbd067be3	-0.03283299
5	0x3d2aae1d	0.041669954
6	0x3c99e753	0.018787062
7	0xbc34158f	-0.010991468
8	0xbc132172	-0.008980142
9	0xbd34322b	-0.043993156
10	0xbbfee4b1	-0.007778727
11	0xbd3dc7fa	-0.04633329
12	0xbd16c68a	-0.036810435
13	0x3c100dff	0.008792399
14	0x3cf270bc	0.029594772
15	0xbd265296	-0.040606104
16	0x3c960f78	0.018317923
17	0xbc8bbcce	-0.017057803
18	0x3d37ac3e	0.044841997
19	0x3d33cca8	0.043896347
20	0x3c25cc63	0.01011953
21	0x3d58a19b	0.052888494
22	0x3ca39517	0.019968553
23	0xbd2feec8	-0.04295233
24	0x3d0b353a	0.033986308
25	0x3d3dcbfb	0.04633711
26	0xbccff9cc	-0.025387667
27	0x3c9ab1ab	0.018883547
28	0x3c1a981c	0.00943568
29	0xbc203d72	-0.009780275
30	0x3cec4f81	0.028846504
31	0x3d5a2c05	0.053264637
32	0xbca5e402	-0.020250324
33	0xbb85ddaa	-0.0040852623
34	0xbd02764e	-0.031851105
35	0xbd21d198	-0.039506525
36	0xbc5329f7	-0.012888423
37	0x3bcd4cb4	0.0062652472
38	0x3d175cfc	0.03695391
39	0xbd4c635d	-0.049899448
40	0x3cb36146	0.02189697
41	0x3c54b983	0.012983683
42	0x3c145d64	0.009055469
43	0x3d1a2d0b	0.037640613
44	0xbd0f7d8e	-0.035031848
45	0xbd2565c6	-0.04038026
46	0xbd7a0f68	-0.06104985
47	0xbc1a8532	-0.00943117
48	0xbd1cdaa4	-0.03829445
49	0xbd577686	-0.052603267
50	0x3d63a6e3	0.055579077
51	0xbd41880b	-0.04724888
52	0xbc0df20a	-0.008663664
53	0xbcd02d6c	-0.025412284
54	0xbd05b746	-0.032645486
55	0x3c13e1ec	0.009026032
56	0xbd5e6ed5	-0.054304916
57	0xbd634671	-0.0554871
58	0xbd1eb6a3	-0.038748395
59	0x3d06b790	0.032889903
60	0x3b77e321	0.0037824588
61	0xbd255a33	-0.040369224
62	0xbd50884e	-0.05091124
63	0xbd80ade7	-0.06283169
64	0xbbdf0008	-0.0068054236
65	0x3c9af001	0.01891327
66	0x3cfc907b	0.030830612
67	0xbb9a1630	-0.004702352
68	0xbcfd6c41	-0.030935409
69	0xbd1862be	-0.037203543
70	0x3d3de911	0.046364848
71	0x3d23b573	0.039967965
72	0x3c92c1c9	0.01791467
73	0xbd290b0e	-0.04127031
74	0x3d3a8cb5	0.045544345
75	0xbd73207e	-0.05935716
76	0x3b828fd7	0.003984432
77	0x3d45a5aa	0.048253693
78	0xbc8f3ca9	-0.01748498
79	0xbd6c7a32	-0.057733722
80	0x3c92e26c	0.017930232
81	0xbca73522	-0.020411078
82	0x3bff49c1	0.0077907746
83	0xbd27d19e	-0.04097139
84	0xbcc08653	-0.02350155
85	0xbd07baf1	-0.033137266
86	0x3c8ed9a6	0.017437767
87	0xbc404983	-0.011736277
88	0xbc8b076b	-0.01697131
89	0xbd7ff3da	-0.062488414
90	0x3d64e677	0.05588385
91	0xbbf31e32	-0.007419371
92	0x3d0a18b4	0.033714965
93	0x3cb11f51	0.021621378
94	0xbd2ae7b3	-0.04172487
95	0xbd0e4e83	-0.034742843
96	0x3d686c27	0.056743767
97	0xbd0a7e1c	-0.033811674
98	0x3cd6e7f2	0.026233647
99	0x3cfd0a9f	0.030888854
100	0x3d37a1e3	0.04483212
101	0x3b08b4ed	0.0020859793
102	0xbd0e90be	-0.034806006
103	0x3c76e901	0.015070201
104	0x3cec4835	0.028843025
105	0xbc002de2	-0.007823439
106	0x3b5abdec	0.0033377362
107	0x3c9a4607	0.01883222
108	0xbc0f3b5e	-0.008742182
109	0x3c9974b2	0.018732402
110	0x3bace985	0.005276861
111	0x3d4e6f75	0.050399262
112	0xbd1ef4bc	-0.038807616
113	0xbd529d9e	-0.051419847
114	0x3d50de8f	0.0509935
115	0x3d298d6f	0.041394647
116	0xbcd4a1ed	-0.025956118
117	0xbc85a181	-0.016312363
118	0x3be9162b	0.0071132383
119	0x3cb02963	0.02150411
120	0xbc1d7996	-0.009611508
121	0x3d1bf818	0.038078398
122	0x3c9028fa	0.017597664
123	0x3d5767a5	0.052589078
124	0x3d697267	0.05699387
125	0xbb73b70a	-0.0037187957
126	0x3b72c67f	0.0037044582
127	0xbcc5beff	-0.024138926
128	0xbd7c7aae	-0.061640434
129	0xbd606097	-0.054779615
130	0xbb26b3de	-0.00254368
131	0xbaa5ca53	-0.0012648798
132	0xbc26c5aa	-0.010178963
133	0xbcd47fc4	-0.02593983
134	0x3cb59965	0.02216787
135	0x3b1fdcd2	0.0024393094
136	0x3b96d0d1	0.0046025296
137	0x3caab7d0	0.020839602
138	0xbcca370a	-0.024684448
139	0xbc866d98	-0.01640968
140	0xbce23865	-0.027614782
141	0xbcc23eb1	-0.023711534
142	0x3d04f15a	0.032456733
143	0xbd2b4eed	-0.041823316
144	0xbcae1c18	-0.02125363
145	0x3cf98851	0.030460509
146	0x3ce6343d	0.028101081
147	0xbca8375d	-0.020534212
148	0xbd67f5d4	-0.056630924
149	0x3d28d2d1	0.041216675
150	0xbc8850b6	-0.016640048
151	0xbd1e86e9	-0.03870288
152	0xbd126b36	-0.035746776
153	0x3d14b52f	0.036305603
154	0x3d2e68fd	0.042580593
155	0x3c66d674	0.014089216
156	0x3d73796c	0.05944197
157	0x3c669440	0.0140734315
158	0x3c8b0601	0.016970636
159	0xbd1ca03d	-0.038238753
160	0x3aa4b3fd	0.0012565848
161	0xbc294403	-0.010331157
162	0xbd5db0b5	-0.0541236
163	0x3d230531	0.039799873
164	0x3c2d3edb	0.010574068
165	0x3d095b46	0.03353431
166	0x3d79071e	0.060797803
167	0x3cd97de9	0.026549296
168	0x3d6eeccc	0.058331296
169	0x3d50e7c8	0.051002294
170	0xbd1106c2	-0.035406835
171	0xbcc9af02	-0.024619583
172	0xbd1acb58	-0.03779158
173	0xbcd691c0	-0.026192546
174	0xbd48221b	-0.04886065
175	0xbd672158	-0.056428283
176	0x3cd4441d	0.025911385
177	0xbcac61ad	-0.02104267
178	0x3cb22f3d	0.02175104
179	0xbcb094ca	-0.021555323
180	0xbc50fb3b	-0.0127552105
181	0x3cc48eb1	0.023993822
182	0xbd75221e	-0.05984699
183	0x3a82282e	0.0009930187
184	0x3c864096	0.016388219
185	0xbb0c8261	-0.0021440017
186	0x3c86b0f3	0.016441798
187	0x3cec3558	0.02883403
188	0x3bd5b0cb	0.0065213195
189	0x3ce53565	0.027979562
190	0x3d5ff6d3	0.05467875
191	0x3a8221d5	0.0009928296
192	0x3d2c364a	0.04204396
193	0xbd205ce8	-0.039151102
194	0xbc873595	-0.016505042
195	0xbd3b8f5a	-0.045791008
196	0xbd107faa	-0.035278
197	0xbcc7cb53	-0.024388945
198	0xbd297ecd	-0.041380692
199	0x3d4c63e2	0.049899943
200	0x3ca593f6	0.020212155
201	0xbb04de86	-0.0020274236
202	0xbd5bedea	-0.05369369
203	0xbd84ac3c	-0.064781636
204	0x3d48cc2c	0.04902284
205	0xbca743fe	-0.020418163
206	0xbd28869c	-0.041144
207	0xbc0d476e	-0.008622987
208	0xbbf8f6e5	-0.0075977915
209	0xbd10060e	-0.035162024
210	0x3b2a9891	0.0026030878
211	0xbbe3a82c	-0.006947538
212	0xbcebfc57	-0.028806848
213	0xbd19a522	-0.037511
214	0x3d5f8966	0.054574393
215	0x3d39cd4f	0.045361813
216	0x3ca0d713	0.019633805
217	0xbd330470	-0.043705404
218	0x3cb51f46	0.022109639
219	0xbd351d0e	-0.04421716
220	0xbc12519a	-0.008930588
221	0x3cd1382b	0.025539478
222	0x3bbbaab2	0.0057271356
223	0xbcf5fd63	-0.03002805
224	0xbcda62d3	-0.026658451
225	0xbd275d64	-0.04086055
226	0xbd710acb	-0.058848184
227	0x3c1a1ede	0.009406773
228	0xbd278f8d	-0.040908385
229	0x3d368c00	0.04456711
230	0xbd4a90f2	-0.049454637
231	0x3d492472	0.049107023
232	0xbd3a39d6	-0.045465313
233	0xbc97e061	-0.01853961
234	0x3d223f6f	0.039611276
235	0xbcd13579	-0.025538193
236	0xb9a40e64	-0.0003129124
237	0x3d6778f4	0.056511834
238	0xbd40479f	-0.046943303
239	0x3cc60588	0.02417256
240	0xbd6181d1	-0.055055443
241	0xb9098915	-0.00013116405
242	0x3d0eaddc	0.034833774
243	0xbd78b6f9	-0.06072137
244	0xbb82056d	-0.003967932
245	0x3d1ea2bd	0.038729418
246	0xbbf30a90	-0.0074170306
247	0x3d0a9fbe	0.03384375
248	0x3cc3665f	0.023852525
249	0xbd009101	-0.031388287
250	0x3d14205f	0.036163684
251	0xbd49ab95	-0.0492359
252	0x3d1a757d	0.0377097
253	0xbc80cbfb	-0.015722265
254	0xbd3f8a01	-0.04676247
255	0x3c488258	0.012238108
