pinn_elasticity_adam_15k_cosine.pth (torch, 670344 bytes, 10 tensors)

net.0.weight f4 [128, 2]
000000 5a 25 29 bf 5b f7 09 be 7f d8 ae be 14 d6 41 be
       -0.6607262 -0.13473265 -0.34149548 -0.1892932
000010 f0 2a 27 bf f7 0f 93 3e fa 97 20 bf f2 64 14 bd
       -0.6529989 0.28723118 -0.627319 -0.03622908
000020 89 5f 7a 3e 52 b7 6a be 4c a0 c8 3e 43 c4 b0 3d
       0.24450506 -0.22921494 0.39184797 0.08631184
000030 14 d0 be 3e 12 60 e2 3e 8f 1b 95 be 2f 96 79 3e
       0.37268126 0.4421392 -0.29122588 0.24373697
000040 ef c9 94 be 06 22 5e 3e 9a b4 b8 be 40 e8 a3 3e
       -0.29060313 0.21692666 -0.36075288 0.3201313
000050 59 e0 1b 3e 91 7f 91 be c9 e1 b4 be 7b a0 3f 3e
       0.152223 -0.28417638 -0.3532851 0.18713562
000060 89 bd 2a 3f e1 40 af 3e 9f 52 82 bd 5d 57 43 bd
       0.6669546 0.34229186 -0.06363415 -0.047690738
000070 42 25 c8 3e 2a c4 f7 be 76 70 65 3e f0 31 71 be
       0.39090925 -0.4839185 0.22406182 -0.23554206
000080 c4 88 cd 3e 30 f7 78 be a5 c5 ee 3c 94 61 7a 3e
       0.40143406 -0.24313045 0.029146979 0.24451286
000090 d1 16 f3 3e d5 09 c6 bd 46 a9 22 3f 59 fb 16 bf
       0.47478345 -0.09669844 0.6353954 -0.58977276
0000a0 2d 93 01 be 52 93 31 bf 39 68 6a 3d 02 f3 48 3e
       -0.126538 -0.6936542 0.0572283 0.1962395
0000b0 e4 8b 8d be ad e0 93 3e 57 ed f7 bd aa 42 1a bf
       -0.2764579 0.28882352 -0.12105816 -0.6025797
0000c0 7e e4 08 3f 16 ff db 3e 0c 9a b1 3e f9 dd 0d 3f
       0.5347365 0.42968053 0.3468784 0.5541683
0000d0 4f 8d 82 3e e5 3a be 3e 46 47 15 3f 3e 86 10 be
       0.25498435 0.37154308 0.5831188 -0.1411371
0000e0 ee 9e 0d bf 88 ee b7 be e7 42 d6 bd 58 c5 80 bd
       -0.5532063 -0.35924172 -0.10461979 -0.0628764
0000f0 c9 a3 cf 3b 78 8e cd 3e 1f d3 62 3e 07 6a 05 bf
       0.0063366634 0.40147758 0.22150849 -0.5211491
000100 ac af 60 be a7 90 2a be 6f ae d9 3e 0c 4a 80 be
       -0.21942014 -0.16656743 0.42515895 -0.25056493
000110 fb f4 92 be 43 55 dd bd 81 d3 31 be 60 0d 2d be
       -0.2870253 -0.10807278 -0.17365839 -0.16899633
000120 92 87 31 bf 1a 53 21 3f c5 38 bb 3e 34 73 a5 be
       -0.6934749 0.6301743 0.3656675 -0.32314456
000130 91 1a e3 be 4f 6d af 3c d4 fd c9 3e 55 0d fc be
       -0.44356206 0.021414427 0.39451468 -0.49228922
000140 2b 57 85 be 03 b9 92 3e 3e fa e4 be be 6a a0 bd
       -0.26043066 0.28656778 -0.4472217 -0.078328595
000150 ef b3 06 bf 09 4d 26 3f 62 74 c1 3e 87 26 26 bf
       -0.52618307 0.64961296 0.37784106 -0.6490254
000160 92 09 cf be dc 77 85 3e fc 66 e6 3c bd 82 36 3e
       -0.4043699 0.26068008 0.028125279 0.1782331
000170 32 a4 10 bf a7 aa bd be d7 9a a0 3e 29 05 07 bf
       -0.5650054 -0.3704426 0.31368133 -0.5274225
000180 21 5b 15 be 0d 3c 9e 3e 02 0a b7 3e 2b 22 45 3d
       -0.14585544 0.3090519 0.35749823 0.04812829
000190 58 3d 3e 3e 8e ee 9d 3e 11 cf ae bd 69 fe 43 be
       0.18578088 0.30846065 -0.085355885 -0.19140019
0001a0 13 c2 08 3f 21 08 2e 3f 5f 5a a3 3e d8 5e 9c be
       0.53421134 0.67981154 0.31904885 -0.3054111
0001b0 98 01 1d bf 38 2d 30 bf 12 25 1a 3c f5 63 8a be
       -0.61330557 -0.68819 0.009408252 -0.27029386
0001c0 39 f8 30 be de d8 c2 bd 3a ae 2a 3f 02 9e 2b 3f
       -0.1728219 -0.095140204 0.666721 0.67037976
0001d0 36 06 84 bd bc b9 53 be 43 f9 aa 3e 66 75 4b bd
       -0.06446497 -0.20676321 0.33393297 -0.049672507
0001e0 c3 4f 2b bf 9f 3a 61 3e 2d 19 29 3f e7 1d 0e bf
       -0.6691858 0.21995018 0.6605404 -0.5551438
0001f0 40 1e 12 be db 6e 12 3e 3e 90 10 bf 70 fb 19 bf
       -0.14269352 0.143001 -0.56470096 -0.6014929
000200 3b 83 03 3f 0b f8 7b be 25 ad cd 3e 0d 1b 8a 3d
       0.51372117 -0.2460634 0.4017116 0.06743441
000210 3b fb 30 3e 25 87 e8 be f9 93 19 be 3d a4 f0 3e
       0.17283337 -0.45415607 -0.14997853 0.47000304
000220 8b 8e a2 3e 57 c4 45 be ed 19 c2 3d 7f 18 07 3f
       0.31749377 -0.19313179 0.09477601 0.52771753
000230 41 84 18 bf 99 6c e1 3e e7 20 43 be a7 c1 03 be
       -0.59576803 0.44028166 -0.1905552 -0.12866841
000240 b8 09 a5 3e e5 95 15 bf d4 3d e5 bd ed e6 2a 3f
       0.32233977 -0.58431846 -0.111934334 0.66758615
000250 87 f2 7f 3e dc 8c 86 be b9 df 14 be e1 84 0c 3f
       0.2499486 -0.26279342 -0.14538468 0.5489026
000260 15 ed 88 3e 6d e5 f1 3e ce 28 e5 be 62 03 48 3e
       0.2674338 0.4724535 -0.44757694 0.1953254
000270 2a 25 0b 3e a9 db fc 3d 55 50 28 3f 1c 89 ca 3e
       0.13588396 0.12346584 0.65747577 0.3955773
000280 92 71 f1 3e fe d4 9d 3e 95 20 94 3e 6c 76 e8 bd
       0.4715696 0.30826563 0.28931108 -0.11350712
000290 9a d1 1b bf ba 22 15 bf 7f a8 de be ac d6 e5 be
       -0.608667 -0.58256114 -0.43487927 -0.44890344
0002a0 79 18 a6 3e 5e 27 58 3e d0 97 55 be 1e 9c 09 bf
       0.32440546 0.21108767 -0.20858693 -0.5375384
0002b0 bd 7a 2f 3f 4e 78 07 3f c2 dd a9 3e 36 a5 31 3f
       0.6854666 0.52917945 0.33177 0.69392717
0002c0 a9 23 c0 be 63 44 c7 be 41 c3 da be ed fc f4 bc
       -0.37527207 -0.38919362 -0.42727092 -0.02990576
0002d0 1a 13 1f bf 08 2c 0f 3f 7c 26 66 3c 62 f8 b2 3e
       -0.6213852 0.5592656 0.014047261 0.34955126
0002e0 3f 92 c8 be c4 ef 9a bd 88 23 cc 3d 8b a5 47 be
       -0.39174077 -0.07565263 0.099677145 -0.19496743
0002f0 ca d0 29 3f d8 7a a4 be 33 c3 65 3e 44 b1 ef be
       0.6633421 -0.32124972 0.22437744 -0.4681493
000300 e4 78 97 bd 31 d7 3c be 35 1c 98 3e b3 34 f9 3e
       -0.07396105 -0.18441464 0.2970902 0.4867302
000310 ae 4b 28 3e 39 5e 67 bd eb 0e 47 be 43 5f 0b 3f
       0.1643512 -0.056486342 -0.19439285 0.5444223
000320 d2 33 23 be 2d 63 fd 3e 83 7c 9f be ab 60 13 3f
       -0.15937737 0.49489728 -0.31149682 0.5756938
000330 8d a4 33 3f d6 39 f5 3e 39 a7 c9 3e 9e aa 81 3e
       0.7017296 0.47895688 0.39385393 0.25325483
000340 4a a2 b6 be 3e d2 62 3b 9f 5c 81 3e cc 26 44 be
       -0.35670692 0.0034610177 0.25265977 -0.19155425
000350 4c 1a f1 3d 85 c4 cc 3e f7 c1 26 bf 65 45 23 bf
       0.11772594 0.39993683 -0.65139717 -0.6377776
000360 2a 9f da be 68 6e ce 3d 19 ad fa bd 1e cc 17 3e
       -0.42699558 0.10079652 -0.12240047 0.14823958
000370 92 97 29 be ad e1 ea be fd 11 c3 3d 8c e6 f6 3e
       -0.16561726 -0.45875302 0.09524915 0.48222768
000380 75 5e d3 be 76 4f 1e 3f f2 75 31 3e 37 6e 2e 3f
       -0.41283002 0.6184 0.17330149 0.68136925
000390 22 b5 23 bf 40 d4 2b bf d1 95 6e 3e 0b cd 26 bf
       -0.6394826 -0.6712074 0.23299338 -0.6515662
0003a0 a4 91 10 bf fa f3 b7 3e c9 63 a8 3e 25 1c 22 bf
       -0.5647223 0.35928327 0.3288863 -0.63324195
0003b0 65 5f fd 3e 0b 8d 01 be e9 32 04 3f cb 80 d2 be
       0.49486843 -0.1265146 0.5164018 -0.41113886
0003c0 6c 7c 27 bf 51 21 ed be 7b 03 f4 bd 9d ff 33 bf
       -0.6542423 -0.4631448 -0.11914726 -0.7031191
0003d0 e6 0b 7a bd 53 e9 b3 be ef 40 29 be 10 bc d3 3a
       -0.061046503 -0.3513895 -0.16528676 0.001615407
0003e0 f6 9a 15 3d d5 ec 32 bf cf b0 b5 3e cf 62 d8 be
       0.036524735 -0.69892627 0.35486457 -0.42262885
0003f0 f2 96 da 3e 1a 28 22 3f 2d 52 72 be fe fa 99 3d
       0.42693287 0.6334244 -0.2366416 0.07518576

net.0.bias f4 [128]
000000 9b 1e c4 3e 51 d3 64 bd 9e 3a 13 bf de e0 a0 3e
       0.383046 -0.05586559 -0.5751132 0.3142156
000010 af ad aa 3e 05 63 cb be 74 15 fa be ba 82 0b be
       0.33335635 -0.39723983 -0.48844492 -0.13624087
000020 4a b2 06 3e 73 05 bb be ba 70 04 bc 78 98 98 be
       0.1315395 -0.36527595 -0.008083517 -0.29803824
000030 9a 96 89 be 77 b0 bd bd ff 86 8d be 8f 62 0e 3f
       -0.26872712 -0.092621736 -0.27642056 0.5561914
000040 79 3f 36 3e 65 d6 21 3f de c5 20 3f 0c 23 d9 3d
       0.1779765 0.63217765 0.6280192 0.10602388
000050 bd 39 9c be f0 a3 de 3e 6c 5a f7 bc 8d aa 03 3f
       -0.305128 0.4348445 -0.030194484 0.51432115
000060 67 00 21 be fc 40 1e 3f 8c 19 b6 3d 74 09 25 be
       -0.1572281 0.6181791 0.088915914 -0.16116887
000070 4a fb e7 be 08 72 04 3f 50 9b b7 3d 0c 89 79 3e
       -0.45308906 0.517365 0.089651704 0.24368685
000080 66 18 94 3e c1 6e 29 bd e9 24 bb be 52 5e 5d be
       0.28924865 -0.04136539 -0.36551598 -0.21618012
000090 5f 59 f9 bc 06 13 dd 3e 19 6b 52 bd 7e 1c 47 be
       -0.030438123 0.43178576 -0.051371668 -0.19444463
0000a0 3c e9 db bd 27 0c df 3d d8 86 0f 3f 8b 84 07 3f
       -0.10737845 0.1089099 0.5606513 0.5293662
0000b0 34 74 e6 bc 88 c2 af 3d 32 7c 22 3f 3e ec 97 3e
       -0.028131582 0.08582026 0.63470757 0.29672426
0000c0 fe 94 9c bd 29 08 da 3e 31 15 a0 3e 45 0c 44 be
       -0.076456055 0.4258435 0.31266168 -0.19145305
0000d0 0c 56 8f 3e 33 62 55 3d 87 85 8a be 3b 36 56 bd
       0.27995336 0.052095603 -0.27054998 -0.052297812
0000e0 ee 26 2a 3f e9 5d 5e 3e de bc 16 bf 03 4f e4 3e
       0.6646565 0.21715511 -0.5888194 0.4459153
0000f0 59 65 19 3e ba 44 ac 3e d9 76 f9 ba cc 1a 8d 3e
       0.14980067 0.33646184 -0.0019032612 0.27559507
000100 87 7c 51 3e f9 1f 1b 3f bd fe bb 3e 84 b5 9c be
       0.2045766 0.6059566 0.36717787 -0.30607235
000110 3f f0 ba 3e 63 c5 62 bd e9 f9 e8 3e 16 28 88 be
       0.36511418 -0.055364024 0.45503166 -0.26593083
000120 13 12 57 be d2 dd 26 3f 5f 88 ff 3d 97 c9 b5 3d
       -0.21002989 0.6518222 0.124771826 0.08876341
000130 dc 61 88 3d 90 84 1f 3d 7e 6f 00 3d 02 bd 1c bf
       0.0665929 0.03894478 0.031356327 -0.61225903
000140 65 bb 2c 3f ce 9d 2b 3f d2 7e 00 bf 27 e9 2b 3e
       0.6747344 0.67037666 -0.5019351 0.1678816
000150 d0 72 15 3f 0e 1a 0b 3e 1f 44 9a 3e ed e5 05 3f
       0.58378315 0.13584158 0.30130097 0.52303964
000160 71 22 96 3e db 24 f4 bd 82 91 16 bf 92 0d ac be
       0.29323152 -0.11921092 -0.5881578 -0.33604103
000170 02 4a d5 be 24 f9 83 3c b7 b6 00 bf 85 3a e1 3e
       -0.41658026 0.01611001 -0.502788 0.4398996
000180 ef 26 0a 3e 84 ac a0 be 91 73 d5 be 09 4d 62 3e
       0.13491414 -0.3138162 -0.41689733 0.22099699
000190 2f 81 3d be 87 bf ff 3d 32 c7 81 3d 3f 61 96 3d
       -0.18506311 0.12487703 0.063368216 0.07342767
0001a0 3f ef bc bd a4 52 06 be 98 f0 37 be 01 91 8a 3e
       -0.0922532 -0.13117462 -0.17962873 0.27063754
0001b0 ea a7 e7 be 13 d7 46 3c 29 dd 94 be 48 3d 2b bf
       -0.45245296 0.012136239 -0.29074982 -0.6689038
0001c0 43 ac 49 3e 32 1e 50 3e 8e cc 1d 3f 1a 4b ea 3e
       0.19694619 0.20324019 0.6164025 0.45760423
0001d0 fa f3 30 3f 8f 39 11 bf 58 77 20 bf 7b 8a 5d 3e
       0.6912228 -0.5672845 -0.62682104 0.21634857
0001e0 1a d9 ad 3e 23 24 9e 3e 79 21 f0 be c8 e1 0a 3f
       0.33954698 0.30886945 -0.46900538 0.54250765
0001f0 af c3 1b bf 49 68 33 3e 2d f2 91 be 51 4d 86 be
       -0.60845464 0.1752025 -0.28505078 -0.26230863

net.2.weight f4 [256, 128]
000000 21 81 8d 3d 14 43 9a 3d 1b cf ed 3c 64 99 1f 3d
       0.06909395 0.075323254 0.02902942 0.038964644
000010 f8 93 4e 3b 16 21 51 bd 9d 9e ba 3c 9d 32 97 3d
       0.0031521302 -0.051056944 0.02278071 0.073827006
000020 47 8e 15 3d a4 2b a6 bd 67 7c 9a bc e6 d9 c1 3c
       0.03651264 -0.081137925 -0.018858148 0.023663472
000030 55 29 74 bc 1e 45 e7 bc 3c df 9d bd e9 95 0f 3c
       -0.014902432 -0.0282312 -0.07708594 0.008763769
000040 f1 27 be 3c f4 db a4 bd 0e 49 89 3c 62 36 d5 3c
       0.023212405 -0.08049765 0.016758468 0.026026908
000050 40 6a 05 3d c0 92 6b 3d a2 5c 5a bd fd 14 e7 3c
       0.03257203 0.057513 -0.053310998 0.02820825
000060 eb 62 dc 3b d1 94 cd bc eb 5c 9b bb 45 e9 b2 3d
       0.006725659 -0.025095375 -0.0047413013 0.08735899
000070 a3 0b 3b b9 c5 33 c7 bc cf 53 13 3b 0d ab 30 bd
       -0.00017838045 -0.024316678 0.0022480374 -0.043131877
000080 f7 d9 54 bd 46 a7 a4 bc 15 d1 2b 3d fc 28 05 bc
       -0.05196568 -0.020099293 0.041947443 -0.008127447
000090 0a 7e b9 bc c9 4a 15 3d bf 92 41 3d bf af 84 bc
       -0.022643108 0.036448274 0.04725909 -0.016197084
0000a0 30 9d c2 bc 37 ce 65 3c 75 8d 44 bd 59 ab 84 3d
       -0.023756593 0.014026216 -0.047986466 0.064779945
0000b0 d5 a6 d9 bc 38 98 f0 bc 61 0b a4 3d ef ff 8c bd
       -0.02656881 -0.029369459 0.08009983 -0.06884753
0000c0 b6 49 c4 bc 60 b4 a3 3d ce f9 25 bd 45 3a 9c bc
       -0.02396093 0.07993388 -0.040521435 -0.019070754
0000d0 52 30 b2 3d 9b 7e f2 bc a3 31 24 3d 40 cf 19 3d
       0.087006226 -0.029601386 0.0400864 0.037551165
0000e0 23 9d 87 3c 3f 1e 96 bd 2d b8 6b bd f7 c4 90 bd
       0.01655442 -0.07329988 -0.05754869 -0.07068818
0000f0 cd 13 b5 bd d8 b4 ce bc 1b e1 20 3c 79 4a a0 bd
       -0.08841667 -0.025232717 0.009819294 -0.078267045
000100 04 09 a5 bd 7a c6 8f 3b b0 7e 08 bd 7a a9 79 3c
       -0.0805836 0.004387674 -0.033323944 0.01523816
000110 89 54 94 3c 65 19 b4 3d 41 ab 64 bb a1 5c 96 bd
       0.018106716 0.08793906 -0.0034892114 -0.07341886
000120 f6 c0 6e bd c9 68 a4 bd 78 88 87 bc fb 28 34 3c
       -0.05828949 -0.08027799 -0.016544566 0.010996099
000130 92 d7 f2 3c 52 13 7d 3c 56 36 a7 3c 23 a3 11 3c
       0.029643808 0.015446501 0.020411652 0.0088889925
000140 93 34 fd bb cc 4c 23 bd fc ab 9f 3c b7 22 2f 3c
       -0.0077272146 -0.03986816 0.019491188 0.010689429
000150 12 a3 ca bc e9 46 82 3d f0 a8 ab bd ff de df 3c
       -0.024735961 0.06361181 -0.08381832 0.027328013
000160 78 87 4f bd 85 12 37 3d cf de 8b 3d 19 5b 7a 3d
       -0.050666302 0.044695396 0.06829607 0.061122034
000170 f5 2a d7 3c 9f 48 2e bd 15 c7 81 bc d2 7c ce bc
       0.0262656 -0.042549726 -0.015842 -0.025206003
000180 7f 34 24 3c ef 33 36 bd b0 a4 34 3d ee f5 56 3d
       0.010022282 -0.04448312 0.04410237 0.05248063
000190 45 00 15 bd 31 5e cb bc 8a fd 7d bd b9 85 46 bd
       -0.03637721 -0.024825187 -0.06200937 -0.04846737
0001a0 f4 a5 3a bd ea c1 7c 3d 26 31 9d bd a8 bf d1 3c
       -0.04556842 0.06170837 -0.0767539 0.025604084
0001b0 5e d9 8e 3d d5 21 72 bd 23 90 a0 bd 97 a7 40 3d
       0.06975053 -0.059114296 -0.07839992 0.047034826
0001c0 2f cc 5f 3d c0 ee 1b 3d 1e 1e 8d 3d d3 09 63 3d
       0.054638084 0.038069487 0.0689051 0.05542929
0001d0 68 00 65 bc 4f d4 88 3d 73 30 14 bd a6 a9 18 3d
       -0.013977148 0.0668112 -0.036179017 0.037271164
0001e0 71 da 5d bd e8 c6 9c 3c ec 81 44 3d 10 5d 05 3d
       -0.0541634 0.019137815 0.047975466 0.032559454
0001f0 5a 24 4d 3d 97 20 62 bc 37 10 e4 3c 30 c1 05 3c
       0.050083496 -0.013801715 0.027839763 0.008163735
000200 ad d8 8c 3d 9d 33 44 3d 1a 45 8e bd cf 07 f3 3c
       0.06877265 0.047900785 -0.06946774 0.02966681
000210 a6 65 31 3d 10 66 aa 3c 9b ff 47 bd 3b 6c a3 3d
       0.04330983 0.02080062 -0.04882775 0.07979628
000220 09 c1 8a bd 0f 4f a0 bd 4e 80 cd 3c 3f ee ff 3c
       -0.067751 -0.07827579 0.025085595 0.031241534
000230 e5 81 5c 3b 24 23 84 ba 63 b9 09 3d c0 40 70 3d
       0.003364676 -0.0010081274 0.033624064 0.0586555
000240 8a a3 3d bd c6 4f bb 3c c6 92 15 bd 2f e0 49 bd
       -0.04629854 0.022865187 -0.036516927 -0.049286064
000250 7c 76 48 bd 24 c1 90 bd 6c 00 8c 3d e7 f4 09 bd
       -0.04894112 -0.07068089 0.06836018 -0.033680823
000260 f2 bd e7 bc 33 91 e9 bb bb 5e 7e bd e3 c9 5b 3d
       -0.028288815 -0.007127905 -0.06210206 0.05365933
000270 00 83 f0 bc 8a 3d 2e 3d 38 84 a7 3c b1 f0 ba bd
       -0.02935934 0.042539157 0.020448789 -0.091279395
000280 58 2a af bd 62 ee b7 bd 17 81 9b 3d 6a 6d 9e 3d
       -0.08552998 -0.08981015 0.07592981 0.07735713
000290 da 61 c0 3c e2 7d 25 bd 6a a6 c4 3c c2 33 90 bd
       0.02348416 -0.040403254 0.024005134 -0.07041122
0002a0 27 99 06 3c 09 27 8a bc 9b 5c 61 3d 9d 00 f8 3a
       0.008215225 -0.016864317 0.055019956 0.0018921081
0002b0 ce 98 e0 bb 07 3f 54 bc 61 ed a4 3d 8c cd 85 bd
       -0.0068541532 -0.01295448 0.08053089 -0.065333456
0002c0 0d 49 0c 3d 48 64 ab bd fd f4 39 3c 39 a7 9e bd
       0.034249354 -0.083687365 0.011349914 -0.07746739
0002d0 ef c9 1e 3d 14 9b 9a 3d ac 93 38 bd e4 3f 9b 3d
       0.038766798 0.0754911 -0.045062706 0.075805455
0002e0 73 35 ab bd cd 55 1c 3d 9e ed 40 3c 6f 8d c6 bc
       -0.08359804 0.038167764 0.011775402 -0.024237363
0002f0 08 22 96 bc 9a ac 02 3d 37 46 b3 bc 2c 9c b6 bd
       -0.018326774 0.031902887 -0.021884067 -0.08916506
000300 2b 45 11 bd ef de 90 3d 6f 61 a3 bd 4a fd 12 bd
       -0.035466354 0.07073771 -0.07977568 -0.035886087
000310 14 1f 06 3d 27 ee 73 3d cf 7c 93 bd 83 14 84 bd
       0.032744482 0.05955329 -0.0720154 -0.06449225
000320 11 ec 4b 3d 5c 78 5f 3d e6 c6 5c 3d 9c 17 39 3d
       0.049785677 0.054558143 0.05390062 0.04518853
000330 7d c8 a3 bd 27 58 bc 3c 4c b3 fb bb 33 fd 06 3c
       -0.079972245 0.022991253 -0.007681286 0.008239078
000340 54 28 1d bd 9c c3 a6 3d 64 0a dd bb 05 72 83 bd
       -0.038368538 0.08142778 -0.0067456234 -0.06418232
000350 62 d5 28 3d dc c2 b4 bb a0 ed 70 bd 04 39 34 bd
       0.041219123 -0.005516393 -0.058820367 -0.043999687
000360 fd 5c 74 bd c7 c2 59 3c 47 8a 46 3c e0 77 f7 bc
       -0.059658993 0.013291067 0.012117929 -0.030208528
000370 ad 6d 70 3b 47 51 53 bd 9c 80 b8 bd 49 8d be bb
       0.0036686466 -0.051591184 -0.09008905 -0.0058151823
000380 fc b0 a3 3d 79 09 90 bd b0 37 64 3c ad da 4c bd
       0.079927415 -0.07033057 0.013929293 -0.050013233
000390 6e 20 a0 bc 43 3a 70 3c 4b 1b 41 bd c7 e1 a2 bd
       -0.019546714 0.014662328 -0.04714517 -0.0795322
0003a0 bd 76 c9 bb 5d 62 25 bc 57 f3 70 3d 0b 9c 01 3d
       -0.006148188 -0.010094252 0.058825817 0.031642955
0003b0 d7 58 3f 3d 43 e4 7a bd 3e a3 af bd 29 d5 6f bd
       0.046715584 -0.061252844 -0.08576058 -0.058552895
0003c0 05 f1 9d bd cb 18 02 bc 77 33 f8 bc 44 e6 40 bc
       -0.077119865 -0.007940481 -0.030297978 -0.01177365
0003d0 75 ad f8 bc 68 b5 8f bc 94 23 80 3c 50 44 aa 3d
       -0.030356148 -0.017542556 0.015641965 0.08313811
0003e0 af 54 b6 bc c9 fa 8c 3d 26 51 9c 3d e1 5c 1a 3d
       -0.022257177 0.06883771 0.07632665 0.037686232
0003f0 bb 33 d8 bc fa d5 a3 3c 78 a0 7f bd ad ad 55 bc
       -0.026391855 0.019999493 -0.062408894 -0.013041896

net.2.bias f4 [256]
000000 78 db 66 3c 90 4c 5e 3d 7c 27 a8 bd cd e9 14 3d
       0.014090411 0.054272234 -0.08210656 0.036355782
000010 bf dd 9d 3d d9 ee 0e 3b cd 98 da bc 71 41 ac 3d
       0.0770831 0.0021809845 -0.02668419 0.084109195
000020 2a fc 1a bc 42 fc 86 3d f6 3d 99 bc 92 7e 4a 3d
       -0.009459535 0.06591083 -0.018706303 0.049437113
000030 b6 71 dc bc 2b 2e 9e 3c 4c c5 93 bd ed b8 b8 bd
       -0.02690969 0.019309124 -0.07215366 -0.09019647
000040 d0 ef 0d 3d b5 24 45 bd db 76 97 3d 00 ef ac 3d
       0.03465253 -0.04813071 0.07395717 0.08444023
000050 4b 3c 39 3d 8c 3e 4d bb c8 5b 86 bd bb 59 74 bd
       0.045223515 -0.0031317798 -0.06560475 -0.059655886
000060 17 27 93 3d b7 31 c1 bb 6d 72 95 bd 56 7e 28 bd
       0.0718519 -0.005895819 -0.072972156 -0.04113611
000070 8c 76 1e bd 49 d7 fb bc ff 23 49 3d 24 62 18 bd
       -0.038687274 -0.030742304 0.049106594 -0.03720297
000080 c9 2a 71 3d 3c 8a e6 3c fe 6c 36 bd fc 5a d7 bc
       0.058878694 0.028142087 -0.044537537 -0.026288502
000090 a8 9b 30 3d d1 f2 f2 bc c8 97 3c bd bc 7b 0f 3d
       0.043117195 -0.0296568 -0.046043187 0.03503011
0000a0 04 a1 71 bd 80 0c 73 3c c2 bc d9 bc 2c 21 2d 3d
       -0.058991447 0.014834523 -0.026579265 0.042267963
0000b0 77 66 85 3d 9f 24 64 3c df d6 70 bd e7 ea 5f 3d
       0.06513684 0.013924747 -0.058798667 0.05466738
0000c0 9c 2d fd bc 7e 33 0f 3c 67 e4 95 3c 5b 65 7f bd
       -0.030905537 0.008740304 0.018297387 -0.06235252
0000d0 b4 1b 30 bc a1 d1 71 bd 2d 17 f5 3c 14 0e 53 bd
       -0.010748792 -0.05903781 0.029918278 -0.051527098
0000e0 01 66 bf bd 04 c7 bd 3c d5 82 33 3d 0a b1 72 3d
       -0.093456276 0.023166187 0.043825943 0.05925087
0000f0 d6 dd 95 3d 97 33 aa 3d ea 8b eb bc 1a 84 b8 3c
       0.073177025 0.08310621 -0.02875324 0.022523928
000100 ab 19 a7 3d af 4e 2e ba 13 2c bd 3c 0f e3 74 3d
       0.08159193 -0.0006649298 0.023092305 0.059786852
000110 53 f9 bc bd 3b 7b 7d bc 86 73 f1 3c e9 b8 5e bc
       -0.09227242 -0.015471275 0.029474031 -0.013593891
000120 e3 db b9 3c 4e b7 96 3d cf 50 9b bd 5d 18 4d 3d
       0.022687858 0.07359181 -0.075837724 0.050072063
000130 87 97 ef 3c 2b aa 9e bd 62 44 a2 3d b9 8d 88 3d
       0.029247059 -0.07747301 0.07923199 0.066676565
000140 73 d1 c5 bc 88 86 01 bd ca a0 1d bd ad 32 9b bc
       -0.024147725 -0.03162244 -0.03848342 -0.018945063
000150 32 2b 2d 3d 36 e1 00 3c 6d ce 8c 3d 31 9c c8 3c
       0.042277522 0.0078661945 0.0687531 0.02448854
000160 2e 57 87 bd 58 ef 3b bd 69 73 62 3d 21 6b 3a 39
       -0.06608425 -0.045882553 0.055285845 0.00017778251
000170 5c 77 da bc 9d 46 5e 3d 18 51 03 3d 8a 03 49 3c
       -0.026668243 0.05426656 0.03205976 0.01226891
000180 3f e2 ae 3d 00 ae 35 3d 26 d9 bd bc eb 3f 26 3c
       0.08539247 0.044355392 -0.023174834 0.010147075
000190 d8 63 72 bd 57 4c 65 bd aa 0d 96 bd 58 0c 51 3d
       -0.05917725 -0.055981006 -0.07326825 0.051037163
0001a0 70 d4 fb 3b ab 6e a7 3d 81 d0 43 bd de 80 89 3c
       0.0076852366 0.08175405 -0.047806267 0.016785081
0001b0 05 59 e8 bc cd fa 0a 3d cf 56 86 3d 38 89 a0 3d
       -0.02836276 0.03393059 0.06559526 0.078386724
0001c0 6f b7 8e 3c 7d 3f a0 bc 53 f9 08 3d 04 b0 2d bd
       0.017421452 -0.019561524 0.0334409 -0.04240419
0001d0 75 b0 17 bd 27 bf 46 3d 8c 95 56 bd e4 33 7f bd
       -0.037033517 0.04852214 -0.052388713 -0.062305346
0001e0 45 e5 8e 3d e0 7f 53 3d 11 7f 7b bd f0 6e 18 bd
       0.069773234 0.051635623 -0.061400477 -0.037215173
0001f0 f8 11 9b 3d 7e 3c 93 bd 75 6e 8a 3d 96 1e 15 3c
       0.07571787 -0.07189272 0.06759349 0.009101531
000200 7b c5 4a 3c 08 70 93 3c 2f cf 81 bd 41 06 8e 3d
       0.012376185 0.017997757 -0.06338345 0.069347866
000210 29 9b 4e 3d e7 09 bb bd 73 8c 7f 3c a2 55 5f bc
       0.05044094 -0.09132748 0.015597451 -0.013631256
000220 07 0b 5d 3d 76 0b 8b 3d 0c cb 8f bd 97 9f 90 3d
       0.053965595 0.067892954 -0.0702115 0.07061689
000230 40 d6 b6 bc 7e 69 5e bd 5f 9e 46 3c be d8 e2 bc
       -0.02231896 -0.054299824 0.01212272 -0.027691241
000240 94 14 8e 3d 24 b2 36 bd e2 e2 00 bd 1c 00 20 3d
       0.06937519 -0.044603482 -0.031466372 0.039062604
000250 20 61 20 3d a3 6c 83 3d 88 f4 b0 bd 20 c4 29 3d
       0.039155126 0.06417205 -0.08640391 0.041446805
000260 5c 5c 44 3d e2 29 11 bd 75 19 5d bd d7 e4 9f bd
       0.047939643 -0.035440333 -0.053979356 -0.078073196
000270 65 1a 62 bd ce 94 79 bd 7a 90 f4 3c b0 c9 a6 3d
       -0.055200953 -0.060932927 0.029854048 0.081439376
000280 8a 52 af 3d 8b b4 51 3d cd 7b bc bd c1 f7 87 3d
       0.08560665 0.05119757 -0.092033006 0.06639052
000290 58 f4 79 3d 9e 08 a5 bd 25 2f 73 3d 3c de 04 3d
       0.06102404 -0.08058284 0.059371132 0.0324385
0002a0 07 4f 8b bd 17 89 82 3d c1 89 c7 3c dc c4 dd bc
       -0.06802183 0.06373804 0.024357678 -0.027071409
0002b0 f5 c6 13 3d 69 3e 86 bb 38 68 87 3c cd 00 92 bd
       0.036078412 -0.0040967953 0.016529188 -0.07129059
0002c0 ee 0c 61 bd f0 74 3e 3d f2 43 b1 3d 05 37 7d 3d
       -0.05494397 0.04649824 0.08655538 0.06182005
0002d0 0a 1d b0 bd 0e f2 ae bd 5f cd 1e bd 55 92 ce 3c
       -0.08599289 -0.08542262 -0.038770076 0.02521626
0002e0 a3 55 8e 3d 0f d8 52 bb be f2 e4 3c 6d 36 4e bd
       0.06949928 -0.0032172238 0.02794778 -0.050344873
0002f0 86 a6 b1 bd 7f ef 0c 3d 91 2f 7f 3d 52 f4 f9 3b
       -0.0867434 0.03440809 0.062301222 0.007628002
000300 ca c6 b5 bc 1a 50 a6 3d 09 fe f8 bc 1f e6 c7 3c
       -0.022189517 0.08120747 -0.03039457 0.024401722
000310 af 6c 49 bd 30 d8 0e 3d 28 6a a3 bd f8 0e 64 bd
       -0.049175914 0.03487414 -0.07979232 -0.055678338
000320 37 74 27 bd de d6 7e bd 80 c4 68 3d f9 1f 8a bd
       -0.040882315 -0.062216632 0.056828022 -0.067443796
000330 3d 67 aa bd 15 27 94 3d c8 52 a8 bd 85 0f 0e bd
       -0.083204724 0.07234017 -0.08218914 -0.03468277
000340 a7 67 d9 bc 03 12 92 3d cc fe 85 3d 03 18 f4 bc
       -0.026538683 0.07132342 0.06542739 -0.029796606
000350 ab 99 9f bc c3 1a 00 bd 00 7f 04 bd 7f 0d 3a 3d
       -0.019482454 -0.031275522 -0.03234768 0.045423027
000360 1d 35 e4 bc 26 8d 3d 3d 47 f3 97 3d ed 63 5c bc
       -0.027857358 0.046277188 0.07419448 -0.013451559
000370 82 0e c7 3c b7 cf b9 bd 49 3e aa 3b 84 f7 cd bb
       0.02429891 -0.090728216 0.0051954133 -0.0062856097
000380 18 d8 71 3d ab e2 82 bd 47 36 a1 3d b3 ab 8c bd
       0.059043974 -0.0639089 0.07871681 -0.068686865
000390 91 ce 8c 3d cb 14 59 bd 6f 93 ff 3b b9 8d f7 3c
       0.06875337 -0.052998345 0.007799558 0.030218946
0003a0 77 e2 83 bd f9 23 9c bd b0 ba af bd 9c 3b 67 3d
       -0.06439679 -0.07624049 -0.0858053 0.056453332
0003b0 6c f1 3b bd 95 8a f2 bc 33 fe 9a bc 66 d5 55 3b
       -0.045884535 -0.029607097 -0.01892004 0.0032628416
0003c0 29 f1 db 3c d8 07 43 bd d5 32 ac 3c 93 0d 6c bd
       0.026848393 -0.047614902 0.021020332 -0.057630133
0003d0 76 09 a3 bd fd cd 14 bd c0 b6 b2 3c b6 fb 80 bc
       -0.07960789 -0.03632926 0.021815658 -0.015745025
0003e0 52 5c 26 3d 48 56 75 3d 13 eb 00 3d d1 33 be bb
       0.040615387 0.059896737 0.031474184 -0.005804517
0003f0 a9 d3 38 bd c6 5a 3f 3c 6d ef 92 bd 39 d9 e5 3b
       -0.04512373 0.011679357 -0.07174573 0.0070144203

net.4.weight f4 [256, 256]
000000 82 2e 93 3c 1f 0b 59 bd a3 7e fa 3c 5d 0f ad 3a
       0.017966513 -0.05298912 0.030577963 0.0013203431
000010 d0 5b d3 3c bc d2 39 bd 32 6e 48 3d 10 3d 27 bd
       0.025800616 -0.045366988 0.048933215 -0.040829718
000020 42 c2 46 bd 67 0c 86 bc a7 d2 01 3d 18 38 06 bd
       -0.048525102 -0.016363336 0.031695034 -0.03276834
000030 3a dd 57 bd 0a 93 28 3d 45 58 13 3d 85 33 46 3c
       -0.052701212 0.041155852 0.035972852 0.012097244
000040 06 ba 3e bc 72 c1 4d 3d bd c6 c7 3c ad 10 bb bc
       -0.011641031 0.050233312 0.024386758 -0.0228351
000050 69 3e f0 3c 3c 75 1c bd da 55 6a bd db 97 4d 3d
       0.029326634 -0.03819774 -0.05721078 0.05019365
000060 56 5e 2a 3d 05 17 66 3c 73 f4 ba bc 23 5b 84 bd
       0.041593872 0.014043574 -0.02282164 -0.064626954
000070 58 d5 98 bb dd ea c7 3c f2 bb 90 bb e2 84 05 bc
       -0.0046641044 0.024403984 -0.004416936 -0.0081493575
000080 96 3b 32 bd b4 4c 22 bd bc cd 04 bd 4b c6 cb bc
       -0.043513857 -0.03962393 -0.032422766 -0.024874827
000090 4b 29 42 bd 8b df ca bc 96 53 07 bd 9f 7e 3e bd
       -0.04740266 -0.024764797 -0.033038698 -0.046507474
0000a0 5d 56 b6 3c 9d 7b 01 bd 0c b4 3c 3a f4 0e 86 3c
       0.022257978 -0.031612027 0.000719846 0.016364552
0000b0 3d b3 76 bd 68 31 af bc d8 21 c9 bc 0f 9b ce bc
       -0.06022953 -0.021385863 -0.02455227 -0.025220422
0000c0 e5 bb 67 ba e0 86 b4 3b b3 3e 48 3d bc 93 97 bc
       -0.0008839949 0.0055092424 0.04888792 -0.018503062
0000d0 b9 61 11 bc 04 79 3b 3c 34 fc 40 3d 40 ec 06 3d
       -0.008873397 0.011442427 0.04711552 0.03294015
0000e0 fa 4a 28 3d e2 aa 00 3d 53 70 2e bc a8 0b 65 3b
       0.04108713 0.031412967 -0.010646897 0.0034949575
0000f0 10 ae 4d bd 86 19 04 bd 88 22 5f bd 73 e6 6c 3c
       -0.050214827 -0.032250904 -0.05447629 0.01445924
000100 a3 80 62 bb ef ec 77 bc 42 12 35 ba 12 b7 80 bd
       -0.0034561537 -0.015132173 -0.00069073227 -0.06284918
000110 8b 0c 4e 3d 5b b7 a6 bc b8 43 1c 3d 42 43 2b 3d
       0.05030493 -0.020351103 0.03815052 0.04181219
000120 47 fa df 3c 9e c4 46 3d 70 e8 2a bd fb 9c 0c 3c
       0.027341021 0.048527353 -0.041725576 0.008582349
000130 48 8b d6 3b 78 13 18 3c f2 36 43 3d 33 29 a2 3b
       0.0065473653 0.009281985 0.04765982 0.004948759
000140 62 dd 2a bc c6 b2 51 ba 21 27 0e 3d 5b a3 24 bd
       -0.010428758 -0.00079993566 0.034705285 -0.04019485
000150 f7 f6 ef 3c d3 1a bf bc 32 b7 30 3c d9 41 3f 3d
       0.029292567 -0.02332822 0.010785865 0.046693657
000160 5c cd c1 3c d4 38 54 3d e6 03 fb bc be e0 04 bd
       0.023657493 0.051812008 -0.030641507 -0.032440893
000170 56 fc 4b bd cb e9 5a bd ba 19 e9 bc 67 04 83 3c
       -0.049801193 -0.05344562 -0.02845465 0.01599331
000180 f5 79 6e bd c7 f6 82 bd 07 39 6f bd c9 96 31 bc
       -0.058221776 -0.06394725 -0.058403995 -0.010839173
000190 43 4a ff 3c 67 d4 76 bb 7f ef 13 bb 60 ae b6 3c
       0.03116334 -0.0037663223 -0.002257317 0.022299945
0001a0 46 c6 16 3b 0e 17 22 3d a8 6a 9c bc 1d 6f b8 bc
       0.0023006364 0.039572768 -0.019093826 -0.02251392
0001b0 fa e7 b7 bc d7 33 48 3c 64 5d 65 3d 0b a2 a0 bc
       -0.022449482 0.012219391 0.055997267 -0.019608518
0001c0 57 62 df 3c 6c ce dd bc b6 77 06 bd 8d 9d 09 bd
       0.027268572 -0.027075969 -0.03282901 -0.033597518
0001d0 ca 22 80 bd f3 9b 10 bd a7 ca 0a 3d ac 48 38 3c
       -0.062566355 -0.035304975 0.03388467 0.011247795
0001e0 3b 47 55 3d eb dc 64 3d ce f4 81 bd dc ce 99 3c
       0.052069884 0.055874746 -0.06345521 0.018775396
0001f0 c1 c6 4d 3d 19 48 88 bd 0c 17 3b bc 25 99 83 bd
       0.050238375 -0.066543765 -0.011419069 -0.064256944
000200 32 91 74 3d b8 a9 35 bd 5e d0 56 3d 99 54 f6 3b
       0.05970878 -0.04435131 0.05244481 0.007517409
000210 02 12 21 bc 28 30 94 bc 7c 97 81 bc 39 47 67 bd
       -0.009830954 -0.018089369 -0.015819304 -0.056464408
000220 e2 d0 43 3c ad 0c 19 bc f2 7c 8b bd 00 40 d4 bc
       0.011951657 -0.009341401 -0.06810941 -0.025909424
000230 e6 d5 66 bd 7a b5 44 bc b0 ab 8c 3c 4d 6d 1e 3d
       -0.056356333 -0.012006158 0.01717171 0.038678456
000240 3e 1b f0 3b c9 ee 6a bc 49 df b9 3c 60 2e 4c bd
       0.0073274663 -0.014339157 0.022689478 -0.049848914
000250 cc 44 0f 3d e9 e9 f9 3c 93 11 36 bd 47 74 9a 3b
       0.03497772 0.030507045 -0.044450354 0.0047135684
000260 20 1f 82 bd e5 fb 65 3c 99 da 74 bc 8c 8d 07 3d
       -0.06353593 0.014037107 -0.014944696 0.033093974
000270 2b df 56 bd 01 54 64 bd 9b bc 19 bd dd d7 30 bd
       -0.052458923 -0.055744175 -0.037533384 -0.043174613
000280 38 60 67 3c 32 3c 37 bd e3 12 38 bd af 14 c0 bc
       0.014122061 -0.04473514 -0.044939887 -0.023447363
000290 f8 e9 00 3c d0 51 85 3c 63 79 2b 3d ce 1e 42 3d
       0.0078682825 0.016274363 0.04186381 0.04739266
0002a0 f2 3f 2e bd 04 44 4d 3d 3b 0c 65 bc 8a 0a 6d 3d
       -0.04254145 0.050113693 -0.013979967 0.05787138
0002b0 c0 70 b7 bc 04 08 d8 bc f8 0e 3f bb e5 a7 37 3d
       -0.02239263 -0.02637101 -0.002915321 0.04483785
0002c0 0f a6 ca 3c 20 b2 38 bd a5 1d 40 3d 0c 58 ed bc
       0.024737386 -0.04509175 0.04690327 -0.028972648
0002d0 f6 52 e1 bc 5c c7 3d bc 7e a3 47 3c 68 dc b2 3c
       -0.02750538 -0.0115831755 0.012184976 0.021833614
0002e0 c6 92 98 3c ec d9 24 bd 8c 48 63 bc eb 66 08 3d
       0.018624675 -0.04024689 -0.013872277 0.033301275
0002f0 13 27 77 bc 70 ad 27 bd da b8 a3 bb eb 4e 88 3b
       -0.015085 -0.040936887 -0.0049964013 0.0041597984
000300 c6 2e 79 bd 73 15 2d 3d c3 e0 5d bc 41 36 59 bd
       -0.060835622 0.042256784 -0.013542357 -0.053030256
000310 65 8a 7c bd 02 5b 89 bc 83 da 28 3d 6d a7 1e bd
       -0.06165542 -0.016767029 0.041224014 -0.03873389
000320 79 7b 6d 3c 53 e4 7f bc 9b bd 35 bd b3 a3 7e 3c
       0.01449477 -0.015618402 -0.044370275 0.015541959
000330 73 96 67 bd 6d bd c2 ba 4f 58 3f 3d a5 d7 f1 bb
       -0.056539964 -0.0014857479 0.046715077 -0.007380443
000340 64 90 03 3d fc ec 63 bd 6e ca 0e 3d d2 c7 43 bd
       0.032120124 -0.055645928 0.03486102 -0.047797985
000350 e8 bb 84 bc 83 16 84 bd 4d 96 6d bd cf 84 51 bc
       -0.016202882 -0.06449606 -0.058004666 -0.012788012
000360 7f 25 7f bd 39 a1 85 bd a4 ea 84 bd f8 5c 09 bd
       -0.06229162 -0.065248914 -0.06490067 -0.033535928
000370 af 50 3c 3d 5b f6 1b bd 4e 7e 33 bd 7b 0d 13 3d
       0.045975383 -0.03807674 -0.043821625 0.035901528
000380 a8 93 50 3d 56 7f 66 bc 9b ef 0a 3c 3d 45 dc ba
       0.050922066 -0.014068445 0.008479978 -0.0016805303
000390 16 16 2b 3d 2c f1 5f bd 19 2e 4a bd 8e 80 96 3c
       0.04176911 -0.05467336 -0.04936037 0.018371847
0003a0 79 df 32 bd 60 79 d5 bc 12 25 81 3c e5 92 47 3d
       -0.04367015 -0.026058853 0.015764747 0.048724074
0003b0 74 11 0e bd 09 2c 52 bd 9f 40 9f 3c f0 e9 28 3d
       -0.034684613 -0.051311526 0.019439993 0.041238725
0003c0 66 26 48 bc 28 49 64 3c 88 92 1c 3d da 50 15 bc
       -0.012216186 0.013933457 0.03822568 -0.009113515
0003d0 5c 5a 62 3d 61 1c 8d 3c 87 9d bb bb 33 56 67 bc
       0.055261955 0.017225446 -0.005725566 -0.014119673
0003e0 3a ad 85 bc 97 6e 55 bd 61 e7 1c bd 48 9c 4a bd
       -0.016317952 -0.05210742 -0.038306598 -0.049465448
0003f0 1d e1 fd 3b b3 e6 84 3c bc af 78 bc 57 88 b7 bc
       0.007747783 0.016223287 -0.015178617 -0.02240388

net.4.bias f4 [256]
000000 5f 7e 55 3d 32 4d 66 3d 91 76 bf 3c 52 28 81 bd
       0.05212247 0.056225963 0.023371967 -0.063065186
000010 be e7 0e 3d 90 08 5d bd 0b e7 78 3c 82 0e 1b bc
       0.034888975 -0.053963244 0.015191804 -0.009463908
000020 36 da 14 bd 24 7c 78 bd 43 a3 f4 bc ba fa 3e bd
       -0.036340915 -0.060665265 -0.029863006 -0.04662583
000030 bd c8 94 3c c7 49 4f bd 5f c1 07 bd 0f e3 4c 39
       0.018162126 -0.05060747 -0.033143397 0.00019539542
000040 d1 09 7f bd 2f c2 37 bd 27 74 71 bc 26 3a 2b 3d
       -0.06226522 -0.044862922 -0.0147371655 0.0418035
000050 58 3a c5 bc dc 00 8b 3b a2 31 a4 3c 87 b8 19 3c
       -0.024075672 0.004242046 0.020043198 0.009382374
000060 0e 54 d3 bb 82 c5 5b 3c 21 43 1b bd 5a 80 a7 3c
       -0.006449229 0.013413789 -0.037905816 0.020446945
000070 67 c1 36 3d 65 73 b2 3c 35 90 f4 bb c3 a3 28 bc
       0.044618037 0.02178354 -0.00746348 -0.01029295
000080 86 2a f2 3b f6 8d 37 3b cb 6a 97 3c 65 ec f0 3c
       0.007390323 0.00280082 0.01848354 0.029409597
000090 c1 ae d7 3c 5a 32 9c bc 37 2b b3 3c 72 c3 69 bd
       0.026328446 -0.019066978 0.021871192 -0.057071157
0000a0 1f 8b 09 3d cc 57 1f bd 56 88 33 bd 30 03 cb bb
       0.03357994 -0.03890209 -0.043831192 -0.0061954483
0000b0 94 14 ee bb 6a 1c 80 bd 64 79 76 bd f2 2e 4c 3d
       -0.0072656367 -0.062554196 -0.06017436 0.049849458
0000c0 eb 1e 26 bd e6 ae a3 3c fb 72 af bc 42 ce 60 3d
       -0.04055683 0.019980859 -0.021417132 0.054884203
0000d0 2f aa 5b bd fe a5 33 bd 15 1d 1b bd 59 d5 85 3b
       -0.053629097 -0.043859474 -0.03786953 0.004084271
0000e0 e2 c1 d4 3c a7 30 32 3c e1 31 6e bc 74 47 22 3d
       0.025971357 0.010875857 -0.014538259 0.039618924
0000f0 07 28 12 3d 25 95 2e 3d b6 c2 58 bd b6 7b 71 3c
       0.035682704 0.042622704 -0.052920066 0.014738968
000100 b3 74 1a 3d a2 81 24 bd 1e ce 2e 3d 79 46 47 bd
       0.03770895 -0.04016269 0.042677037 -0.048651192
000110 d7 65 0e 3d 7d 9e 20 bd 4d 8a 98 bc 4b 7f 32 bd
       0.03476509 -0.039213646 -0.018620634 -0.043578427
000120 69 1a 65 3d 8f 23 51 bd 32 44 8b bd 6b 01 08 3c
       0.05593339 -0.051059302 -0.068001166 0.008301119
000130 53 71 e3 bc c3 45 73 ba e5 0b 11 3d b3 03 41 3d
       -0.027763998 -0.00092801097 0.035411734 0.04712267
000140 11 f6 a7 3c 8f 5c 0f bd 68 82 58 bd e9 f8 f3 3c
       0.020503076 -0.03500038 -0.05285874 0.029781776
000150 4c 7a 07 3d d2 8d 83 bd eb 61 54 3c 4e 7f 2b 3d
       0.033075616 -0.064235345 0.012962799 0.041869454
000160 e0 99 4a bd d0 03 7e bd 40 b1 8c bc 49 74 40 3d
       -0.049463153 -0.062015355 -0.017174363 0.0469859
000170 de ec c7 bc 24 cb 0b 3d 2c 6f d4 3b e4 ef 19 3d
       -0.02440494 0.034129277 0.0064829793 0.037582293
000180 3d d5 d8 3c 9e ae 4e 3d de e9 1f 3d c9 19 8d bd
       0.026468867 0.050459497 0.039041393 -0.06889684
000190 e8 61 59 3d e4 65 8a bd 83 42 35 3d f8 bc a2 3c
       0.053071886 -0.06757715 0.044252884 0.019865498
0001a0 a0 de bb 3c f4 71 82 bc fd 05 50 39 42 2c 5a bd
       0.022933304 -0.015923478 0.00019838657 -0.053264864
0001b0 f9 34 48 3d e4 e4 d8 ba ea 4a 33 3d f5 3c f9 3c
       0.048878644 -0.0016547707 0.043772615 0.030424574
0001c0 3b 49 3e bd 8f 93 0d 3c 61 22 c2 3c 1c 1a e8 bc
       -0.046456557 0.008641138 0.023698034 -0.028332762
0001d0 98 57 4f bc d7 42 ce 3c e8 64 41 bd 5a 15 2b bd
       -0.012655161 0.025178356 -0.047215372 -0.04176841
0001e0 cc 31 4e bc 4f 07 de bc 5c f7 a4 3c 50 ac 3e 3d
       -0.012585115 -0.027103094 0.020137481 0.04655105
0001f0 bd 8b 16 bd dc 0c 07 bd dc 2f 88 3c b9 c1 8f bb
       -0.03675436 -0.032971248 0.016624384 -0.004387107
000200 1e 3f 0c 3d bd 90 f7 3c 35 16 17 bd 22 0f 83 bd
       0.03423988 0.030220384 -0.036886413 -0.06399371
000210 79 f5 90 bc 27 b6 3d 3d f2 64 c2 3c c0 94 8b bc
       -0.017695175 0.046316292 0.023729775 -0.017038703
000220 87 bb b1 bb 34 25 e1 bc ef 36 06 bc 59 0c 23 3d
       -0.0054239663 -0.02748356 -0.008191808 0.039806698
000230 47 ba 9b bc 69 3e 3f bb 0e 10 7e bd a9 2f ca bc
       -0.019009722 -0.0029181486 -0.06202703 -0.02468093
000240 da f2 a9 bc 2e c5 a2 3c f7 68 da 3c fb 41 41 bd
       -0.020745683 0.019869413 0.02666138 -0.047182065
000250 78 9c 52 3c 99 1c 04 3c 7c f5 10 3d 0a 15 76 bd
       0.012854688 0.008063459 0.035390362 -0.06007866
000260 e2 79 0a 3d 45 8d f2 3c c8 64 a6 3b b1 0e 3f bd
       0.033807643 0.029608378 0.005077932 -0.04664487
000270 db e2 a0 3c 6b d0 c3 3c fd e2 1e 3c 11 23 4d bd
       0.019639423 0.023903092 0.009697673 -0.05008227
000280 a7 61 0d 3c 87 f8 be bc 3b 6e 50 bc 92 40 37 bc
       0.008629239 -0.023311866 -0.0127215935 -0.011184828
000290 bb 29 1f 3c e2 23 0e bd 52 1e 63 bd 44 48 24 bd
       0.009714539 -0.03470219 -0.055448838 -0.04010798
0002a0 60 d4 32 3b e6 10 f7 bc 89 ac 10 bd 48 4a 51 3d
       0.002728723 -0.030159425 -0.035320792 0.05109623
0002b0 5b 2f 75 bd 94 f3 94 bc 65 88 b8 3c b2 a9 17 bd
       -0.059859615 -0.018182553 0.022525975 -0.03702707
0002c0 bc a0 10 bd 9e de 80 bd 8b 61 87 bc 2e 13 63 bd
       -0.03530954 -0.06292461 -0.016526004 -0.055438213
0002d0 f3 38 8a bc 84 47 96 bb ae 8f dd 3c e4 44 77 bb
       -0.016872859 -0.004586162 0.02704605 -0.003773027
0002e0 50 14 a4 3a 41 e3 14 bd a6 13 83 bd 7e b5 33 3d
       0.0012518261 -0.03634954 -0.06400232 0.043874256
0002f0 36 f1 3f bd 12 e3 8c 3c 53 0c d1 3c a0 e8 68 3c
       -0.046860896 0.01719812 0.025518572 0.014215618
000300 4e 33 23 bc 75 43 47 bd 0f d1 59 3d 09 66 56 bd
       -0.009960962 -0.048648316 0.05317789 -0.052343402
000310 4f c8 93 bd 42 f8 75 bd af 2a 85 bc 16 df 01 bd
       -0.0721594 -0.06005121 -0.016255705 -0.031706892
000320 1f 9e 38 bc 62 13 20 3d 82 0d 4c 3d 83 b9 70 bd
       -0.011268168 0.039080985 0.04981757 -0.058770668
000330 bc 79 1c bd e9 c3 00 bb 1e de e4 bb ba e6 f4 3c
       -0.038202032 -0.0019648022 -0.0069844862 0.029895175
000340 2f f2 8b 3c 57 d6 a9 bc 33 01 cc 3b a6 f3 fd 3b
       0.017083256 -0.020732088 0.006225729 0.0077499924
000350 d9 2d c2 bc 9e 79 45 3d 39 7e 04 3d b1 af a5 bc
       -0.023703502 0.048211686 0.032346938 -0.020225378
000360 84 8e 38 3d 8b 63 88 bd cb 46 5f bd fa b4 44 bd
       0.04505779 -0.06659611 -0.054510873 -0.048024155
000370 0d aa a6 3c df 68 72 bd 8e f2 93 bc cf a0 35 3d
       0.020344758 -0.059182044 -0.018059995 0.044342812
000380 07 f9 40 3d f8 dd 8d 39 b9 e8 19 bc 63 f7 62 bc
       0.04711249 0.00027058995 -0.009393864 -0.013852927
000390 f0 d6 a5 bb 79 e2 7c bd 70 bf 62 bd 39 82 64 3d
       -0.005061023 -0.06173942 -0.05535835 0.055788253
0003a0 60 5d fe 3c 9c 1b 43 bd e0 53 37 bd 08 50 0c 3d
       0.031050384 -0.047633752 -0.044757724 0.03425601
0003b0 70 57 bf 3c 7d 3c 81 bd 18 b3 5f 3c 04 9a fd bb
       0.023357123 -0.06310365 0.013653539 -0.0077393074
0003c0 2b 04 02 bd 51 d4 b3 3b a2 96 3b bd b4 99 01 bd
       -0.031742256 0.0054879566 -0.04579795 -0.031640723
0003d0 32 df b9 bc cd 36 64 bd af bd 54 bd f5 2b 58 bd
       -0.022689436 -0.055716325 -0.05193871 -0.052776296
0003e0 2f c0 66 bc 72 1d 84 bd 18 d5 4a 3d 9d 5f 5b bc
       -0.014083906 -0.06450929 0.04951963 -0.013389495
0003f0 f4 55 32 bd 9f c5 5a bc 2b c2 23 3c ff e7 84 3b
       -0.043539003 -0.013352781 0.009995024 0.0040559764

net.6.weight f4 [256, 256]
000000 af a7 2c 3c e7 82 c5 3c 75 18 06 3c 4a a6 94 3c
       0.010538026 0.02411027 0.008184542 0.018145699
000010 0d e9 70 bd f1 dc 12 3d 85 aa 98 bc 72 9b 12 bc
       -0.058816005 0.035855237 -0.018635998 -0.008948194
000020 1e 95 08 3c 36 96 d4 3c 67 3d 50 3d 04 59 74 bd
       0.008336334 0.025950532 0.050839808 -0.059655204
000030 9a 28 30 bd 5f af 74 bd 76 09 7d bc 24 5c 5f 3d
       -0.04300747 -0.05973756 -0.01544415 0.05453123
000040 98 e0 e3 3c 8c 93 f4 bc 3d 65 d4 3a 4f 1d 57 3d
       0.027817056 -0.029855512 0.0016204488 0.052518185
000050 45 97 7d b9 d8 7e c1 3c 25 ab ce 3c bc fe 68 bc
       -0.00024184312 0.023620054 0.025228092 -0.01422089
000060 62 b0 83 bd b3 b1 01 bd c7 82 bd 3c e2 4f 89 bc
       -0.06430127 -0.031663608 0.023133649 -0.016761724
000070 9a 57 72 bd a3 5a 08 bd 1a 9b 12 3c 80 b3 ab bc
       -0.059165575 -0.033289563 0.008948112 -0.020959616
000080 02 22 23 3d 27 a0 49 3d a4 6a 1f 3d 8a 22 44 bc
       0.039827354 0.049225 0.03892006 -0.011971125
000090 4c 8e 3d 3d d6 fd 50 bd b1 e7 99 bb 4e be 16 bd
       0.046278283 -0.051023327 -0.004696809 -0.036802582
0000a0 3b ab cf 3c 66 fc a4 39 44 29 50 3b af 1d 0e bd
       0.025350204 0.0003146857 0.0031762877 -0.034696277
0000b0 5b 69 17 bd 26 8a 77 bd 76 0c 63 bd fe bf 49 bd
       -0.03696571 -0.060434483 -0.055431806 -0.049255364
0000c0 1e d3 69 3c e3 24 9b 3c 75 e3 67 bd 58 dd 81 bd
       0.014271526 0.018938487 -0.056613404 -0.06341046
0000d0 96 41 24 bd 46 3b 12 bc 41 a6 42 3c 5c 12 c0 3b
       -0.04010161 -0.008925265 0.011880458 0.0058615636
0000e0 67 c0 22 bd 13 65 68 bd 6b 53 60 3d 5f d6 87 bc
       -0.03973427 -0.056737017 0.054767054 -0.016581712
0000f0 7a 36 68 bd 6d c8 c1 3c 15 64 72 3d 3e 2b 8d bc
       -0.056692578 0.02365514 0.059177477 -0.017232534
000100 82 98 61 3d 19 83 56 bd 03 a8 e1 39 b4 0a 83 bd
       0.055077083 -0.05237112 0.00043040523 -0.06398526
000110 b7 c2 de 3b 2a 8a 56 3b 3c c7 3b 3c 49 76 fb bc
       0.006798114 0.003273616 0.011461075 -0.030696051
000120 1a 8a 69 bd d9 29 93 ba fa 92 4e ba 04 89 07 bc
       -0.05701647 -0.0011227682 -0.00078801776 -0.008272413
000130 04 13 61 bd 39 08 65 3d b1 73 d1 bc 07 b0 17 bd
       -0.054949775 0.055916045 -0.025567861 -0.037033107
000140 cc a5 78 3d b2 60 e8 bb 16 e5 5b 3d 2c 85 0c 3c
       0.06070499 -0.007091605 0.05368527 0.0085766725
000150 5d 63 e9 bc 82 65 45 bd 86 56 53 bc 3b 62 67 3d
       -0.028489763 -0.04819251 -0.012899047 0.056490164
000160 96 a1 34 3d fd 68 5d 3d 6c 0e 00 3c 58 d2 38 bd
       0.044099413 0.054055203 0.007815938 -0.045122474
000170 bd 9e 62 3d bf fa 62 bb fb a3 87 bc 5b c5 92 bc
       0.055327166 -0.003463432 -0.016557684 -0.017916372
000180 b3 d0 42 3d 6b c8 41 3c 17 26 b1 3c b5 e2 30 3d
       0.047562312 0.0118275685 0.021624608 0.043184955
000190 75 23 84 3c c4 a4 b6 bc 81 e9 f9 ba de 02 d7 3b
       0.016130188 -0.022295363 -0.0019066782 0.006561621
0001a0 1c 97 3a 3d a3 7d f9 bc 21 25 a4 bc 54 83 47 3d
       0.045554265 -0.030455416 -0.020037236 0.04870923
0001b0 c7 f8 04 3c 28 f0 27 bd 24 82 40 3c 50 99 ac 3c
       0.008115954 -0.041000515 0.011749778 0.021069199
0001c0 af 41 e8 39 ff 53 ef 3c e7 22 72 bd f3 6c f3 bc
       0.00044299426 0.029214857 -0.059115317 -0.029715037
0001d0 a2 bb 8f 3c c6 7d 79 bd cc c6 11 bc 55 8b 64 3d
       0.017545525 -0.060910963 -0.0088974945 0.05579694
0001e0 05 95 1f 3d 20 a5 d7 3c 07 e2 9a bc 98 39 32 bd
       0.038960475 0.026323855 -0.018906606 -0.043511957
0001f0 1f 2b dd bc 3e 89 62 bd e9 15 d4 3b f6 bf 52 bd
       -0.0269981 -0.055306666 0.0064723385 -0.0514526
000200 3d 05 ca ba c8 80 04 bd bd 3d e8 3b e5 2c 91 3c
       -0.0015412938 -0.032349378 0.007087438 0.017721603
000210 04 c8 34 3d 91 6a 30 3a 20 f2 ce bb 74 8e 73 bd
       0.044136062 0.0006729747 -0.0063154846 -0.059462026
000220 c6 73 5b bc b3 27 41 3c 72 3d 6f 3d 0b f1 50 3d
       -0.013394302 0.01178925 0.05840821 0.051011126
000230 69 e3 09 bc 68 80 24 3c 38 e8 73 3d fd c5 32 3d
       -0.008416035 0.01004038 0.059547633 0.043645848
000240 e2 99 7f bc 5f 2c a6 bc b8 a3 23 bd 66 17 cd bb
       -0.015600653 -0.02028483 -0.039951056 -0.006258893
000250 32 1d 3c 3d 8f 10 15 3d 63 cf 31 3c be 2a 26 bd
       0.04592628 0.036392745 0.0108526675 -0.040568106
000260 64 69 42 3d 20 d3 5b 3d 7d a0 76 bd ed d3 ec bb
       0.04746379 0.05366814 -0.060211647 -0.007227412
000270 0d 15 c9 bc 52 3f 69 3d 74 bf 5d bd 73 82 47 3c
       -0.02454617 0.056945153 -0.054137662 0.012177098
000280 a1 10 e0 3c 73 92 7d bd 9b af 64 bc cb 3b 61 bd
       0.02735168 -0.061907243 -0.013957883 -0.054988664
000290 12 5f 93 bc 55 e3 3e bd bf da 00 ba 78 ec 24 3d
       -0.017989669 -0.04660352 -0.0004915408 0.040264577
0002a0 eb 40 4d 3d b3 ab 2a 3d 95 a8 43 bd b0 4d 44 3d
       0.05011074 0.04166765 -0.047768194 0.04792565
0002b0 16 80 d6 bc a4 d0 54 bd bd 89 80 3d 0f d9 a7 bc
       -0.026184123 -0.051956788 0.062762715 -0.020489244
0002c0 1d bd ff bc b4 5c e5 3c ac 1e 30 3d da 2e e0 bc
       -0.031218106 0.027998306 0.042998 -0.02736609
0002d0 18 b5 db 3a 77 89 54 bc ee 2d f5 3c 5d de f3 bc
       0.0016762344 -0.012972227 0.029929128 -0.029769117
0002e0 18 d3 20 bd 61 e1 10 bd a7 24 6c 3d 89 7f a3 bc
       -0.039263815 -0.035371188 0.057652142 -0.019958274
0002f0 e7 84 89 3b ec 35 00 bc 52 ef 0f 3d 15 8e 23 3d
       0.0041967514 -0.007825356 0.035140343 0.03993042
000300 72 c8 42 bd 39 de dd bb a4 93 d1 ba 03 6e 56 bd
       -0.04755444 -0.006770876 -0.0015989435 -0.05235101
000310 96 0f 30 3d 59 7b 66 3d ff 23 1b 3c e3 be 36 3d
       0.042983614 0.056269977 0.009469031 0.044615638
000320 9d 77 1d bd f7 2b 82 3a a5 18 ff bb 37 4d 01 3c
       -0.03844415 0.0009931315 -0.0077849203 0.007891945
000330 5f 3f d0 bc 8c 8c c6 3a 6a 95 6b bd ef b5 75 bd
       -0.025420843 0.0015148087 -0.05751554 -0.05998796
000340 bb 64 51 3d ad 15 91 3b 0c 5e d9 3b a9 54 f0 bc
       0.051121455 0.004427633 0.0066335257 -0.029337244
000350 57 f8 ab 3c 8a b9 a1 bb c1 f1 79 3c db ce 1b bd
       0.020992441 -0.004935448 0.0152553925 -0.03803907
000360 e8 27 83 3c 71 7a 5d bc d2 ba 61 bd 42 bf 39 3c
       0.01601024 -0.013517962 -0.055109806 0.011337103
000370 10 f7 3f bd 74 07 5f bd 40 27 0e 3d 33 44 3e bd
       -0.046866477 -0.054450467 0.0347054 -0.04645176
000380 51 88 4b bd de d0 e2 3c f0 b1 1a 3d 5d 5f d1 3c
       -0.04969055 0.027687486 0.03776735 0.025558168
000390 0e cb 06 bd d1 76 21 bd d6 3c c7 3c c7 77 97 ba
       -0.03290849 -0.039419953 0.024321001 -0.0011556082
0003a0 ba a1 b6 3c 30 10 26 bb 30 bb 20 3d ba 15 2c bd
       0.022293914 -0.0025339238 0.039241016 -0.042012908
0003b0 83 a2 58 3c 62 13 d8 3c 37 7d 92 bb 95 09 7d bd
       0.01322234 0.02637643 -0.004470493 -0.061776716
0003c0 6a 00 25 bd 2e 1c 58 3d e8 c9 02 3c 2a 44 c5 bc
       -0.040283598 0.05276125 0.0079827085 -0.024080355
0003d0 df c3 2e bd d6 4d d1 3a cc 8d 27 3d fe 37 51 bc
       -0.042667266 0.0015968631 0.040906712 -0.012769697
0003e0 d7 c3 83 bd 29 d9 f1 3b 6d 0c d4 bc e2 79 05 3d
       -0.06433838 0.007380624 -0.025884831 0.03258694
0003f0 c3 fa 80 3b 9d 76 6b 3d cc 97 1b bd d7 4f bd bc
       0.003936143 0.057486165 -0.03798656 -0.02310936
