pth of PINN/p_pinn_model.pth (torch, 140476 bytes, 8 tensors)

net.0.weight f4 [128, 4]
00000000: f56a a7be e89c fbbe 1c56 593e 466f aa3e
00000010: 5b7c e0bd f9f8 b43c 3284 eabe 6b89 033e
00000020: f862 c23e 62fa 73be e04e bf3e 1b64 273e
00000030: da88 9c3e 3e49 29be 5b77 a33e 3f05 c6be
00000040: a7f4 15be a13a 8dbe e225 c13e 3023 863c
00000050: fdfb 65be 315e 503d 4842 4f3e 3950 eabc
00000060: e9a3 ae3e b816 c83d 57c3 4fbd 5d62 a4be
00000070: 55cb d8be fdbe 05be 295c 2bbe a24d 903e
00000080: cf0b 023f de0f 87be 701a 47be 2c3d 953e
00000090: 1f7b 87be bbd3 85bd bc8f 8bbd d811 a93e
000000a0: a0fa 6abe 45c7 b43e 9a16 11be 917b 323e
000000b0: ce2c dbbe 52df fa3b eee1 bc3e afd2 c03e
000000c0: c058 b9be 14e7 b9be 9273 6e3e 1984 873e
000000d0: f969 9a3d 6ffd 033e a80e 9c3d ef42 c5be
000000e0: 1c9f 99be f988 d43d f496 2ebe 34c3 d43e
000000f0: 7eab 0a3e abd5 a23e 87ee b33e 8463 8abe
00000100: e267 ac3c 209e 3f3e 0d6f c73e eff4 533e
00000110: f34e 8ebd ad5e 5b3e b048 6abe 644f b53d
00000120: fe1a 5c3d b56e 393e ab30 e13e dc38 bbbe
00000130: ff08 5abc 793c e9be 8469 c4bc 9ab9 8cbd
00000140: 58a4 8b3e 6900 08bb 113f 72be a5b3 63bd
00000150: 9a9f 4cbe c402 053d 781d 21be 884c 573e
00000160: 2c8c a33e c432 8fbe 14db d73e 33e0 bebd
00000170: 53a3 3f3c 370e 833e 40bb 363e 1565 853e
00000180: 7767 02bf ac91 1cbf 275a d33d bcbe a0bd
00000190: 733c a5be 39c7 fa3d ed03 9ebe b9fc 2e3d
000001a0: cfb0 50be c55b e1bc b19f 48be 6ffa 3e3e
000001b0: 46ce 57be ac2c d13e 04e6 b1be 8ae3 aa3e
000001c0: fd2f d1be 0b77 673c 3164 d63e f356 8c3e
000001d0: 490f 543e 231b 79be c55f 283a 025f 4b3e
000001e0: 597a ea3e 4dd8 ff3c 58e2 893e bfb6 923e
000001f0: aa1d 03bf fabe edbd 9c2d a33d c18f df3e
00000200: fa84 93be b723 623e ffc9 80be 3899 bfbe
00000210: a773 c23e ca3f e43d 37f7 af3e 7bc4 ee3e
00000220: 3429 b53e a878 4bbe 0766 5abe 9656 dfbd
00000230: a750 813e 8b02 9cbe 3edf 3b3e 103b 3a3e
00000240: e2c5 b2be 1218 d23e 5af9 d03e 4a3b 7d3c
00000250: 5651 c83e 06b3 9cbd 2dcb 9c3e 436d 133e
00000260: e462 f7bd 260e e13a 3581 f73d ede1 d83d
00000270: 32ca 2ebe 72a9 6fbd 9619 eebe f0da 68be
00000280: f8fd be3e d60f d93e 9c00 053d 55b1 54be
00000290: ea94 88bd 5b93 d43e 86a2 943e 8439 b53e
000002a0: 60ee 8bbe 235a eb3e 97cb d03e ead9 03be
000002b0: 02c2 683e a75e ecbe 014b e13e 0a06 a03e
000002c0: e3b1 ccbd fae6 15bd 871a 95be e6a0 15bf
000002d0: dfc5 cf3e 1d67 1b3e 51f0 8abe 0388 2c3e
000002e0: 8903 9bbd 0656 b63e d295 2cbd 14e4 87be
000002f0: ec20 cabe fb94 9d3e dc4c 9dbc dee3 fdbd
00000300: 53db dc3e a785 73be 527b 48bd 679f b8be
00000310: b2a6 c33e ed93 9dbd 017f debe 26f2 86be
00000320: 0180 b5be 5e22 92be c737 d13e 6dba ce3d
00000330: 7e01 e23e 8d7d 6fbe 7864 99be 23e3 c53e
00000340: de93 cb3e cb05 833d 8c3a a8be cb53 bdbe
00000350: 546a c5be bc14 a9bc 20ce fbbe d4d0 203e
00000360: 0172 af3e 57ea 6ebe b229 9bbe edda 973e
00000370: b2ae 10bc dbe5 d23e 4fc8 c4be 323c 77be
00000380: 36c0 10be ac14 7ebe 13c0 dfbe a6c4 8a3e
00000390: 2057 91bd 5af6 0cbe 3c97 df3e 7954 6fbe
000003a0: 7bf8 ab3e 5bf1 00bf b532 983e e309 c03d
000003b0: 913c ed3e f4ba 823e d3a9 d23e 3219 1bbd
000003c0: fea7 f13e edb2 e73e c1e4 b7be 0bfd aa3d
000003d0: 6613 a7bd e969 543c 77c7 ac3e 5a4e 083d
000003e0: cecf cfbd d188 9ebc bb2a c5ba 19c4 943e
000003f0: 511e 93be e1c8 423e 617c 36be 8490 0c3e
-0.3269879 -0.49143147 0.21224254 0.3328802 -0.10961219 0.022091376 -0.45803982 0.1284539
0.37966132 -0.23825982 0.37364864 0.16346781 0.3057316 -0.16531846 0.31926998 -0.38675877
-0.14644109 -0.27583793 0.37724215 0.0163742 -0.22459407 0.050871078 0.20240128 -0.028602706
0.3410943 0.09769958 -0.0507234 -0.32106295 -0.4234263 -0.13061137 -0.16734375 0.2818423
0.5079927 -0.26379293 -0.19443679 0.29148233 -0.2646112 -0.06534525 -0.068145245 0.33021426
-0.22947168 0.3530828 -0.14168778 0.1742995 -0.4280762 0.0076560164 0.3689112 0.3766074
-0.36200523 -0.3630911 0.23286274 0.2646797 0.07539744 0.12889646 0.07619983 -0.3852763
-0.30004203 0.10377688 -0.17049772 0.41555178 0.13541982 0.3180364 0.3514292 -0.2702905
0.021045629 0.18712664 0.38951913 0.20698904 -0.06948652 0.21422835 -0.2287929 0.08853033
0.05373668 0.18108638 0.43982443 -0.36566818 -0.013307809 -0.4555395 -0.023976095 -0.06871338
0.27273822 -0.0020752198 -0.2365687 -0.055591244 -0.19982758 0.03247334 -0.15733898 0.21025288
0.3194288 -0.2796842 0.4215933 -0.09320106 0.011696654 0.25596783 0.17844868 0.26053682
-0.50939125 -0.6115978 0.103199296 -0.0784888 -0.32272682 0.1224503 -0.3086237 0.042721484
-0.20379947 -0.02750958 -0.19592167 0.1865022 -0.21074781 0.40854394 -0.347458 0.33376724
-0.40856925 0.014127503 0.41873315 0.27410087 0.20708956 -0.24326758 0.0006422962 0.19860461
0.4579647 0.03123107 0.269305 0.2865505 -0.5121714 -0.116086915 0.07967684 0.43664363
-0.2881239 0.22083937 -0.2515411 -0.37421584 0.3797886 0.11144979 0.34368297 0.46634278
0.35382998 -0.19870245 -0.21327983 -0.10905187 0.25256845 -0.3047069 0.18346879 0.18186593
-0.34916598 0.4103399 0.4081524 0.01545603 0.39124554 -0.076513335 0.3062376 0.14397149
-0.12079409 0.0017170354 0.12085191 0.10589967 -0.17069319 -0.058511205 -0.46503896 -0.22739768
0.37303138 0.42394894 0.032471284 -0.20770772 -0.06669028 0.41518673 0.29030246 0.35395443
-0.27330303 0.45967206 0.40780327 -0.12876096 0.22730258 -0.46165964 0.44002536 0.31254607
-0.09994867 -0.03659723 -0.291218 -0.58448637 0.4058065 0.15176053 -0.27136472 0.1684876
-0.07569034 0.35612506 -0.042135067 -0.26541197 -0.39478242 0.30777726 -0.019201688 -0.12396978
0.4313608 -0.23781453 -0.048945732 -0.36059114 0.38213116 -0.0769423 -0.4345627 -0.2635662
-0.35449222 -0.28541845 0.40862867 0.10094152 0.44141763 -0.23387738 -0.29959464 0.38649854
0.3976125 0.06397589 -0.32857168 -0.3697799 -0.38557684 -0.02063977 -0.49180698 0.15704662
0.34266666 -0.23331581 -0.30305248 0.29659215 -0.008830713 0.4119099 -0.38434073 -0.24144056
-0.14135823 -0.24812573 -0.43701228 0.27103156 -0.07096696 -0.1376585 0.4367007 -0.23372068
0.33588013 -0.5036828 0.29726186 0.09376886 0.4633527 0.2553326 0.4114519 -0.037865825
0.4719848 0.45253697 -0.35916713 0.08349045 -0.08157997 0.012964704 0.3374593 0.033277847
-0.101470575 -0.019352349 -0.0015042642 0.2905586 -0.28734067 0.19021942 -0.17820884 0.13727003

net.0.bias f4 [128]
00000000: 3cdc f7be b217 c03e 07d2 63be 17c0 e13d
00000010: 31b1 dd3e ac52 913e 8990 32be bec5 08be
00000020: ae14 a53c 1128 a2bd aa4f e8bd ec06 863e
00000030: bedf 5dbd 9cec c8be cdf2 933e 522d 0d3e
00000040: 0db4 93be 6e71 c8bd c7e2 a43e 1ec2 1e3e
00000050: 167d a73e 5fd7 863e db05 52bd 97f3 943e
00000060: 1f42 21be ad73 da3e cbe3 1a3e 86ca e7bd
00000070: 5d62 03bf 5965 b3be 0022 9abe d2b0 4ebe
00000080: 5abb 4dbe 1231 603e 28e5 da3e 4d29 fabe
00000090: 484d 70be 2946 b8be 39ee 2d3e 8a47 08be
000000a0: ee33 0bbe 87af 0d3e 6ea8 3e3e 6183 6cbe
000000b0: d311 4ebe 6d37 b23e bc62 773e d93d fe3e
000000c0: a56b c8be 39ae 2f3e 5afd 723a 03b7 983e
000000d0: 206c ce3e 109a 8cbc 5e58 e93e 2503 ed3e
000000e0: a509 d7be 6339 cfbe 2456 2e3d d848 493e
000000f0: e055 cebe 5f46 c73e 31f5 efbe fbc8 d0be
00000100: 8e26 093e 0f64 50be c24b a03e a006 88bd
00000110: 14f2 b2be 70b3 55be 4983 c53d b5b7 eabe
00000120: 0093 f83d f025 94be 1d82 9c3e ff07 153e
00000130: 554b ea3e 1072 9fbd af5a 903e 8ff6 8bbc
00000140: 3682 e53e a452 2cbe 61ba 9c3d d1ee 213e
00000150: 9246 dcbe b4f5 4abe ac1d 573e 0100 bebe
00000160: 4766 96be 2195 dd3e 0517 d63e 02e7 acbe
00000170: fa05 3c3e c47d 8a3e 3242 573e baf6 2b3e
00000180: 7956 95bd bd75 723e cde0 fc3d 5cb6 a53e
00000190: 4662 5b3e 5b42 c03e 31fb a4be 6fcd aebe
000001a0: 84df 323e 86d0 f83e 0a21 3fbc 9629 e1be
000001b0: a256 d5be a4c8 b13e a399 d63d f8ac c3bd
000001c0: 3aa4 3bbe 9ee6 9ebe 8a5f c83e a8c4 07bf
000001d0: 9d1d 9b3d b74e 333e 8fd4 a2bd 80d3 58bc
000001e0: 1505 de3e cc6d 5e3e 34ea c43e 93ab 663d
000001f0: 69d2 93be 77d4 e5bd 0ca5 e93e 6352 1e3e
-0.48410213 0.37518078 -0.22248088 0.11022966 0.4329925 0.28383386 -0.17437948 -0.13356683
0.020151462 -0.07917798 -0.1134332 0.26177156 -0.054168455 -0.3924302 0.2889618 0.1378682
-0.28848305 -0.0978726 0.32204267 0.15503737 0.3271262 0.2633619 -0.051275115 0.29092094
-0.1574788 0.4266638 0.15125959 -0.11317925 -0.51321965 -0.3503826 -0.30104065 -0.20184639
-0.20091 0.21893719 0.42752957 -0.48859635 -0.2346698 -0.35991028 0.16985406 -0.1330854
-0.13594028 0.1383649 0.18618938 -0.23096992 -0.20123987 0.34807912 0.24158758 0.4965656
-0.39144626 0.17156304 0.00092693197 0.29827127 0.40316868 -0.017163306 0.4557523 0.46291462
-0.41999546 -0.4047347 0.04256262 0.19656694 -0.40299892 0.38920876 -0.46866754 -0.40778336
0.13393614 -0.2035067 0.313078 -0.066418886 -0.34950316 -0.20869231 0.09644181 -0.45843282
0.12137413 -0.28935194 0.3056802 0.14553832 0.457606 -0.077854276 0.28194186 -0.017085342
0.44825906 -0.168284 0.076527365 0.15813757 -0.4302259 -0.19820291 0.21007413 -0.37109378
-0.29374906 0.4327784 0.41814438 -0.33769995 0.18361655 0.27049077 0.21021345 0.16793337
-0.07291884 0.23677726 0.12347565 0.32365692 0.21424207 0.37550625 -0.32222894 -0.34141108
0.17468077 0.4859659 -0.011665592 -0.4397704 -0.41667658 0.3472339 0.10478523 -0.095544755
-0.18324366 -0.31035322 0.3913539 -0.5303445 0.07574008 0.17510496 -0.079506986 -0.013234019
0.43363252 0.21721572 0.38459933 0.05631597 -0.28871468 -0.11222165 0.45633733 0.15461116

net.2.weight f4 [128, 128]
00000000: ef00 273c 0d51 c33c 5975 b03d ee11 10bd
00000010: a491 6dbb 4dae bebc 83f7 bdbd 34ec a93c
00000020: 00c7 e939 650e a63d bcd2 d93c 9676 403d
00000030: dfa9 6bbb bac7 bf3c 26c8 02bd b4d9 abbd
00000040: 2faf f9bc 5065 3bbd f837 803d 97f6 5fbc
00000050: cd3f e1bb d0a1 55ba 9063 043d 6704 95bc
00000060: 9980 e2bd 65a5 8fbd a811 a4bc 1738 4ebd
00000070: 91eb 3ebd 05c7 b9bd 5f9a 2e3d 8c72 bcbd
00000080: 96c9 a0bd 8752 77bc b025 05bd d21b 82bd
00000090: d955 31bd 751d 5bbc 8ff7 87bd 6284 debd
000000a0: 68b8 793d 775e bc3c 767c 42bd 5e9c 323d
000000b0: d55c 8e3c 171c 453b 7fc6 debc 28ca fcbc
000000c0: 0ab7 e53b 1ccc 143d 4e7c 693d e8c4 5dbd
000000d0: 72c5 fdbd 87ab acbd 4478 a3bd 6dad 903d
000000e0: c75c 5f3d 0060 aa3d bd1b ebbc 1eb8 cbbd
000000f0: ae1c 20bd 845f c0bd 49d2 9b3d d4ac babc
00000100: 560e 35bd 4631 f93b be45 81bc 6b76 803d
00000110: 1628 743c c7d0 8cbd a5eb 87bc 7423 2b3c
00000120: 71c8 c33c 8c37 073b 665e 053d 42ba 86ba
00000130: 593b 7f3d b26f 87bc a8e5 91bd 7e8c 60bc
00000140: 606d 10be c200 b7bc 27d7 413c 61cf 5ebc
00000150: 7be3 74bc 9c30 e63c cc7d 13bd 1403 3a3d
00000160: 5497 843d 7713 b03c d4ba 3e3d 727c 083c
00000170: ea20 aa3d 8e2e 2a3c 8da3 453c af91 123d
00000180: c010 9abc adc4 073d c529 a9bd 51cf 03bd
00000190: 476a b4bd 12b1 5ebd 8954 26bd c06c 2b3d
000001a0: 1ccd b7bb 3585 00be fe10 b03c 7502 02bd
000001b0: 708a 72bb 1284 2db9 0fb4 383d 07e1 7c3d
000001c0: f066 483d d133 7e3d b137 0b3d f8a6 923d
000001d0: f1b8 8ebd a097 fcb8 a4dc 6abd 0f97 963d
000001e0: 934a 433d 9697 233c 7c66 d5bd 17cb 83bd
000001f0: d5ed 70bc ab67 373c 07aa c13a fb57 9cbd
00000200: 5f4b dc3d b74c 533d 6005 393d e7de 07bc
00000210: 3c73 94bd 2999 41bd ea28 ebbd 91bc ee3c
00000220: de27 0bbd a7b0 b63a 83d5 67bd 9daa 52bc
00000230: ed5e 74bd 2886 c5bd 2c97 b33c 6f7d 0abd
00000240: ce3f 2e3d dc19 7ebd 1d4d c6bc 70b2 5c3d
00000250: b41e 3e3c bcf2 f93c 0742 7e3d f57c 1b3d
00000260: 7878 923d f30c 10bd e8ce 80bd f161 e4bc
00000270: 984e b8bb 2a19 ccbc 2077 b4bd 474d 91bd
00000280: 41dc 603d 40ad 60bb 0ead 1cbd b268 90bd
00000290: d9c4 36bc 44b4 e93c dfac 8ebc 1c2e c0bd
000002a0: 9995 2cbd cdf6 423c 65cf aabd 4c64 50bd
000002b0: 1d88 653d 244e adbc a129 64ba 1d0c b7bc
000002c0: 18af 563d 09ed 143c 858c 14bd d2f9 13bc
000002d0: ef4d c5bd 257d 36bd 3533 8d3a f04f 77bc
000002e0: 974b 423b c863 86bc f3b7 a8bd 7810 0ebc
000002f0: 6c2b 303d 5e47 debc 63ad 8c3d c6ad 33bd
00000300: a452 06bb 0105 83bc 8ec1 803c 4976 8dbd
00000310: 3708 003d d2dd 0b3d ecf7 173d 8e97 c8bd
00000320: f7b6 9cbd 1203 c1bd e247 083c 3b55 68bd
00000330: 5275 48bc f00f a33a fbfe a13c 759e c0bc
00000340: 33eb fcbd 4fe4 72bd d6b0 96bd 2b2a 0abb
00000350: 58df 53bd 4629 76bd f042 c23c 07e2 85bd
00000360: a709 413d 092f 8fbc 740b 623c 316b 343c
00000370: 976e b23c 9c06 493c 6c6c 9bbc 5dcd a53c
00000380: 9ca6 1b3d f8f7 3dbd 2c1a 553d 4227 7fbc
00000390: fa4a 42bd fcf7 b6bd 2ad7 f73c 5e10 97bd
000003a0: e744 153d c67a 94bc 91bf 61bd 0ec0 573d
000003b0: c659 9abc ca1d 87bd 9078 f1bc 735f e6bc
000003c0: b59d 68bc 40b8 1bbd 1a69 a03d 265e f53c
000003d0: 4939 9dbc 9fdb b5bd 3dae a43d 240b 7c3d
000003e0: 21bb 47bd 5600 0f3d c6a8 633d 70f1 43bc
000003f0: 1c82 46bd ddf2 58bc 8b57 88bd ef83 00bd
0.010193094 0.023842359 0.08616132 -0.03517335 -0.0036250139 -0.023276472 -0.09275725 0.020742513
0.0004458949 0.08108214 0.026589744 0.046988092 -0.0035959405 0.023410667 -0.031929158 -0.08391133
-0.030479042 -0.045750916 0.06260675 -0.013669631 -0.0068740607 -0.0008149417 0.032321513 -0.018190576
-0.11059684 -0.070139684 -0.02002795 -0.05034646 -0.046611372 -0.09071163 0.04262769 -0.092015356
-0.078509495 -0.01509536 -0.032506645 -0.063529626 -0.04329476 -0.013373722 -0.06639015 -0.10865094
0.06096688 0.022994263 -0.047481976 0.043606155 0.01737825 0.0030076557 -0.02719426 -0.030858114
0.0070103453 0.036327466 0.05700331 -0.054142863 -0.12391175 -0.08431154 -0.07981923 0.07064328
0.05453184 0.08319092 -0.02869975 -0.09947227 -0.03908985 -0.09393218 0.07608468 -0.022787489
-0.044203125 0.007604751 -0.015780326 0.062725864 0.014902135 -0.068757586 -0.016591856 0.010445464
0.023899289 0.0020632474 0.03256073 -0.0010278898 0.062312458 -0.016532753 -0.071238816 -0.013705371
-0.14104223 -0.022339229 0.0118310815 -0.013599248 -0.014946814 0.02809935 -0.03600864 0.04541309
0.06474176 0.021493657 0.046564892 0.008330451 0.08307059 0.010387076 0.012062919 0.035783466
-0.018806815 0.03314655 -0.0825992 -0.032180134 -0.08809333 -0.054368086 -0.040607963 0.04185176
-0.0056091677 -0.12550814 0.021492478 -0.031740624 -0.0037008785 -0.00016547766 0.045093592 0.06173804
0.048926294 0.062061135 0.03398866 0.07160753 -0.069688685 -0.00012044539 -0.057339326 0.07353031
0.04767854 0.009984871 -0.10419938 -0.06435221 -0.014705141 0.01119415 0.0014775404 -0.076339684
0.107565634 0.051586833 0.04517114 -0.00829289 -0.07248542 -0.047265206 -0.11482413 0.02914265
-0.033973567 0.0013938145 -0.056600105 -0.01285806 -0.05966084 -0.09644729 0.02192267 -0.03381103
0.042541318 -0.06203638 -0.024206692 0.05388111 0.011604 0.030511253 0.062074687 0.037960965
0.07151884 -0.0351686 -0.06289464 -0.027878733 -0.0056246035 -0.024914343 -0.08811784 -0.070948176
0.05489755 -0.0034282953 -0.038250975 -0.07051219 -0.011155331 0.02852834 -0.017416416 -0.09383795
-0.042134855 0.011899662 -0.083403386 -0.0508769 0.05603801 -0.021155424 -0.0008703713 -0.022344643
0.052413076 0.009089717 -0.036266822 -0.00903173 -0.09634005 -0.04455294 0.0010772707 -0.015094742
0.0029647106 -0.016405001 -0.082382105 -0.008670919 0.04301016 -0.02713364 0.068690084 -0.043866895
-0.0020496035 -0.015993597 0.015717294 -0.06907327 0.031257834 0.03414709 0.03710167 -0.09794532
-0.07652085 -0.09424414 0.008317919 -0.056721907 -0.012235003 0.0012440663 0.019774904 -0.023513058
-0.12349548 -0.059299763 -0.073579475 -0.0021082263 -0.05172667 -0.060097955 0.023713559 -0.06537252
0.047128346 -0.017478483 0.013796676 0.011011885 0.021781249 0.012269642 -0.018972598 0.020239526
0.038000688 -0.04637906 0.052026913 -0.015573325 -0.047434784 -0.08934018 0.030253965 -0.07376169
0.036442664 -0.01812495 -0.055114333 0.052673392 -0.018841635 -0.06597479 -0.029476434 -0.028121686
-0.014197757 -0.03801751 0.078325465 0.02995212 -0.019192355 -0.0887978 0.08041046 0.061534062
-0.048762444 0.03491243 0.055580877 -0.011959419 -0.048463926 -0.013241497 -0.066573225 -0.03137582

net.2.bias f4 [128]
00000000: 42c5 ddbc e9f8 e0bc e1ed a1bd 0f5c c2bd
00000010: 54f2 c7bd fd1a e8bc e776 86bd ae9f ba3d
00000020: 14a1 2c3d a9e0 86bd 941e cabd 6413 93bd
00000030: e32d 04bd 74b9 8a3c 4d40 e8bd e76e dbbd
00000040: 7e2b babd 86c3 35bd d2d4 9ebd fbd6 00bc
00000050: 36cb 4abd dbdc fe3c 2899 bfbd fcf2 dbbc
00000060: 03be 023d 34ad f7bc dc2f 18bd b84a e0bc
00000070: 2765 e3bd fb1c 52bd bd79 cbbd 8a48 a4bd
00000080: ace4 d3bb 8568 2b3d 48e9 80bd 30ab a6bd
00000090: 78e0 e53b c89c a8ba 8b58 d9bd 873d 543d
000000a0: 13b7 0cbd 1d43 3d3b 033d bcbd 4cd2 263d
000000b0: 7724 173d c20f 97bc ba96 cabc 0d19 283d
000000c0: fc9c 87bd b059 303d d84f e5bd 6fc7 1d3e
000000d0: 010a 043d 128f a43b 3520 843c f7e5 75bd
000000e0: 3151 c4bd b059 913c 11be 6c3d 1eec 423c
000000f0: 7f85 71bd 266c 133c 37d4 9cbc 5ae5 1cba
00000100: 6393 01bd 96ed aabc 1a66 c33c 286e 7dbd
00000110: f3ad 83bc 82a0 093d 7251 e1bd ce59 e83c
00000120: 197e cdbd db87 a8bd 2a81 aabc 6850 cebd
00000130: 93a6 1e3d 9994 86bd 9a8b d8bd c3c7 48bd
00000140: a4a4 07bd 2d78 3abc 2aca 7abd 1665 533c
00000150: 5702 aebd 17c5 603d 514d 87bd 76de 95bd
00000160: 4c02 df3c c422 debd d21e db3c 30d3 77bd
00000170: f51e 4e3d a7d6 603b 6c47 cfbd c06b f03c
00000180: 7f3c 19bd ad93 99bd 0199 65bc 2654 e13c
00000190: 37c5 b8bd 0846 bcbd 47aa 34bd f549 d5bc
000001a0: 708a f93c de1b 33bd 400a d9bd ab32 b8bd
000001b0: 4c0a 2c3c b319 8dbd 7d6b 893d 2d6f 43bd
000001c0: 6a73 773c 98de cc3c 4139 cfbc 340f 8cb9
000001d0: 85b0 babd 540a ecbd 1019 e7bd bc6e 52bd
000001e0: bfe0 1e3d 7f59 313c 3f5e 513d d453 a8bd
000001f0: a691 053d 1b2e 903c 4767 11bd ff75 5cbd
-0.027071599 -0.02746244 -0.079067 -0.09490215 -0.09763017 -0.028333182 -0.065656476 0.09112488
0.042145804 -0.06585819 -0.098691136 -0.07181433 -0.032270323 0.016934134 -0.113403894 -0.10714512
-0.09090327 -0.04437592 -0.07755436 -0.007863755 -0.049510203 0.031111171 -0.09355384 -0.026849262
0.03191949 -0.030233957 -0.037155017 -0.027379379 -0.11103278 -0.05129717 -0.09935329 -0.08021648
-0.006466469 0.041847724 -0.06294495 -0.0813812 0.007015284 -0.0012864107 -0.10612591 0.05181649
-0.03435428 0.0028879114 -0.091913246 0.0407279 0.03690001 -0.018440131 -0.024730075 0.041039515
-0.06621739 0.043054283 -0.111968696 0.15408109 0.032236103 0.005021938 0.016128639 -0.060033765
-0.095857985 0.017742962 0.05779845 0.011897115 -0.058965202 0.008997953 -0.01914416 -0.0005985104
-0.0316347 -0.020865243 0.023852397 -0.06187263 -0.016074156 0.033600338 -0.110018626 0.028363135
-0.10033817 -0.082290374 -0.020813543 -0.1007393 0.038733076 -0.065713115 -0.10573502 -0.049018633
-0.033115998 -0.011381191 -0.061227955 0.012902519 -0.0849654 0.05487546 -0.06606544 -0.07317822
0.027222775 -0.10846475 0.026748095 -0.06050414 0.05032249 0.003430763 -0.101210445 0.029348254
-0.03741121 -0.0749887 -0.01401353 0.027505945 -0.09021991 -0.09193045 -0.0441077 -0.026036242
0.03046152 -0.043727748 -0.10597658 -0.08994039 0.010500502 -0.06889667 0.06709955 -0.047713447
0.0151032 0.025008485 -0.025295855 -0.00026714208 -0.091157 -0.115254074 -0.11284077 -0.051375136
0.038788553 0.01082456 0.05111527 -0.08219114 0.032609604 0.01760011 -0.035498884 -0.053823467

net.4.weight f4 [128, 128]
00000000: a72e 21bd 26f4 0b3d 6a49 5ebc 6c36 a9bd
00000010: a447 aebd 6814 7f3d 46b6 903d 7024 09be
00000020: c4e9 27bd 8db6 7d3d 6533 813d b13e 33bd
00000030: 450c d0bc 1ba0 e23c dc00 2f3c 6e37 803c
00000040: db07 38bc c7f6 10bb b7e5 9ebb ceb1 113d
00000050: 31fc 743c af61 dabd 8acb af3c 698b 06bd
00000060: ac43 c0bc 53ff 0d3d b732 183c 2d0e 9bbd
00000070: 4add 90bd d654 80bd ecf2 39bd e095 72bd
00000080: 8416 663c 08c1 adbd 7571 e63b 0b61 a03d
00000090: 857a 37bb add9 6f3d f6dd 923d 1443 05be
000000a0: 2ec8 833d bcef 91bd 0a34 0b3e 00c0 e9bd
000000b0: ed26 263c a287 03be d4bc a33d c5bb db3c
000000c0: 0fd5 21bd f1de 8cbc 17d8 983c 7937 ddbd
000000d0: 6611 aabd 8a06 c0bd 18e0 c8bd 73e5 b63c
000000e0: fdd5 ef3c d746 33bc 879a bcbd 1a75 243d
000000f0: a66b 95bd 5234 04bd 72dc 633d d07d c5bd
00000100: 9d9e 6cbc 3361 8b3d 4f96 99bd f568 d1bd
00000110: 2a82 a63d 9181 873d 8000 4fbd 5ac3 bdbc
00000120: 924c 34bd 7a37 0ebd 12c8 8d3c b69d 5cbd
00000130: ee1a 033d ef47 5ebd 2d64 30bd e099 473d
00000140: 53fa 60bd a47c d8bd afc4 253d 2e7a 7f3d
00000150: 22d2 a5bb 6fa9 41bd 752b cfbd 03ad c6bb
00000160: 2bea 023d aa31 373c 5d1e 30bd cf33 c6bd
00000170: ad19 cdbb 2198 aeba 762a f13c 282b 8a3d
00000180: 926d 4cbd 366c e83c 1ca9 f7bd c45c a7bc
00000190: 3135 7fbd 5896 aabc bdf1 303d 2471 8a3d
000001a0: f389 27be 2704 cb3c 4a6e 5cba 367d 283c
000001b0: df11 0bbd 45e5 533d 15e5 47bd 145b 493c
000001c0: e63f c7bd b625 c0bc 83fa b8bc 0ab5 2abd
000001d0: 2900 8e3c 4f34 aabd e0d3 443d e2c1 7dbb
000001e0: 9e8a 98bc d038 c0bd b62a bebc 8620 61bd
000001f0: 10a5 90bd e4a9 62bd 4c18 8d3c 39f9 30bd
00000200: f3f4 953c 431e 67bd 5200 c63c a182 983c
00000210: 7e85 e33c 6acc 41bd eb5d 91bd 7ab4 02be
00000220: 497f 97bd 981a 053d cb36 a9bd 7a93 123d
00000230: 8ed6 97bd 171f 873d 30b2 74bd f7d8 30bd
00000240: b1a8 adbd 2a50 8a3d 585c a2bb 00d9 123d
00000250: 6cce 5bbc b8ae 19bd 7d62 07bd b1b0 16be
00000260: 6b45 74bc f12d fb3b 801a 543d 4a8c 86bd
00000270: 2ed2 28bd 568a 283d 891f f93c 2abd 1b3c
00000280: f5b6 ac3c fe31 abbc 899a 32bd ca6b 98bc
00000290: ea1e 733d 996e adbd 9e5d 4a3d adc3 54bd
000002a0: 793c 443d 7de5 893d 4a4a fd3b e277 c7bd
000002b0: b9f7 093d 4b17 63bd 2caf 593d c53d fa3b
000002c0: fc13 1abe 7b96 c83d 943a cfbc b568 57bd
000002d0: f744 0dbd 1763 1c3c e1e6 c4bc 47c1 17bd
000002e0: d4b2 90bc 1ef0 513b 8b4f 943c deba 90bd
000002f0: f655 06bd 6fa2 7c3d 6b34 063d c9e3 9cbd
00000300: a6ce d33c 2cb4 713d 3127 4d3d 0208 85bc
00000310: 6aff b73d 5acd 6b3c 0260 903d c9b6 753a
00000320: 3c22 6bbd 5552 db3c fc17 b6bb dcb2 3f3d
00000330: a18a 7ebd 79bf 4f3d 5bf9 afbd 905c 06bd
00000340: 29a9 aebb 41a9 32bc 3f8d ecba 5966 b43d
00000350: a1d0 603d 01db 68bd 8994 6d3d f752 923d
00000360: 603d f9bd c50a a6bd be76 abbd 1b4f 013d
00000370: 5b3b 813c 9c1c 86bd 9764 07bd 0fa2 b7bc
00000380: a394 c43c 1900 0abd d31e 8c3c 7b31 8fba
00000390: 3da8 2ebd 9a2a 9cbd b50c 2fbd 98e3 b4bd
000003a0: 32a3 3d3d fced 99bd 3ca1 7c3d 4aa9 11bd
000003b0: 2c11 2d3d 1eb2 a73d 0649 b4bd 185e 48bc
000003c0: ee76 6bbd ab19 8d3d 6915 dcbc 3569 be3c
000003d0: 84eb 833d c868 413d 0ada 3cbc f825 583d
000003e0: cb49 b13d 4d93 f93c 4e31 29bc f244 793d
000003f0: 0c25 e23c 4129 a33c a632 813d 6930 d5bc
-0.03935113 0.034168385 -0.013567308 -0.08262333 -0.08509758 0.06227532 0.07066016 -0.13392806
-0.04099442 0.061941672 0.06308631 -0.04376096 -0.025396476 0.027664235 0.010681357 0.015651431
-0.011232342 -0.0022119747 -0.0048491615 0.03556996 0.014952705 -0.10663163 0.02145936 -0.032847796
-0.023469768 0.034667324 0.009289435 -0.07571063 -0.070734575 -0.06266181 -0.045397684 -0.059224963
0.014043454 -0.084840834 0.007032568 0.078310095 -0.0027996611 0.0585572 0.07171242 -0.1301387
0.064346656 -0.07125804 0.1359407 -0.11413574 0.010141117 -0.12844709 0.079950005 0.026822934
-0.03950983 -0.01719615 0.018657727 -0.10801596 -0.083041 -0.09376247 -0.098083675 0.022326207
0.029276842 -0.0109421825 -0.09209161 0.04015074 -0.07295923 -0.03227646 0.055630155 -0.096431375
-0.014442113 0.06805649 -0.07499372 -0.10225097 0.081302956 0.0661651 -0.050537586 -0.02316444
-0.044018336 -0.034720875 0.017307315 -0.053861342 0.032008104 -0.05426782 -0.043064285 0.04873073
-0.054926228 -0.10570648 0.040470775 0.06237238 -0.00506045 -0.047280725 -0.10115711 -0.006063105
0.0319616 0.011181274 -0.042997707 -0.096778505 -0.0062591643 -0.0013320484 0.029439192 0.06746513
-0.049909182 0.028371911 -0.12092802 -0.020429976 -0.062306587 -0.020823643 0.04319929 0.06759861
-0.16361217 0.024782253 -0.00084087683 0.010283759 -0.03395259 0.05173232 -0.048802454 0.012289781
-0.097289845 -0.023455482 -0.02258039 -0.04167656 0.01733406 -0.08310758 0.048053622 -0.00387203
-0.018620785 -0.09385836 -0.023213726 -0.054962657 -0.07062733 -0.0553378 0.0172235 -0.043206427
0.018305277 -0.056425344 0.024170075 0.018616976 0.027773615 -0.047314085 -0.070979916 -0.12764159
-0.073973246 0.032496065 -0.08262404 0.035785176 -0.0741397 0.06597727 -0.059740245 -0.043175664
-0.08479441 0.06753571 -0.004954856 0.03585148 -0.013415914 -0.03752014 -0.03305291 -0.1471584
-0.014909129 0.0076653888 0.051783085 -0.06569727 -0.041216068 0.041147552 0.030410545 0.009505549
0.021083334 -0.020897862 -0.043604407 -0.018606085 0.059355654 -0.084683605 0.049405687 -0.051944423
0.047909234 0.067332245 0.007729803 -0.09739663 0.033683512 -0.055442136 0.053145573 0.007636758
-0.15046686 0.09794327 -0.025296487 -0.05259009 -0.034489598 0.009545109 -0.024035873 -0.037049558
-0.017663397 0.003203399 0.018104335 -0.07066892 -0.032796822 0.061678346 0.032764833 -0.07660634
0.025855374 0.059009716 0.050086204 -0.01623917 0.08984263 0.014392221 0.07049562 0.00093732454
-0.057405695 0.026772657 -0.0055570584 0.046801433 -0.062143926 0.050719712 -0.08592483 -0.03280312
-0.005330224 -0.010904611 -0.0018047466 0.08808584 0.054886464 -0.056849483 0.058002982 0.071447305
-0.121699095 -0.08107523 -0.08372258 0.03156958 0.015775373 -0.065484256 -0.033054914 -0.022416143
0.023996657 -0.0336915 0.017104542 -0.001092478 -0.042640913 -0.07625313 -0.042736728 -0.088324726
0.046298213 -0.07516095 0.061677203 -0.035561837 0.042252705 0.0818827 -0.088029906 -0.012229465
-0.057486467 0.068896614 -0.026865678 0.023243526 0.064414054 0.047219068 -0.011526594 0.052770585
0.08656653 0.030465746 -0.010326697 0.060856767 0.027605556 0.019917132 0.063084885 -0.02602406

net.4.bias f4 [128]
00000000: e04f 8abd 7e33 e9bb 397a de3a 25d2 0bbd
00000010: 219f dfbd 6cd7 05be 6116 fbbd cd8d 79bd
00000020: 89f9 73bd 94e2 54bd a419 12be 3bc3 b2bd
00000030: 5252 683d d9e9 e0bd 342d 0bbd 4283 c5bc
00000040: 3efd 17be 8481 4c3d 1f22 efbc 9ddc 11be
00000050: a75b 5bbd e818 ecbd 5392 503c 6840 bebd
00000060: db86 8bbc 06f1 9ebd 9c9f f33c 5582 21bd
00000070: a659 0abe 9ecf b839 6282 84bd 8902 67bc
00000080: 18fc d8b9 4aab 11be 1691 7cbd e933 153d
00000090: 374c e0ba ea71 ad3c b9c0 80bd 915f 55bd
000000a0: 6f7c b7bd 7cfb ddbd 0ef5 1e3b c8f3 f83c
000000b0: 43f2 afbd cfbc ab3b c90c cabc 9f80 463c
000000c0: 1841 cbbd dd5c 6cbd c063 d8bc eb9e c53b
000000d0: 8b54 8b3d 356b fabd 6b8d d0bd 6b59 aebd
000000e0: 63fa 0d3d d48b 383c fbf8 85bc bb68 debd
000000f0: db4b 66bd 543d ecbd 1576 c23c e4f0 acbd
00000100: bffb dbbc 33dd 8dbd 1e0a 4dbe 2399 1fbd
00000110: 0279 9abc d539 cc3c 31a3 a9bd c67f 3abd
00000120: 557e 913c 267f d6bd a386 81bb 78f3 4b3c
00000130: 802b cbbd f1b1 03be 44d4 f4bd b1c4 2ebd
00000140: 28bb 4ebd 0672 97bd 771e 8ebd 4392 f0bd
00000150: 24b3 00bb c257 d53c 63d1 debd 500e e7bd
00000160: 3a5b 65bd 9aa9 63bd 4877 d1bd 77e3 fdbd
00000170: aad6 f2bd d821 9b3c 0776 21bd b693 423d
00000180: 96d4 0cbe e35f 41bd 1d00 2ebe 2001 35bd
00000190: 653e b4bd 7c13 8ebd 0ac6 ffbd 8c5c abbd
000001a0: d43d 2cbe b3c3 fdbd 81af 0abe 6c6d 88bd
000001b0: aba4 43bc 3729 14bd 3006 aebc 0807 39bc
000001c0: 4393 dfbd 4e79 05bd 2d0e 003d 9e22 e1bd
000001d0: 262f 88bd da30 dfbd 000a 11be f9dd b0bd
000001e0: 05e5 37bd fd89 b3bd 2ee7 223d ba6e edbd
000001f0: 900e eabc a595 5ebd dca0 213d 46f8 02be
-0.06753516 -0.007116734 0.0016973681 -0.034135956 -0.10919023 -0.13070458 -0.12260128 -0.060926247
-0.059564147 -0.051973894 -0.14267594 -0.087286435 0.05671913 -0.10982103 -0.033978656 -0.02411044
-0.14842698 0.049928203 -0.029191075 -0.14244314 -0.053554203 -0.11528188 0.012730199 -0.09289628
-0.017032078 -0.07760815 0.029739194 -0.039430935 -0.1351076 0.00035249902 -0.06470181 -0.0140997255
-0.00041386555 -0.14225498 -0.061661802 0.03642646 -0.0017112558 0.021172483 -0.06286759 -0.052093092
-0.08959281 -0.108389825 0.002425495 0.030389681 -0.0859113 0.0052410136 -0.0246643 0.012115627
-0.09924525 -0.05770575 -0.026414752 0.0060309074 0.06803235 -0.12227479 -0.10183223 -0.08513149
0.034662616 0.011263806 -0.016354075 -0.108598195 -0.056224685 -0.11535135 0.023737947 -0.08444384
-0.02685344 -0.06926956 -0.2002339 -0.038964402 -0.01885653 0.02492992 -0.082830794 -0.04553201
0.017760435 -0.104734704 -0.0039528175 0.012448184 -0.09920406 -0.12860848 -0.11954549 -0.04266805
-0.050471455 -0.07394795 -0.069394045 -0.11746647 -0.0019638026 0.026042823 -0.10879781 -0.11282027
-0.055995204 -0.055581667 -0.10227829 -0.12396901 -0.1185735 0.018937036 -0.0394192 0.04750415
-0.1375297 -0.047210585 -0.1699223 -0.044190526 -0.08800963 -0.0693731 -0.12488945 -0.08367261
-0.1682046 -0.12390842 -0.13543512 -0.066614956 -0.011941115 -0.036172118 -0.021243185 -0.01129318
-0.1091676 -0.03258639 0.03126352 -0.10992931 -0.06649618 -0.108979896 -0.14163971 -0.08636088
-0.044896144 -0.087665536 0.03977125 -0.11593385 -0.028571397 -0.05434193 0.039460048 -0.12790021

net.6.weight f4 [5, 128]
00000000: 9dbf 80bb 7c9e 53bd 8e7c 4abd 9d13 d03c
00000010: f96c 923c 45d1 d13c 4662 563c f3a8 89bc
00000020: 1566 35bd 5133 7fbd 62ce 9bbc d69c 2dbd
00000030: 98ff 61bd e03d 5cbd 628d afbc 9e29 8ebd
00000040: f877 6ebd 572a 05bd 4841 9fbc 0b02 8abb
00000050: 12c5 f13b 4c55 07bc c05a 153d 1d45 9b3c
00000060: 313c 69bd 16b3 463c 724b 053d 8a70 db3c
00000070: 6994 a0bc 9eb6 283d b95c 693c da88 063d
00000080: 1945 423d 8a51 a43c b9e6 e93c 862c 2cbd
00000090: c4a3 7ebd 1fd5 14bd 2950 373d e681 173c
000000a0: e4d5 5ebc c098 543c 532e 983c e00b 13bd
000000b0: 7758 c4bc 4969 3abc 5b7c e2bc 9363 7fbc
000000c0: 516a b83c 7cf5 2fbd e55b f03c 570f c23c
000000d0: 4985 1abd 7fef 683d 29db 653a a61d 11bc
000000e0: f5bd 2f3c 9b3b 323d 8d79 303d 46c1 47bd
000000f0: f1b2 8abc 6a40 87bb 29ad 6abd ec39 6cbd
00000100: 5b3c 49bd 18b2 11bd 0b4b 0b3b f2fd 3d3d
00000110: da07 3fbb 1da7 27bd 8d69 f13a d886 4e3b
00000120: 05bb 96bc 692c a1ba ba8c 073d bb3a 8ebd
00000130: 5a80 df3c 2f08 5fbd 5526 a5bd 33ae 1d3d
00000140: 9395 b73c c8a5 85bd 4451 9fbc c019 823c
00000150: d866 2ebd 79f0 133a fed1 5d3d 603d f3ba
00000160: 9b82 3b3d 6e63 ae3c afe0 a03c e184 80bd
00000170: 286b 58bc 4b2d 1f3d 79cb 383d 8769 5e3c
00000180: 0b98 593c 3749 f4bc c49e c5bb b9c7 3cbd
00000190: a682 01bd 98c9 e9bc 0d4c 6b3d 33d7 6a3c
000001a0: 4844 563c 86c7 b4bb 752c 7c3b 26b0 34bc
000001b0: 7c8c a23c 6107 51bb 53d4 873c da06 3e3b
000001c0: f5c6 a3bc 4764 21bd 0852 433d 42e0 053d
000001d0: cd69 24bd 0b4f 263b 3c64 e5bb 8eba c0bb
000001e0: 7b80 a73c ab77 033d 2ac6 13bc 473c e5bc
000001f0: 3d66 74bd 9c31 3f3d 6b98 d7bc 8c5c a1bc
00000200: 25db 4fbb cc47 89bc e3f1 653d 63be 07bc
00000210: e158 383b f1b7 173c 3655 993b 2f93 583c
00000220: 87b1 533d c279 d43c 5899 593c 1e01 b8ba
00000230: 9a5e 8d3d 3540 b33c e844 433c 900b 2cbd
00000240: 41d2 3abd 2c35 443d 4d11 15bd e3ad 2fbb
00000250: 1722 64bc db51 5e3d 1dd6 eebb 028a c8bb
00000260: f253 223d 9c51 e6bb 94f7 4f3d 0500 493c
00000270: 92ff d83b a7ed 723d 08fd 05bc 024a 703c
00000280: 0e7c b6bc 28c6 85bc 0252 d0bc 02ef 423d
00000290: 81be 2bbd bfff ddbc 8780 313d b0fe 453d
000002a0: 757b 6c3a 409d ea3c ccf2 01bd 20b7 debc
000002b0: 84e3 c2bc cb87 13bd 3bb8 65bc dd66 0c3c
000002c0: 8918 d0bc 73c5 49bd 52be 3f3d 9906 c33c
000002d0: 033e 573d 302c 7b3c 0225 40bc f667 04b9
000002e0: b188 a43c ba9b eebc 5a3a 2fbd ac25 133c
000002f0: 3d0b d53c a1b6 82ba 022e 14bc ee4e 773d
00000300: 508e 7c3d f4c9 cfbc 1a77 993a 2332 523d
00000310: c176 5d3d bdca 2f3d aa81 8e3d 2b71 083d
00000320: 1a8d 8e3d 1485 19ba 2406 7c3c df03 863d
00000330: 5ec1 40bc d603 f4bc f84f 1cbd 7a6c c5bc
00000340: 5ebd 833d d825 f53b 803e ef3c c19b 92bc
00000350: 2e0d ce3c a461 26bd 525e 66bd 5e58 0d3d
00000360: c841 3b3b aa65 843c 5c08 fabb 7bef a4ba
00000370: 3232 1b3d a665 dd3c 8687 573b 8a09 983d
00000380: 12b5 813b 4b94 2dbd 9569 34bb d341 b13b
00000390: a5b6 723c 5d7b 393d 3737 4bbd 5608 053d
000003a0: db44 023c a7f1 95bc 9007 373c 01a0 b3ba
000003b0: c74c 88bc 0703 cc3b 5440 3e3d 651a 3bbd
000003c0: 448f 45bd e0a4 01bc 006c 9b3c aef9 6abc
000003d0: 7ec1 00bd 19a0 babb 9ba6 0cbd dc4b 463d
000003e0: 4f25 02bd 3d01 513c 0919 0a3d 5828 d53c
000003f0: 612d c9bc d73f 413d 3acc 2f3d da4a 0fba
-0.003929092 -0.051664814 -0.04943519 0.025399977 0.017874228 0.025612483 0.013084954 -0.016804194
-0.044286806 -0.0623048 -0.01901931 -0.0423859 -0.055175394 -0.053769946 -0.021429721 -0.069415316
-0.05821988 -0.03251108 -0.019440308 -0.0042116693 0.007378229 -0.008260082 0.0364635 0.018953854
-0.05694217 0.012127658 0.032542653 0.026787061 -0.019602017 0.041189782 0.014243298 0.032845356
0.047429178 0.020058412 0.0285524 -0.04203465 -0.062167898 -0.03633606 0.04475418 0.009247279
-0.0136008 0.012975872 0.018576777 -0.035899997 -0.023967965 -0.011377641 -0.027647188 -0.015587705
0.022511633 -0.04295872 0.029340694 0.023688955 -0.037724767 0.056869026 0.0008768314 -0.008857166
0.010726442 0.043513875 0.04308467 -0.048768304 -0.016931029 -0.004127552 -0.057294045 -0.057672426
-0.049129825 -0.035570234 0.0021254446 0.04638476 -0.0029148967 -0.040930856 0.0018418297 0.0031513479
-0.018399725 -0.001229656 0.03309319 -0.06944796 0.027282882 -0.054451164 -0.08063952 0.038496207
0.02241019 -0.06525761 -0.01944793 0.01588142 -0.04257855 0.0005643438 0.054155342 -0.001855772
0.045778852 0.021287646 0.019638387 -0.06275345 -0.013209142 0.038861554 0.04511592 0.013574964
0.013280879 -0.029820068 -0.006030889 -0.046088908 -0.031618737 -0.02853851 0.057445575 0.014333534
0.013077803 -0.005516949 0.0038478647 -0.011028325 0.019842379 -0.0031895267 0.016580736 0.0028995783
-0.019992331 -0.039402273 0.047685653 0.032684572 -0.040139962 0.0025376703 -0.0070004743 -0.005881614
0.020447006 0.032096546 -0.009019414 -0.027982844 -0.059667815 0.04667817 -0.026317796 -0.01969745
-0.0031716314 -0.016757868 0.056138884 -0.008285138 0.0028129148 0.009260164 0.0046793474 0.013218685
0.051682975 0.025936965 0.013281189 -0.0014038419 0.069028094 0.021881202 0.011918284 -0.042003214
-0.04561067 0.04790227 -0.036393452 -0.0026806525 -0.013924143 0.054277282 -0.007288708 -0.0061199674
0.039630838 -0.0070287716 0.05077322 0.012268071 0.006622263 0.059308674 -0.008178003 0.014666082
-0.02227595 -0.01632984 -0.02542973 0.047591217 -0.041929726 -0.027099488 0.043335464 0.048338592
0.0009021082 0.028639436 -0.03172569 -0.02718693 -0.023790129 -0.036018174 -0.014020975 0.008569446
-0.025402324 -0.049260568 0.046812363 0.023806857 0.052549373 0.015330359 -0.011727573 -0.0001262723
0.02008471 -0.02912699 -0.042780258 0.00898115 0.026006335 -0.000997264 -0.009044172 0.060378008
0.061659157 -0.025364853 0.0011708469 0.051317345 0.05406833 0.042917956 0.06958325 0.03331105
0.06960507 -0.0005856317 0.015382323 0.06543707 -0.011764852 -0.029786985 -0.0381622 -0.024099577
0.06432603 0.007481318 0.029204607 -0.017896535 0.025152769 -0.04062046 -0.056242295 0.0345081
0.0028573144 0.016161758 -0.007630391 -0.0012583578 0.037889667 0.027026009 0.0032887175 0.074236944
0.003958353 -0.04237775 -0.0027528752 0.005409458 0.014814054 0.045283664 -0.049613204 0.032478653
0.007950987 -0.018303705 0.011171237 -0.0013704301 -0.016638173 0.006225947 0.046448067 -0.04567947
-0.048232332 -0.007912844 0.018972397 -0.014341755 -0.03143453 -0.0056953547 -0.034338575 0.04841219
-0.03177386 0.012756643 0.03371528 0.026020214 -0.024557771 0.047180023 0.042919375 -0.0005466171

net.6.bias f4 [5]
00000000: 434e 693d 00f2 71bd 2b9f 6a3c d9f6 e3bb
00000010: 074c 8abc
0.0569594 -0.05906868 0.014320175 -0.006956917 -0.016881956
