pth of PINN/pinn_elasticity.pth (torch, 669992 bytes, 10 tensors)

net.0.weight f4 [128, 2]
0.02865511 -0.037372373 -0.050077636 -0.6245896 -0.1642396 -0.5524377 0.01725183 -0.07693605
0.20585226 -0.35520473 0.13164823 0.03397842 0.08922489 0.46604815 -0.15914461 -0.24050836
0.13147901 -0.5097669 -0.044033658 0.6547051 0.58861136 -0.07740208 0.63221264 -0.08176631
-0.07032777 -0.71412104 -0.21671265 -0.22211961 -0.4590251 0.3413463 0.6685355 -0.04280582
0.11161427 0.40229398 0.15800768 -0.6764522 0.016669657 -0.342876 -0.42421022 0.02849693
0.51191854 0.60700166 0.67014223 0.3686277 -0.55704063 0.48945698 0.6415867 -0.14385416
-0.28221643 -0.6157925 -0.19198519 0.2912863 0.6545089 -0.34472838 0.22762701 -0.53520674
0.0371682 -0.62944627 0.2218916 -0.07441162 0.25487328 -0.32665455 -0.69062215 0.59920734
0.4294276 -0.46471918 0.50328374 -0.3234737 0.111324646 0.086961225 -0.500546 0.41574576
-0.24406612 -0.56853604 -0.22804146 -0.38843697 0.15257093 0.6570714 -0.111026 0.65441436
-0.49156636 0.22993948 0.64441884 -0.636711 0.4210984 -0.45608592 -0.070404984 -0.57800996
0.16061543 -0.412194 0.22638941 0.4301749 0.55816174 0.4753552 -0.48994493 0.58308977
0.1403563 0.045630727 0.6538195 0.3107944 0.15007737 0.53968865 0.051968414 0.15977229
0.54332495 -0.5195753 0.6950794 -0.5786627 0.20670445 0.5295172 0.06330651 0.08235314
0.69957066 0.5422246 -0.47903624 0.27008533 0.4626318 0.22548051 -0.2130807 -0.49233747
0.31213242 0.13778177 -0.087746434 0.06062402 0.3333297 -0.6655053 0.4591756 -0.113122076
-0.22247413 0.46073148 0.37003824 -0.19538291 -0.66299736 -0.23999663 0.384312 -0.0655104
0.03151149 -0.2918321 0.14660041 -0.05687623 -0.6907909 -0.24441296 -0.5505739 -0.10770193
-0.5398319 -0.16169067 0.67690796 -0.60918796 -0.36029592 0.15641747 -0.31221986 0.6239505
-0.07138181 -0.17653874 0.1092456 0.039593887 0.32560322 0.21033217 0.47790477 0.6343788
-0.12271596 0.1589997 -0.037712496 0.27551028 -0.086169586 0.67181283 0.26419353 0.5591072
-0.502755 0.45416006 0.38986093 0.53070325 -0.6092191 -0.5882057 0.26032946 0.4813985
0.37323123 0.5558351 0.49767312 0.36233845 0.2718432 -0.12578401 0.2876478 -0.6671448
-0.64490455 -0.12091568 -0.55616724 0.1802372 0.61686 0.6211586 0.6819399 0.05072466
-0.44484994 0.22990127 0.22119144 -0.42605335 -0.5330625 -0.08669915 -0.08450123 -0.56812966
0.55823606 -0.5456326 0.401999 0.44715965 0.2462362 -0.028465513 -0.33931854 -0.15767594
0.30890557 0.29103965 -0.37914467 0.17154245 0.31314087 -0.10053288 -0.62608 -0.20482887
0.43968534 0.09691447 0.66591626 0.3289082 -0.24289158 -0.17587975 -0.12185213 -0.52587605
-0.1845322 -0.22613747 -0.3131088 -0.7048666 0.3520507 0.2488929 0.119212314 0.11845828
-0.2496723 -0.19856036 -0.32308754 -0.17653655 0.12133287 -0.2301872 -0.545553 0.18662173
0.61186546 0.30890822 0.24505475 -0.4205092 -0.3492462 -0.4607418 0.02590525 0.10488005
0.6441935 0.3517678 -0.5916482 -0.07406165 0.48500615 0.19622162 -0.5654655 -0.5789969
00000000: 1fbe ea3c c613 19bd 351e 4dbd 1be5 1fbf
00000010: 6d2e 28be 8f6c 0dbf b653 8d3c a690 9dbd
00000020: efca 523e 65dd b5be cbce 063e f52c 0b3d
00000030: 8abb b63d dd9d ee3e cef6 22be d347 76be
00000040: 6fa2 063e 1580 02bf a35c 34bd c19a 273f
00000050: 3caf 163f fb84 9ebd b0d8 213f 1875 a7bd
00000060: 0208 90bd a3d0 36bf ece9 5dbe 5373 63be
00000070: 5705 ebbe f1c4 ae3e 2425 2b3f 2855 2fbd
00000080: 0696 e43d 7af9 cd3e c4cc 213e f92b 2dbf
00000090: ce8e 883c 718d afbe 1532 d9be 6572 e93c
000000a0: 180d 033f 7664 1b3f 718e 2b3f c5bc bc3e
000000b0: 379a 0ebf 1b9a fa3e 073f 243f 814e 13be
000000c0: ac7e 90be 94a4 1dbf c497 44be 7a23 953e
000000d0: e58d 273f 3d80 b0be 0e17 693e 4f03 09bf
000000e0: af3d 183d 6423 21bf 8d37 633e 1f65 98bd
000000f0: c07e 823e 443f a7be 9dcc 30bf a765 193f
00000100: efdd db3e acef edbe 34d7 003f 589e a5be
00000110: 2dfe e33d ba18 b23d c823 00bf a1dc d43e
00000120: 78ec 79be 948b 11bf b383 69be 36e1 c6be
00000130: 8e3b 1c3e d535 283f 9961 e3bd b387 273f
00000140: 96ae fbbe 4175 6b3e a2f8 243f 7eff 22bf
00000150: 369a d73e 1884 e9be 7d30 90bd 76f8 13bf
00000160: 5f78 243e 180b d3be a0d2 673e e23f dc3e
00000170: b0e3 0e3f c261 f33e 10da fabe 5f45 153f
00000180: 90b9 0f3e 49e7 3a3d b760 273f 7220 9f3e
00000190: e2ad 193e 0929 0a3f d5dc 543d 599b 233e
000001a0: 5817 0b3f e302 05bf b9f0 313f 3d23 14bf
000001b0: 55aa 533e 708e 073f d8a6 813d c3a8 a83d
000001c0: 1017 333f 3bcf 0a3f 3d44 f5be a048 8a3e
000001d0: 13de ec3e 5de4 663e d431 5abe a813 fcbe
000001e0: d2cf 9f3e aa16 0d3e 67b4 b3bd e450 783d
000001f0: 31aa aa3e 8e5e 2abf 1019 eb3e 8cac e7bd
00000200: 42d0 63be ffe4 eb3e a775 bd3e 7512 48be
00000210: 32ba 29bf adc1 75be 8bc4 c43e 512a 86bd
00000220: 3112 013d 046b 95be 6b1e 163e 0df7 68bd
00000230: acd7 30bf 6447 7abe 69f2 0cbf d492 dcbd
00000240: 6c32 0abf 3d92 25be d749 2d3f bef3 1bbf
00000250: b578 b8be e72b 203e 48db 9fbe 38bb 1f3f
00000260: a030 92bd 92c6 34be 28bc df3d 332d 223d
00000270: 77b5 a63e 5161 573e efaf f43e a666 223f
00000280: 8152 fbbd d1d0 223e 6b78 1abd af0f 8d3e
00000290: ae79 b0bd edfb 2b3f 6044 873e a621 0f3f
000002a0: 8db4 00bf ab87 e83e da9b c73e 2bdc 073f
000002b0: c8f5 1bbf a694 16bf e749 853e dd79 f63e
000002c0: 2a18 bf3e 364b 0e3f 03cf fe3e 6d84 b93e
000002d0: 082f 8b3e 86cd 00be 9346 933e 00ca 2abf
000002e0: 7718 25bf a4a2 f7bd fa60 0ebf 1a90 383e
000002f0: 89ea 1d3f 4004 1f3f 9d93 2e3f a9c4 4f3d
00000300: 5fc3 e3be 3d6b 6b3e 0280 623e aa23 dabe
00000310: c976 08bf 538f b1bd fb0e adbd f270 11bf
00000320: 8fe8 0e3f 94ae 0bbf d0d2 cd3e 1cf2 e43e
00000330: 5825 7c3e 8230 e9bc 29bb adbe cd75 21be
00000340: df28 9e3e 2603 953e 401f c2be d3a8 2f3e
00000350: 0054 a03e 2fe4 cdbd c746 20bf a9be 51be
00000360: 701e e13e 187b c63d 7d79 2a3f a866 a83e
00000370: 92b8 78be d219 34be 9c8d f9bd d09f 06bf
00000380: 02f6 3cbe 9590 67be cc4f a0be 2372 34bf
00000390: fd3f b43e c8dd 7e3e 9625 f43d 419a f23d
000003a0: 18aa 7fbe 6853 4bbe bb6b a5be ffc5 34be
000003b0: 5e7d f83d 31b6 6bbe 5da9 0bbf c419 3f3e
000003c0: 37a3 1c3f 3829 9e3e a2ef 7a3e fb4c d7be
000003d0: 66d0 b2be 59e6 ebbe 3f37 d43c 5acb d63d
000003e0: dde9 243f e91a b43e 4276 17bf a2ad 97bd
000003f0: ba52 f83e 52ee 483e 59c2 10bf 2439 14bf

net.0.bias f4 [128]
-0.64252895 -0.19774729 0.5534961 0.21026309 0.67805606 -0.22693515 0.05101755 -0.025842855
-0.12839279 -0.6380807 -0.033808533 -0.549728 0.022821032 0.5669029 -0.48797444 0.45230556
0.5468695 0.14095394 0.41895404 0.31925607 0.6656996 0.083570026 0.45368227 -0.39654893
0.6151415 0.11034508 -0.5262034 0.1317935 0.46439725 -0.4743974 -0.37968197 0.36281273
0.3889387 0.111261874 -0.37947184 0.48705563 -0.46549675 -0.4899899 -0.09433983 -0.08467086
0.08879248 0.6569789 0.4530433 0.39367107 -0.052850522 0.32810816 0.6027634 -0.06380175
-0.15847923 -0.22470938 0.640723 0.14513807 0.09752732 0.4732652 0.53942376 -0.6322007
-0.23412377 -0.53639215 0.598531 0.3840114 0.19065948 0.2499198 -0.3024823 -0.16685332
0.67457634 -0.5689918 0.14064261 -0.33271375 -0.2630425 -0.6444148 -0.38267142 0.45459884
-0.3810237 -0.41837645 0.24521595 -0.6025938 -0.67383903 0.0068155974 0.41030785 0.29501617
-0.32689708 0.35111 -0.32684183 0.5317074 -0.20487 -0.3064566 -0.15736383 0.5828039
-0.3970524 -0.048030756 -0.04418808 -0.5213696 -0.24137618 -0.29290304 0.19564018 -0.32622075
-0.42122766 -0.5521993 -0.20992309 -0.6291799 0.41631922 -0.3600766 0.5981862 -0.60297453
-0.10751606 -0.066250876 0.61487615 0.08824015 0.011267672 -0.38164547 -0.41894686 0.35637188
-0.08167667 -0.66998243 0.6146621 -0.4971672 -0.7013579 0.1655443 0.5845852 0.12398829
0.697986 0.32739797 0.2871022 0.4974382 0.020745497 -0.6221429 -0.56290764 0.14560859
00000000: c77c 24bf 447e 4abe ecb1 0d3f 354f 573e
00000010: 1595 2d3f b061 68be c7f7 503d 65b4 d3bc
00000020: 6679 03be 4259 23bf d17a 0abd f9ba 0cbf
00000030: 2cf3 ba3c 8c20 113f c9d7 f9be 9894 e73e
00000040: a4ff 0b3f 3b56 103e 2581 d63e 8875 a33e
00000050: 4a6b 2a3f c326 ab3d 0b49 e83e 7608 cbbe
00000060: ea79 1d3f 9afc e13d 44b5 06bf e0f4 063e
00000070: 7ac5 ed3e 37e4 f2be ad65 c2be 97c2 b93e
00000080: f922 c73e 44dd e33d 224a c2be 5b5f f93e
00000090: 9755 eebe f5df fabe 3e35 c1bd ea67 adbd
000000a0: d5d8 b53d c52f 283f 4bf5 e73e 418f c93e
000000b0: ca79 58bd cbfd a73e b44e 1a3f 7eaa 82bd
000000c0: 6148 22be 371a 66be 6c06 243f 139f 143e
000000d0: 67bc c73d d14f f23e ad17 0a3f e8d7 21bf
000000e0: 24be 6fbe ff50 09bf 5439 193f 249d c43e
000000f0: 3d3c 433e faea 7f3e f6de 9abe 99db 2abe
00000100: 09b1 2c3f 72a9 11bf 9e04 103e 7559 aabe
00000110: 82ad 86be 5ef8 24bf 82ed c3be 2ec1 e83e
00000120: 8a15 c3be 7035 d6be e419 7b3e 9643 1abf
00000130: b780 2cbf 6055 df3b df13 d23e 5c0c 973e
00000140: 0e5f a7be b1c4 b33e d057 a7be fa1d 083f
00000150: 71c9 51be e1e7 9cbe fc23 21be a332 153f
00000160: 744a cbbe e6bb 44bd 8ffe 34bd 7a78 05bf
00000170: 512b 77be 63f7 95be e655 483e 6806 a7be
00000180: 27ab d7be ef5c 0dbf 14f6 56be ef11 21bf
00000190: cb27 d53e f65b b8be bb22 193f 8a5c 1abf
000001a0: 6131 dcbd 8aae 87bd 8668 1d3f 40b7 b43d
000001b0: 0b9c 383c 0967 c3be 3480 d6be 6076 b63e
000001c0: 1946 a7bd f883 2bbf 7f5a 1d3f b38c febe
000001d0: 318c 33bf 7284 293e 60a7 153f 93ed fd3d
000001e0: 36af 323f b5a0 a73e 0fff 923e 38b0 fe3e
000001f0: 76f2 a93c c244 1fbf b71a 10bf 6b1a 153e

net.2.weight f4 [256, 128]
-0.031154916 -0.05753748 -0.045413643 -0.072859295 0.013514995 0.05278929 -0.091256335 -0.06522409
0.039652556 -0.066783234 0.02727374 -0.005279521 -0.0024855107 0.07164097 -0.021283187 -0.04397203
-0.086035624 0.0040797987 -0.021514295 -0.081456706 -0.08209404 0.037793394 -0.06085605 -0.08418977
-0.00089266733 0.07596297 -0.020328851 -0.03377421 -0.064226784 -0.08098302 -0.0009548334 0.054153904
0.07562604 -0.086220615 -0.023261882 -0.048727505 -0.012441852 0.03216377 -0.08572117 -0.059276983
-0.0006646799 -0.07480318 -0.037986744 -0.025578588 0.0034263276 0.044692647 -0.08935414 0.07775009
0.024777586 -0.072642736 0.015405659 -0.06145201 0.023380244 -0.0046130894 0.06465824 -0.093079425
-0.058002286 -0.054421414 -0.048770208 -0.007281098 -0.019257892 0.025295265 0.042987626 -0.015869336
0.0700747 0.066980235 0.059857126 0.008064489 0.0737569 0.017118018 -0.06808385 -0.0022863457
-0.023768058 0.057726473 -0.054360826 -0.08506809 0.018301481 -0.06371446 0.027479023 -0.036062554
-0.0009547805 -0.04134962 0.055425834 -0.051567476 0.042660996 -0.013848341 0.003975714 -0.006251365
-0.08101624 -0.0057731885 -0.019306235 0.045192342 -0.005138421 -0.005098527 -0.028873868 0.077892415
0.019493531 0.048186146 -0.08460641 0.0646849 0.06016714 0.003695846 -0.07283023 -0.053254947
0.016213538 -0.0107863955 -0.046943728 0.06516403 -0.07215311 -0.03465757 0.042110547 0.01549184
0.006964691 -0.08607769 -0.060312316 -0.046429604 0.07723589 0.00034359205 -0.08396007 0.016539073
0.015154323 0.056031898 -0.06218441 0.041709304 -0.029151725 0.035076603 0.04934869 -0.026640192
-0.016804231 0.056676112 0.03027856 -0.019209402 -0.05190156 0.10282831 0.106243834 0.03623779
-0.05091268 -0.028103633 -0.021883952 -0.07964831 0.08387686 -0.054281056 -0.026419148 -0.03350853
0.06756653 0.061589785 -0.014295119 0.042419635 0.02413026 0.039071593 0.06719393 0.07922799
0.09883268 0.042985886 0.08993239 0.1028125 0.11665338 0.089761935 0.04890717 0.023803841
-0.025268827 0.06640501 0.00047814375 0.08277574 0.039992042 0.10598826 -0.04172726 -0.024950445
0.0049578855 -0.033315245 0.008015969 0.05610653 0.04457517 -0.048024602 -0.011664699 -0.05286103
0.08464419 0.05804366 0.079462044 -0.04259463 0.004696464 -0.010736443 0.0069014328 -0.05192588
0.016703002 0.027982717 0.07716652 -0.056327075 0.050573327 -0.024622045 0.02579308 0.09007727
0.05956147 -0.012085078 -0.049252775 0.05984096 0.101993635 0.11108801 0.09959996 -0.017171735
0.087959595 0.048562173 0.105133444 0.09054144 -0.040810198 0.032190476 0.08117195 -0.01295153
0.028123481 0.01604918 0.04539566 -0.03662146 0.089752354 0.0977101 0.051353693 0.07426519
-0.05002923 0.03128875 0.005437447 0.057435665 -0.009066316 0.06321291 0.08907241 0.05728446
-0.06587383 0.013884681 -0.02386277 0.07597086 0.007818619 0.0053232335 -0.026941437 0.08232352
0.0257284 0.06694677 0.10444751 0.0622716 -0.009198716 0.087137304 0.012823221 0.11000511
0.10119636 -0.02367505 -0.051504284 0.043036312 0.03076842 -0.03358427 -0.05011792 0.032154784
0.07230547 -0.056250256 0.067075446 0.0970868 -0.021914812 0.102761574 0.0059635243 0.101664014
00000000: 9838 ffbc 6cac 6bbd a803 3abd 4137 95bd
00000010: ff6d 5d3c 9539 583d 9ae4 babd 3594 85bd
00000020: b86a 223d a6c5 88bd 2e6d df3c d5ff acbb
00000030: f3e3 22bb 80b8 923d 145a aebc 041c 34bd
00000040: 7233 b0bd d5af 853b bf3e b0bc c6d2 a6bd
00000050: ec20 a8bd 3fcd 1a3d 3244 79bd b06b acbd
00000060: e401 6aba 7992 9b3d b188 a6bc d356 0abd
00000070: 5589 83bd 6dda a5bd c94d 7aba 7cd0 5d3d
00000080: d3e1 9a3d 6f94 b0bd b48f bebc 7e96 47bd
00000090: e9d8 4bbc 28be 033d 958e afbd 6ccc 72bd
000000a0: ea3d 2eba 6932 99bd fd97 1bbd 308a d1bc
000000b0: 3d8c 603b a30f 373d 4eff b6bd 703b 9f3d
000000c0: 5dfa ca3c b7c5 94bd 0468 7c3c 1ab5 7bbd
000000d0: ed87 bf3c 6629 97bb 8a6b 843d 6da0 bebd
000000e0: ce93 6dbd fde8 5ebd 45c3 47bd 4796 eebb
000000f0: bac2 9dbc 0438 cf3c cb13 303d 6900 82bc
00000100: 5383 8f3d ef2c 893d bf2c 753d eb20 043c
00000110: dc0d 973d 163b 8c3c 8c6f 8bbd 84d6 15bb
00000120: 3bb5 c2bc 9872 6c3d 75a9 5ebd 2e38 aebd
00000130: fdec 953c ba7c 82bd b01b e13c 54b6 13bd
00000140: 3c4a 7aba 385e 29bd 3306 633d 6b38 53bd
00000150: 4cbd 2e3d 27e4 62bc b546 823b 40d8 ccbb
00000160: d8eb a5bd 042d bdbb 1c28 9ebc 9b1b 393d
00000170: 3360 a8bb 8b11 a7bb e488 ecbc 0f86 9f3d
00000180: e6b0 9f3c d65e 453d 2046 adbd 8479 843d
00000190: d271 763d 0236 723b 0428 95bd dc21 5abd
000001a0: 41d2 843c 6cb9 30bc 1148 40bd b874 853d
000001b0: 02c5 93bd 19f5 0dbd 1c7c 2c3d 7dd1 7d3c
000001c0: 1038 e43b 8049 b0bd 0c0a 77bd f82c 3ebd
000001d0: da2d 9e3d 2524 b439 42f3 abbd f37c 873c
000001e0: d649 783c b481 653d 14b5 7ebd 60d7 2a3d
000001f0: 99cf eebc 7cac 0f3d da21 4a3d 883c dabc
00000200: 07a9 89bc 3625 683d be0a f83c 095d 9dbc
00000210: bb96 54bd a697 d23d 5e96 d93d 146e 143d
00000220: d089 50bd 9739 e6bc f945 b3bc a71e a3bd
00000230: a2c7 ab3d d055 5ebd f86c d8bc 3e40 09bd
00000240: 5260 8a3d 9245 7c3d 1336 6abc 36c0 2d3d
00000250: d3ac c53c 8909 203d f99c 893d 4942 a23d
00000260: ca68 ca3d f811 303d 792e b83d 5c8f d23d
00000270: f8e7 ee3d 1bd5 b73d e252 483d 4600 c33c
00000280: 9200 cfbc 5aff 873d 5eaf fa39 5486 a93d
00000290: b2ce 233d 5f10 d93d 34ea 2abd e064 ccbc
000002a0: c275 a23b 9175 08bd 6955 033c f6cf 653d
000002b0: 7494 363d 72b5 44bd 4b1d 3fbc cf84 58bd
000002c0: ef59 ad3d 30bf 6d3d ffbc a23d b577 2ebd
000002d0: cce4 993b e8e7 2fbc 6a25 e23b 3bb0 54bd
000002e0: bcd4 883c 033c e53c 7b09 9e3d 38b7 66bd
000002f0: fa25 4f3d 2cb4 c9bc 024c d33c 6f7a b83d
00000300: baf6 733d 7e00 46bc 47bd 49bd cb1b 753d
00000310: 0ae2 d03d 1c82 e33d 10fb cb3d bdab 8cbc
00000320: 2924 b43d 21e9 463d 3450 d73d ca6d b93d
00000330: 9828 27bd 29da 033d 7b3d a63d a732 54bc
00000340: 3763 e63c 9279 833c cdf0 393d 6200 16bd
00000350: 15d0 b73d 3c1c c83d 4058 523d 5918 983d
00000360: 73eb 4cbd a228 003d 9d2c b23b a941 6b3d
00000370: e38a 14bc c575 813d 986b b63d 1ca3 6a3d
00000380: dce8 86bd 937c 633c db7b c3bc 9c96 9b3d
00000390: aa19 003c 856e ae3b 4ab4 dcbc 3c99 a83d
000003a0: 5ec4 d23c 631b 893d 93e8 d53d 8110 7f3d
000003b0: 36b6 16bc 0b75 b23d 7d18 523c 5c4a e13d
000003c0: 0a40 cf3d 2ef2 c1bc 28f6 52bd d846 303d
000003d0: 0e0e fc3c a98f 09bd 7348 4dbd bcb4 033d
000003e0: e414 943d ab66 66bd da5e 893d 72d5 c63d
000003f0: b186 b3bc a974 d23d ab69 c33b 3935 d03d

net.2.bias f4 [256]
-0.038417265 0.07865819 0.10601788 -0.06283428 0.02454171 0.07633546 -0.06488123 -0.0021106866
-0.055513233 0.08652918 -0.034400243 0.07474713 0.102342084 0.03756954 -0.061791304 -0.044423763
0.04884628 0.016687792 -0.0032444536 -0.022078896 0.08544022 -0.03518932 -0.021968754 -0.080462955
-0.068471566 -0.040990043 -0.068388805 0.042156592 0.03363585 -0.0029434494 -0.0906467 0.0777839
-0.035430674 -0.011404655 -0.032505102 -0.039024867 -0.025884617 -0.057085566 -0.0049354495 -0.079463035
0.070817634 0.045338295 -0.062263552 0.03221 -0.013831712 -0.07639659 0.062147602 -0.075047284
-0.047632944 -0.043236382 0.05423596 -0.009619704 0.025818033 0.02000213 0.047612682 0.021591803
-0.045434628 0.005624361 -0.0126589695 0.03441216 -0.04429118 0.010215892 -0.042242743 0.032435894
-0.061725587 0.0342735 -0.07798491 0.014141481 -0.007827122 -0.04832663 -0.08512368 -0.061484955
0.0019560591 0.030790316 0.023234993 0.026022084 -0.036913317 0.0782355 -0.07855916 -0.021055505
0.11486193 -0.05234458 0.09218453 -0.013208795 -0.07972433 0.024930824 -0.029410345 -0.046083197
0.010624115 0.033918943 0.07054804 -0.0276594 0.056391653 -0.05578676 -0.017034862 -0.02169042
-0.021439005 -0.025804333 -0.010284641 0.00033572866 -0.043162618 0.064223535 0.062992826 0.0011936278
0.059899874 -0.09008339 -0.023551175 -0.026499132 -0.007166633 0.018492386 0.05569985 0.008369297
-0.08526557 0.05847743 -0.067378804 0.035868663 -0.021911059 -0.06131584 -0.04995453 -0.08782077
0.079456985 -0.02375174 -0.011943336 0.054513745 0.045766275 -0.030862708 -0.035349753 -0.041079994
0.055228725 -0.07671897 0.04797432 -0.048623968 -0.080420375 -0.032482035 0.06747442 0.010111452
-0.075726114 -0.05792771 0.07072991 -0.042775646 -0.017117366 -0.010848589 -0.09154407 0.060907975
-0.019376222 -0.012440919 0.03305542 0.020673042 -0.052279245 -0.009020202 0.0118732 -0.07399389
0.031481907 0.08116009 -0.07059231 -0.08021972 0.017258326 0.04073545 -0.05403968 -0.018385231
0.025123926 0.009950828 0.034326773 0.014496905 0.011358085 -0.062361814 -0.029454121 -0.021679
0.0024733993 0.09244894 0.024761794 -0.01704751 -0.044597093 0.033298068 0.048055407 -0.009825486
-0.07613004 0.040831637 -0.058258906 -0.057657678 0.04202617 0.08017422 -0.05223732 -0.0213279
0.060318585 -0.03614483 0.03532355 -0.032198854 -0.017520776 0.043922033 0.029400427 0.021454778
0.082328334 0.028707687 -0.021207847 -0.07633428 0.005158903 -0.030148387 0.089144826 0.0056989808
-0.03676582 0.006307577 -0.047000725 -0.0012026824 -0.08927307 -0.003693281 0.04062061 0.077220425
-0.085960016 -0.038027506 -0.07868204 0.01706059 0.07510149 -0.01494953 0.06515439 -0.093324594
-0.067623004 0.053752895 0.081192575 -0.06433142 0.035359133 -0.036948238 0.008746398 -0.03880697
-0.07808191 -0.054987166 -0.0066050123 -0.030788569 0.030569954 -0.04717312 0.032936215 0.0053092847
-0.047739904 -0.033279743 -0.08924921 -0.0372983 -0.07848705 0.015837627 -0.03586396 0.021625336
-0.047742467 0.027678888 0.029843748 -0.06766959 0.018098246 0.013302052 0.07726273 -0.016660323
0.066540524 0.06449354 0.0020865365 -0.09158206 -0.008057228 0.030581089 0.008885802 0.082023
00000000: 6c5b 1dbd 8c17 a13d e71f d93d 42af 80bd
00000010: b20b c93c c455 9c3d 73e0 84bd 7253 0abb
00000020: d861 63bd 3636 b13d 45e7 0cbd 0615 993d
00000030: ba98 d13d 85e2 193d e118 7dbd b1f5 35bd
00000040: 0913 483d d6b4 883c e6a0 54bb cdde b4bc
00000050: 48fb ae3d ad22 10bd d1f7 b3bc c3c9 a4bd
00000060: d23a 8cbd 2de5 27bd 6e0f 8cbd 64ac 2c3d
00000070: bfc5 093d e3e6 40bb faa4 b9bd 2a4d 9f3d
00000080: c11f 11bd 97da 3abc 1224 05bd 8ad8 1fbd
00000090: fa0b d4bc 8ed2 69bd 8db9 a1bb 84bd a2bd
000000a0: d608 913d a6b4 393d 1108 7fbd a2ee 033d
000000b0: 689e 62bc d175 9cbd 7c8e 7e3d 64b2 99bd
000000c0: c31a 43bd a218 31bd 8726 5e3d f79b 1dbc
000000d0: 5780 d33c 82db a33c 8405 433d 4be1 b03c
000000e0: a919 3abd 8f4c b83b 9167 4fbc c4f3 0c3d
000000f0: ab6a 35bd 8f60 273c ba06 2dbd 80db 043d
00000100: f8d3 7cbd 5f62 0c3d 8db6 9fbd acb1 673c
00000110: 543d 00bc 25f2 45bd 5355 aebd a6d7 7bbd
00000120: 3a31 003b f93b fc3c 5057 be3c 442c d53c
00000130: 6b32 17bd ef39 a03d a0e3 a0bd 987c acbc
00000140: bb3c eb3d 4567 56bd 3ecb bc3d b469 58bc
00000150: 8246 a3bd ba3b cc3c f7ed f0bc bcc1 3cbd
00000160: c510 2e3c 97ee 0a3d 7e7b 903d f795 e2bc
00000170: effa 663d a880 64bd b28c 8bbc 1cb0 b1bc
00000180: daa0 afbc 9c63 d3bc e980 28bc bd04 b039
00000190: 49cb 30bd a187 833d 6202 813d 8173 9c3a
000001a0: 9259 753d a47d b8bd 65ee c0bc b514 d9bc
000001b0: 13d6 eabb 587d 973c 8725 643d 601f 093c
000001c0: b79f aebd 0886 6f3d e6fd 89bd 05eb 123d
000001d0: d27e b3bc 5126 7bbd 1f9d 4cbd 60db b3bd
000001e0: 58ba a23d 0293 c2bc fbad 43bc ce49 5f3d
000001f0: 6b75 3b3d cad3 fcbc e7ca 10bd 7f43 28bd
00000200: 8437 623d d61e 9dbd b880 443d ed29 47bd
00000210: 70b3 a4bd e20b 05bd 0730 8a3d 81aa 253c
00000220: 4b16 9bbd 9b45 6dbd d8da 903d 8435 2fbd
00000230: b839 8cbc 48be 31bc 757b bbbd a47a 793d
00000240: e2ba 9ebc ffd4 4bbc 1f65 073d 835a a93c
00000250: c322 56bd 78c9 13bc cf87 423c 1c8a 97bd
00000260: 2cf3 003d 4337 a63d b392 90bd 3d4a a4bd
00000270: 5561 8d3c 37da 263d b658 5dbd a09c 96bc
00000280: b1d0 cd3c cc08 233c 3b9a 0c3d 6d84 6d3c
00000290: 4317 3a3c 1a6f 7fbd c549 f1bc 2998 b1bc
000002a0: c118 223b df55 bd3d 3fd9 ca3c 38a7 8bbc
000002b0: 71ab 36bd 8e63 083d bfd5 443d 13fb 20bc
000002c0: 11ea 9bbd 133f 273d e4a0 6ebd 752a 6cbd
000002d0: a223 2c3d 6232 a43d cdf6 55bd d9b7 aebc
000002e0: 9f10 773d 9a0c 14bd 6daf 103d f2e2 03bd
000002f0: bb87 8fbc 97e7 333d 2ad9 f03c eec1 af3c
00000300: c29b a83d 622c eb3c 14bc adbc 2655 9cbd
00000310: 040c a93b c0f9 f6bc 9091 b63d 84be ba3b
00000320: c297 16bd caaf ce3b d583 40bd 53a3 9dba
00000330: cdd4 b6bd f90a 72bb cc61 263d be25 9e3d
00000340: ce0b b0bd bbc2 1bbd 0d24 a1bd a7c2 8b3c
00000350: cfce 993d e0ee 74bc aa6f 853d f720 bfbd
00000360: ee7d 8abd ff2b 5c3d 4b48 a63d 31c0 83bd
00000370: bdd4 103d 0957 17bd 0d4d 0f3c 0ff4 1ebd
00000380: 69e9 9fbd 393a 61bd dc6e d8bb 4f38 fcbc
00000390: d76d fa3c 9a38 41bd 20e8 063d 82f9 ad3b
000003a0: eb8a 43bd 5750 08bd 4ac8 b6bd 1ac6 18bd
000003b0: d2bd a0bd e9bd 813c 16e6 12bd 9e27 b13c
000003c0: 9b8d 43bd d6be e23c e07a f43c 5b96 8abd
000003d0: c642 943c daf0 593c ec3b 9e3d 3b7b 88bc
000003e0: 6646 883d 3015 843d 46be 083b 608f bbbd
000003f0: 7702 04bc 3185 fa3c c195 113c adfb a73d

net.4.weight f4 [256, 256]
0.044590693 -0.021060288 0.025719926 -0.04502496 -0.007551661 0.016040418 0.045854464 -0.04536855
0.016106844 0.040885847 -0.07083159 0.0025932598 -0.013725263 -0.03530469 -0.0023716814 0.046557117
-0.007881266 -0.016654918 -0.06864904 -0.053329915 -0.032778997 -0.06415921 0.04386378 0.0046272893
0.047221616 0.055006914 -0.049351737 -0.031518918 0.01542795 -0.051301252 0.045232523 -0.017047608
-0.020700745 -0.016861795 0.042974263 0.031332664 -0.02731161 -0.045130115 -0.053118892 -0.048694327
-0.050141063 0.020698225 -0.056963447 0.0118405875 0.028518887 -0.025913564 -0.009029156 -0.064727195
0.033881724 0.028937953 0.012632284 -0.04961591 -0.06258074 0.0028484773 -0.0040053567 -0.02092782
-0.0027169746 0.039482616 0.047351513 0.050961956 0.008672497 -0.0048887944 0.033878777 0.02588742
-0.024603548 -0.015786057 0.021355955 -0.064967796 0.015668904 0.028446939 -0.050518878 0.017432168
-0.00935486 -0.028112618 -0.07150222 -0.02795704 0.0010456949 0.011047702 -0.016009683 0.016687319
-0.020431828 -0.036192484 -0.008116025 0.051416054 0.010979816 -0.05096127 0.041458786 -0.041555606
0.044490315 -0.05816527 -0.02044259 -0.025563924 -0.057279687 -0.017200831 -0.06504557 0.04706126
-0.04020148 0.019559823 -0.04695872 -0.066148154 0.037632037 0.034816507 0.025340265 0.011534929
-0.05843671 -0.04366511 -0.0018839099 0.05403978 0.023502301 -0.026354643 0.037925467 -0.050529446
0.04209123 -0.0050617247 0.035704866 0.03156987 0.007085167 0.027675992 0.026373826 -0.04196669
0.0050939396 -0.00939462 0.045498084 0.03607723 -0.052219763 0.01973764 -0.013012114 0.03472832
-0.0036609503 0.039648883 -0.06485608 -0.06274511 -0.043926656 -0.02307938 -0.040379703 -0.07184129
-0.06516648 -0.04034143 -0.016034951 -0.03068809 -0.0062042107 -0.051936176 -0.036196694 0.038029324
0.048139554 0.028316895 -0.00016746727 -0.06657846 0.016355896 -0.05701406 0.037342 0.0016549204
-0.06794936 0.050239287 -0.050478842 -0.03840303 -0.028833536 0.03744429 -0.014734168 -0.033344787
-0.066725016 0.039934073 -0.040894672 0.030216362 -0.002622082 0.031545743 -0.024972256 -0.04548732
0.0028016903 0.02871096 -0.03574995 0.020892456 -0.054148674 0.014157101 -0.059700713 -0.05659139
-0.045437478 -0.03073379 0.026504193 0.014378865 0.03806354 -0.0669656 0.039661568 0.04456571
-0.007851766 0.044002626 -0.056808226 -0.010190083 -0.054856956 -0.0009319302 -0.053398512 -0.010782523
-0.043856937 -0.041501023 -0.02807862 -0.0031702318 -0.017164739 0.03291487 -0.0384284 -0.028012916
0.022945661 -0.06177125 -0.05463693 -0.06457567 -0.019018672 -0.06865453 -0.06279704 -0.007256014
0.0037012682 0.03671271 -0.019095499 0.04958021 0.009156338 0.011565347 0.015893163 -0.051952038
-0.028620575 -0.004590791 -0.059060674 0.009195837 -0.013599256 -0.059365764 0.052410647 0.039684225
0.027641634 -0.07144472 -0.005354864 -0.012437261 0.017432034 0.02243093 -0.013154603 -0.028092787
0.007103361 0.035017505 -0.02316504 0.0030410336 -0.035576355 0.018063273 -0.038203258 -0.0073420075
0.03637624 -0.06906186 -0.00930749 0.024631113 0.02247388 -0.026925894 -0.0627169 -0.068990625
-0.066507824 0.010699935 -0.045938417 -0.0023347961 -0.03482225 -0.070620716 -0.002467817 0.0005876457
00000000: bba4 363d a086 acbc 98b2 d23c 186c 38bd
00000010: ed73 f7bb 3267 833c e4d1 3b3d 5fd4 39bd
00000020: 80f2 833c eb77 273d 2710 91bd aef3 293b
00000030: eddf 60bc a79b 10bd 366e 1bbb adb2 3e3d
00000040: 6d20 01bc e56f 88bc de97 8cbd 7870 5abd
00000050: 4543 06bd e765 83bd 82aa 333d 84a0 973b
00000060: 746b 413d ee4e 613d 0c25 4abd fb19 01bd
00000070: 83c5 7c3c 4321 52bd bd45 393d 6da7 8bbc
00000080: 9c94 a9bc bf21 8abc c805 303d ae56 003d
00000090: 99bc dfbc 5bda 38bd 3293 59bd b473 47bd
000000a0: b760 4dbd 538f a93c 8152 69bd 06ff 413c
000000b0: 71a0 e93c af48 d4bc 06ef 13bc b18f 84bd
000000c0: 90c7 0a3d 490f ed3c a4f7 4e3c 0d3a 4bbd
000000d0: 552a 80bd 85ad 3a3b 5e3f 83bb d270 abbc
000000e0: 450f 32bb 86b8 213d a9f3 413d 7cbd 503d
000000f0: 1717 0e3c 2e32 a0bb 79c4 0a3d db11 d43c
00000100: 618d c9bc c351 81bc aff2 ae3c d60d 85bd
00000110: 135c 803c 8e09 e93c e2ec 4ebd e8cd 8e3c
00000120: 2045 19bc 6f4c e6bc c26f 92bd 2a06 e5bc
00000130: b30f 893a 6c01 353c bd26 83bc d8b3 883c
00000140: a660 a7bc 923e 14bd 13f9 04bc a499 523d
00000150: b0e4 333c c4bc 50bd b0d0 293d 3636 2abd
00000160: 7a3b 363d b53e 6ebd 3877 a7bc 6f6b d1bc
00000170: 1b9e 6abd c2e8 8cbc 9d36 85bd 4fc3 403d
00000180: 4faa 24bd ec3b a03c c957 40bd af78 87bd
00000190: 0d24 1a3d c19b 0e3d 6396 cf3c 00fd 3c3c
000001a0: 555b 6fbd 30da 32bd 87ed f6ba d158 5d3d
000001b0: e687 c03c b1e5 d7bc bc57 1b3d f7f7 4ebd
000001c0: db67 2c3d d3dc a5bb 443f 123d 684f 013d
000001d0: b02a e83b c3b8 e23c ec0d d83c 44e5 2bbd
000001e0: 10eb a63b e4eb 19bc 335c 3a3d b8c5 133d
000001f0: 64e4 55bd d5b0 a13c c330 55bc 483f 0e3d
00000200: 8eec 6fbb de66 223d 44d3 84bd 8280 80bd
00000210: 70ec 33bd f810 bdbc 3065 25bd 8721 93bd
00000220: 0176 85bd 0e3d 25bd bb5b 83bc 9765 fbbc
00000230: b14c cbbb 07bb 54bd fc42 14bd a3c4 1b3d
00000240: fb2d 453d d5f8 e73c 279a 2fb9 4a5a 88bd
00000250: cdfc 853c 9387 69bd edf3 183d eae9 d83a
00000260: 0929 8bbd b6c7 4d3d e7c2 4ebd 7f4c 1dbd
00000270: 4f34 ecbc 2f5f 193d 9467 71bc 8b94 08bd
00000280: 20a7 88bd e991 233d 2c81 27bd 4e88 f73c
00000290: 3cd7 2bbb 1c36 013d 9e92 ccbc e950 3abd
000002a0: 909c 373b 3f33 eb3c 8a6e 12bd a826 ab3c
000002b0: 00cb 5dbd 2ff3 673c bc88 74bd 60cc 67bd
000002c0: a61c 3abd 6ec5 fbbc 521f d93c 5595 6b3c
000002d0: 84e8 1b3d 4325 89bd 2b74 223d 898a 363d
000002e0: b2a4 00bc 193c 343d beaf 68bd 4ef4 26bc
000002f0: b0b1 60bd c74c 74ba 66b8 5abd 2ea9 30bc
00000300: 55a3 33bd fafc 29bd 2205 e6bc aac3 4fbb
00000310: 119d 8cbc bed1 063d 1967 1dbd 587b e5bc
00000320: 8af8 bb3c da03 7dbd f9ca 5fbd 4040 84bd
00000330: 0ccd 9bbc bf9a 8cbd bc9b 80bd dbc3 edbb
00000340: fa90 723b 1160 163d 2a6e 9cbc 9e14 4b3d
00000350: 7704 163c 957c 3d3c 6132 823c a9cb 54bd
00000360: b275 eabc 596e 96bb 9be9 71bd 23aa 163c
00000370: 6acf 5ebc 8429 73bd 8cac 563d ed8b 223d
00000380: b570 e23c 9c51 92bd db77 afbb a7c5 4bbc
00000390: a0cd 8e3c 12c1 b73c 6786 57bc d822 e6bc
000003a0: 50c3 e83b 846e 0f3d 9cc4 bdbc 144c 473b
000003b0: 83b8 11bd 6ef9 933c 057b 1cbd 3995 f0bb
000003c0: 41ff 143d 4e70 8dbd 717e 18bc 30c7 c93c
000003d0: 241b b83c b193 dcbc b871 80bd f54a 8dbd
000003e0: 4135 88bd c84e 2f3c ec29 3cbd 6103 19bb
000003f0: c7a1 0ebd 98a1 90bd 19bb 21bb 3c0c 1a3a

net.4.bias f4 [256]
0.0004552383 -0.03409069 0.023131922 -0.019147646 -0.014556469 -0.054811113 -0.061959352 -0.010215577
-0.049669493 -0.04213341 -0.0045810496 -0.04366361 -0.008694405 0.049404036 -0.025790505 0.01875647
-0.046781853 -0.017821126 0.00639877 -0.06164968 -0.06523342 -0.057433974 0.025071694 -0.022680286
-0.046817906 0.044310953 -0.064771585 0.015499961 -0.022345347 -0.0022835215 0.051907927 0.023167115
0.004230788 -0.05642996 -0.044708226 -0.04060815 0.00925021 -0.069086485 0.014547431 -0.037598096
-0.020529173 0.029935353 0.004349006 -0.028661776 0.04899513 0.05094229 -0.04612776 -0.047781233
0.016281737 -0.0007632456 -0.063018076 0.0013763419 -0.01902124 0.044682756 0.00083907775 -0.043571055
-0.06036909 0.03654712 0.03721432 -0.022580508 -0.046728153 -0.015415021 -0.005809502 0.05177215
0.036794685 0.02649838 0.052304506 -0.060050257 -0.034360677 0.03888608 -0.049982365 -0.010077566
-0.005472311 -0.011650507 -0.029713586 -0.049864076 0.049139876 -0.023510968 0.057345785 -0.0113743665
-0.063584864 0.029892445 -0.053236395 -0.067393646 0.037351128 0.021694878 -0.004431153 -0.05518389
0.018741852 -0.031706125 0.046806138 0.055316743 -0.0079005575 -0.064455 -0.048896134 0.05327487
-0.041773535 0.012821417 0.0072427406 0.02345503 -0.008230243 0.019991454 0.0055592167 -0.072785586
0.045177847 -0.06220957 -0.052095648 0.013035118 0.037630394 0.02723493 -0.016887063 0.031661652
-0.025846872 0.00862627 0.016643707 -0.06471105 0.0389886 0.024411349 -0.021598788 -0.01574174
0.050171267 -0.056168508 -0.020151693 -0.034124825 0.008016615 -0.013943588 0.03587559 0.002946887
-0.02175085 0.031207757 -0.00810809 0.020427182 -0.0035070563 -0.016218742 0.016376808 -0.029963022
-0.007193619 0.0059204726 -0.057615444 0.0070123733 0.035956416 -0.0075823553 0.04240201 -0.058286402
0.04762759 -0.06784883 0.051272493 -0.06746242 0.039826978 0.038504086 -0.0040668077 0.008473053
-0.043955214 -0.04275512 -0.012040296 0.008533128 -0.03209078 0.015232194 0.044184197 -0.03427669
0.041635104 -0.0006488025 0.043108907 -0.06317783 -0.0027535593 -0.028100032 0.026106188 -0.049210176
0.05121481 -0.008479853 -0.06664604 -0.04614161 -0.047436558 0.045285434 -0.029046046 0.00054534373
-0.014662681 -0.042775765 -0.038887847 0.037695564 -0.03667218 0.043423984 -0.039274175 -0.03801671
0.042704605 -0.018087912 -0.010708422 0.01969548 -0.037161864 -0.027853813 0.021928655 -0.049102314
-0.019906249 -0.011239523 -0.014360205 -0.02651185 -0.06871351 0.010717985 0.039530665 -0.0041840016
0.021691503 -0.03709989 -0.05103231 -0.057661176 0.036330227 0.053434245 0.012494553 -0.06425488
-0.020096706 -0.049353536 0.021423578 -0.0147784 0.008364014 -0.03956442 -0.031801764 0.050843988
-0.054160733 -0.048329465 -0.040422827 -0.050108653 -0.018148346 -0.053974986 -0.042256176 -0.061723314
-0.063244104 -0.037159275 -0.036017153 0.05215104 0.051456258 -0.038974036 0.03629789 0.012923828
-0.048374332 0.004046536 -0.044253755 -0.033758845 0.0132216085 -0.0035633969 -0.04627322 0.0009591194
-0.013197563 -0.025694653 -0.034712717 0.05401827 -0.03268667 0.04665643 0.03416947 -0.010501973
0.028245842 0.04540375 -0.0059078373 0.052342687 0.027363855 0.042752557 0.011531158 -0.027348733
00000000: 0dad ee39 aea2 0bbd 287f bd3c 86db 9cbc
00000010: 427e 6ebc 9e81 60bd 17c9 7dbd 3c5f 27bc
00000020: 3d72 4bbd 1594 2cbd a11c 96bb 9dd8 32bd
00000030: fa72 0ebc e35b 4a3d 9c46 d3bc 2ba7 993c
00000040: 549e 3fbd 9cfd 91bc c6ac d13b 6084 7cbd
00000050: 1999 85bd e33f 6bbd 2763 cd3c 02cc b9bc
00000060: 22c4 3fbd 677f 353d f7a6 84bd 8cf3 7d3c
00000070: 970d b7bc 22a7 15bb 689d 543d f6c8 bd3c
00000080: 6ca2 8a3b 1a23 67bd f91f 37bd bb54 26bd
00000090: 318e 173c 377d 8dbd 5958 6e3c 7600 1abd
000000a0: cc2c a8bc fc3a f53c 1b82 8e3b 1acc eabc
000000b0: 1eaf 483d dda8 503d 76f0 3cbd 41b6 43bd
000000c0: 4761 853c 8c14 48ba 9f0f 81bd 5f66 b43a
000000d0: 6ed2 9bbc 4405 373d 8ef5 5b3a 9077 32bd
000000e0: 9445 77bd 6fb2 153d 0b6e 183d c2fa b8bc
000000f0: 0566 3fbd 498f 7cbc a35d bebb 090f 543d
00000100: 06b6 163d 2113 d93c 403d 563d 42f7 75bd
00000110: c8bd 0cbd 0347 1f3d 4fba 4cbd 601c 25bc
00000120: 1251 b3bb c5e1 3ebc e869 f3bc 463e 4cbd
00000130: e546 493d 139a c0bc 6ae3 6a3d 8d5b 3abc
00000140: c838 82bd 00e1 f43c 680e 5abd ae05 8abd
00000150: 7ffd 183d 75b9 b13c 3533 91bb 8108 62bd
00000160: 8388 993c 48de 01bd cbb7 3f3d cf93 623d
00000170: 5771 01bc fc00 84bd 5047 48bd c036 5a3d
00000180: ba1a 2bbd ec10 523c 8354 ed3b c324 c03c
00000190: 24d8 06bc 1ec5 a33c 172a b63b 9c10 95bd
000001a0: 680c 393d 76cf 7ebd 3f62 55bd 3f91 553c
000001b0: 5422 1a3d ca1b df3c bd56 8abc a6af 013d
000001c0: d2bc d3bc 3355 0d3c 6258 883c 3a87 84bd
000001d0: 83b2 1f3d 4ffa c73c f1ef b0bc d2f4 80bc
000001e0: 6380 4d3d f310 66bd 2a15 a5bc 79c6 0bbd
000001f0: 1f58 033c a673 64bc 48f2 123d 8f20 413b
00000200: d72e b2bc 69a7 ff3c cbd7 04bc e856 a73c
00000210: a4d6 65bb 2bdd 84bc a828 863c 0375 f5bc
00000220: 73b8 ebbb 8600 c23b 2cfe 6bbd 0dc8 e53b
00000230: 0947 133d 6875 f8bb bbad 2d3d b9bd 6ebd
00000240: 2615 433d 54f4 8abd 1b03 523d bd29 8abd
00000250: 9d21 233d 76b6 1d3d db42 85bb 8fd2 0a3c
00000260: 620a 34bd fe1f 2fbd a944 45bc 88ce 0b3c
00000270: 9f71 03bd 7490 793c 7dfa 343d b765 0cbd
00000280: 9289 2a3d 6614 2aba f792 303d 6163 81bd
00000290: 0f75 34bb 0a32 e6bc a5dc d53c 9c90 49bd
000002a0: 9fc6 513d 15ef 0abc b87d 88bd fcfe 3cbd
000002b0: d64c 42bd 387d 393d f9f1 edbc 66f5 0e3a
000002c0: be3b 70bc a435 2fbd dd48 1fbd aa66 1a3d
000002d0: 9135 16bd 59dd 313d f5dd 20bd 69b7 1bbd
000002e0: 06eb 2e3d 1a2d 94bc 6172 2fbc 6a58 a13c
000002f0: 0a37 18bd ae2d e4bc b9a3 b33c 821f 49bd
00000300: 6e12 a3bc fa25 38bc 1147 6bbc 612f d9bc
00000310: abb9 8cbd 7d9a 2f3c e8ea 213d f319 89bb
00000320: 61b2 b13c 0ef6 17bd 4107 51bd 202e 6cbd
00000330: 01cf 143d dedd 5a3d f4b5 4c3c 1098 83bd
00000340: d9a1 a4bc ef26 4abd 8080 af3c 1a21 72bc
00000350: 3809 093c 4d0e 22bd 9142 02bd c941 503d
00000360: a5d7 5dbd 1ef5 45bd 6892 25bd bb3e 4dbd
00000370: d7ab 94bc e014 5dbd d014 2dbd 96d1 7cbd
00000380: 2086 81bd 5334 18bd b986 13bd 549c 553d
00000390: ccc3 523d 3da3 1fbd 19ad 143d 77be 533c
000003a0: 2a24 46bd ce98 843b 6d43 35bd b746 0abd
000003b0: 729f 583c e187 69bb fd88 3dbd 6a6d 7b3a
000003c0: 973a 58bc 987d d2bc ec2e 0ebd 4342 5d3d
000003d0: 75e2 05bd d01a 3f3d 49f5 0b3d 7810 2cbc
000003e0: d363 e73c 48f9 393d 8896 c1bb 4965 563d
000003f0: 2a2a e03c 4e1d 2f3d 2fed 3c3c 730a e0bc

net.6.weight f4 [256, 256]
-0.026426127 -0.05662544 -0.05637149 0.013485158 -0.0074862293 -0.0017404452 0.0028878225 0.023491483
-0.03673494 -0.059224498 0.011787562 -0.043605193 -0.06716491 0.032865435 -0.03686704 0.030499373
0.04472507 -0.01747155 -0.021185651 0.039870378 0.029125046 0.037707202 0.010565022 -0.0604964
-0.0009858703 0.030953368 0.0041737175 0.026551181 -0.05539269 -0.043980733 -0.02503703 -0.033854652
-0.047201686 0.027647486 0.04327886 0.013157158 -0.013654801 -0.010868812 0.022534018 -0.06540369
0.0447997 -0.053908024 -0.055708252 0.021695165 -0.026727306 -0.056708477 0.053848803 -0.017601544
0.033775073 -0.027473144 -0.0023035598 -0.0044627995 0.031914372 0.034534965 -0.04686672 -0.02295849
-0.04786376 0.006712777 -0.0499033 -0.026986234 -0.015756603 -0.05625332 0.03733247 0.015638776
0.02029708 0.045412917 0.060602706 -0.03924355 0.0204747 -0.017808188 0.003782604 0.041696947
0.0575181 -0.010003574 0.02206867 -0.027184505 0.042361155 0.016386177 -0.008032265 -0.04471952
0.030118655 -0.03233323 0.049412094 -0.00961291 -0.050507426 0.02624469 0.010749031 -0.06074429
-0.053245656 0.025328774 0.05676071 -0.004123321 0.048598282 0.040160067 0.04936842 0.031229962
-0.062234048 -0.022259396 0.027049297 0.0205963 0.0510575 -0.051803302 -0.042291295 0.038077634
-0.011478213 0.031474117 0.03492125 0.04311755 0.018891126 0.02791706 -0.036355495 0.056922067
-0.047380835 -0.041383203 0.043662693 -0.005534018 0.030789508 -0.002073768 -0.02817036 0.0025177088
-0.00051243015 -0.059415743 0.03638174 -0.011882256 0.052408148 -0.030136332 -0.051127765 -0.05622845
-0.048261274 -0.02099859 0.0341219 -0.052201167 0.0027705065 -0.008349727 0.042211182 0.0056729345
-0.03005435 -0.01795516 0.019163188 -0.03803971 -0.030600045 0.04433926 0.022526277 0.03690412
-0.043975424 -0.055810392 0.052226774 -0.023055887 -0.03812007 -0.043912657 -0.05546155 -0.03973558
-0.0023895674 -0.04559723 -0.014626178 -0.03971233 0.04636409 -0.06421771 -0.06277299 -0.02927104
-0.034021053 0.017342683 0.025074096 0.019680936 -0.028919375 0.02499264 -0.0027789297 -0.035096683
-0.05186377 -0.054026976 -0.030448146 0.033492967 -0.047401737 0.00092050026 0.05063926 -0.033785474
0.01737446 0.041604303 0.026677536 -0.0074225347 -0.026925778 -0.032106195 -0.013829457 -0.055496816
0.046660114 0.05223117 -0.038443256 0.026038162 -0.065796494 -0.023132028 0.000915012 -0.036322776
-0.040872283 -0.016858093 0.049305547 -0.023438131 -0.013244533 0.04484381 0.042555306 0.0011540796
-0.044956412 0.051983487 0.049749926 0.019667692 -0.030012837 -0.039971985 -0.05118725 -0.053346626
-0.00049821107 0.040192664 0.0016736869 -0.0409938 0.05534385 0.018360447 -0.0599582 -0.04919121
0.026594272 0.026496863 -0.02747353 -0.035911787 0.024548745 -0.041361768 -0.049255747 -0.051915813
-0.0034409063 -0.0071957405 -0.045832418 -0.0073303855 -0.011874001 0.02548636 0.0069903303 0.05339308
0.022862738 0.03511018 -0.032197226 -0.005691585 0.015604358 -0.03633787 -0.05151291 -0.03811399
-0.04577547 -0.004325579 0.010912844 0.010451792 -0.05279151 0.049033657 0.021555522 -0.01894776
0.055686507 0.020547586 0.004528509 0.025448304 -0.04785392 0.022012541 0.03914737 -0.0036633692
00000000: 9b7b d8bc 14f0 67bd cbe5 66bd daf0 5c3c
00000010: 0b4f f5bb a61f e4ba 9f41 3d3b 3671 c03c
00000020: 6077 16bd 6395 72bd 9e20 413c 5c9b 32bd
00000030: c28d 89bd e89d 063d e501 17bd d2d9 f93c
00000040: a331 373d 7f20 8fbc 888d adbc 1f4f 233d
00000050: a697 ee3c de72 1a3d ea18 2d3c 13cb 77bd
00000060: 5138 81ba eb91 fd3c aec3 883b dd81 d93c
00000070: 72e3 62bd 2425 34bd 751a cdbc 2dab 0abd
00000080: 8e56 41bd fb7c e23c 2d45 313d 1f91 573c
00000090: 63b8 5fbc 1a13 32bc 4399 b83c 5ff2 85bd
000000a0: e47f 373d a9ce 5cbd 562e 64bd 0fba b13c
000000b0: 39f3 dabc 2647 68bd 9090 5c3d 1d31 90bc
000000c0: bb57 0a3d 5c0f e1bc 52f7 16bb ad3c 92bb
000000d0: a5b8 023d 8974 0d3d 51f7 3fbd 7113 bcbc
000000e0: ca0c 44bd dbf6 db3b 6767 4cbd 3c12 ddbc
000000f0: fe13 81bc e269 66bd efe9 183d e41c 803c
00000100: 1046 a63c e502 3a3d 8b3a 783d d8bd 20bd
00000110: 8fba a73c 7ae2 91bc 90e5 773b 6bca 2a3d
00000120: 1998 6b3d 08e6 23bc 5bc9 b43c 0ab2 debc
00000130: e482 2d3d 4e3c 863c c399 03bc d12b 37bd
00000140: 66bb f63c d96f 04bd 5664 4a3d 787f 1dbc
00000150: e0e0 4ebd 1bff d63c b41c 303c 01cf 78bd
00000160: 1e18 5abd 4a7e cf3c eb7d 683d ec1c 87bb
00000170: fe0e 473d e27e 243d 8a36 4a3d fad5 ff3c
00000180: 21e9 7ebd 5659 b6bc 7d96 dd3c 92b9 a83c
00000190: ab21 513d b32f 54bd a339 2dbd 4bf7 1b3d
000001a0: 1d0f 3cbc 01eb 003d 9609 0f3d 079c 303d
000001b0: 90c1 9a3c 51b2 e43c 80e9 14bd 1d27 693d
000001c0: 6812 42bd 6f81 29bd a7d7 323d b556 b5bb
000001d0: 473a fc3c 0ee8 07bb 87c5 e6bc 2500 253b
000001e0: 9b54 06ba ec5d 73bd 0505 153d cbad 42bc
000001f0: eda9 563d 78e0 f6bc 596b 51bd ce4f 66bd
00000200: 9dad 45bd 3c05 acbc 68c3 0b3d e4d0 55bd
00000210: 6391 353b 4bcd 08bc a2e5 2c3d 06e4 b93b
00000220: 8a34 f6bc b316 93bc 1efc 9c3c 87cf 1bbd
00000230: f2ac fabc 159d 353d 0789 b83c c628 173d
00000240: 931f 34bd 7099 64bd beeb 553d b3df bcbc
00000250: ca23 1cbd c2dd 33bd a62b 63bd c7c1 22bd
00000260: 4a9a 1cbb 29c4 3abd a3a2 6fbc 65a9 22bd
00000270: 46e8 3d3d 9384 83bd 208f 80bd d2c9 efbc
00000280: a959 0bbd 3e12 8e3c 3168 cd3c ea39 a13c
00000290: 53e8 ecbc 5dbd cc3c b41e 36bb 8ac1 0fbd
000002a0: 1b6f 54bd 644b 5dbd 646e f9bc ec2f 093d
000002b0: 5328 42bd ba4d 713a 1d6b 4f3d a362 0abd
000002c0: e254 8e3c 4669 2a3d d98a da3c bc38 f3bb
000002d0: 7393 dcbc c981 03bd f294 62bc a150 63bd
000002e0: ad1e 3f3d 5af0 553d ad76 1dbd fc4d d53c
000002f0: 50c0 86bd 617f bdbc 6add 6f3a 31c7 14bd
00000300: b269 27bd fc19 8abc 9df4 493d 5301 c0bc
00000310: 99ff 58bc 25ae 373d 794e 2e3d 7c44 973a
00000320: 3724 38bd a3ec 543d 94c6 4b3d 241e a13c
00000330: 7bdd f5bc aab9 23bd b9a9 51bd fe81 5abd
00000340: 619a 02ba 10a1 243d 9d5f db3a 1de9 27bd
00000350: 3cb0 623d a668 963c bb96 75bd b97c 49bd
00000360: 3bdc d93c f30f d93c 2b10 e1bc 3d18 13bd
00000370: 731a c93c f56a 29bd 65c0 49bd ada5 54bd
00000380: d480 61bb 3fca ebbb c6ba 3bbd bb33 f0bb
00000390: 2b8b 42bc c5c8 d03c 240f e53b b4b2 5a3d
000003a0: a34a bb3c b1cf 0f3d 3de1 03bd 7a80 babb
000003b0: 6ca9 7f3c 05d7 14bd 33ff 52bd 6a1d 1cbd
000003c0: 0f7f 3bbd 96bd 8dbb c9cb 323c fe3d 2b3c
000003d0: e93b 58bd 84d7 483d 3595 b03c 5538 9bbc
000003e0: 8917 643d 6953 a83c e363 943b f678 d03c
000003f0: 7902 44bd a553 b43c fe58 203d 2315 70bb

net.6.bias f4 [256]
-0.024796883 0.029047145 0.016440835 -0.012995358 -0.034293156 -0.06636551 -0.0077535585 -0.015193976
-0.009990871 0.00019992041 -0.0134417005 -0.021085056 0.05026529 -0.06936109 -0.043357212 -0.044971492
0.0192129 -0.073012985 -0.058319796 -0.059315503 -0.041588128 -0.024436038 0.05512269 0.04911542
0.005932141 -0.064652994 0.03173992 0.006130599 -0.031672552 0.019171892 -0.06403778 0.0146964155
-0.017932856 -0.015231854 0.055434063 -0.055053227 -0.0022923027 -0.018532664 -0.041814104 0.0331533
-0.02284811 -0.070148036 -0.047029257 -0.024461344 0.032406986 0.007995009 0.02999077 0.021979498
-0.0019611763 -0.04368253 -0.0012655159 -0.07922427 -0.03489932 -0.06975827 -0.01980715 -0.055508062
-0.080492504 0.026670482 0.03892478 -0.020273903 -0.054699164 0.0156043675 -0.002890085 0.012286605
-0.03625371 -0.06788634 -0.01880088 -0.07886833 -0.016738154 0.04000524 0.025453603 -0.06999316
-0.043065242 -0.048286784 -0.015494139 -0.012172852 0.033216015 -0.069802016 0.0340414 -0.015839813
-0.03655622 -0.04848189 0.009038577 -0.027225032 -0.011691837 0.024740791 -0.032139942 -0.068411894
0.011856664 -0.03598997 0.044240694 -0.006956203 -0.082248025 0.00220923 0.043297343 -0.027672134
-0.06774312 -0.029353378 -0.040802136 -0.005457666 -0.032065388 -0.021543497 -0.04129498 0.0040405574
-0.04487056 -0.046031673 -0.04833699 0.045568157 -0.011858866 0.022004956 -0.043061737 0.008190693
0.009359057 0.023220763 0.04101128 -0.041320506 0.040471725 0.02548918 -0.04583766 0.008311335
0.016484182 0.00021802823 -0.049575742 -0.0016062878 -0.026271475 -0.026788767 -0.053698424 -0.007437544
0.019313851 -0.0051797326 -0.046409473 -0.023925819 -0.0335063 0.026148366 0.010441159 0.011343624
-0.0079297265 0.025344873 -0.07682796 0.011580756 -0.07846362 -0.064300865 -0.015567134 0.0032039925
-0.0565694 0.03242326 -0.0018580145 -0.014722184 0.048122842 -0.056489598 0.011567651 0.010498893
-0.07151328 -0.016293997 0.041617416 -0.042694032 0.016722858 -0.072756074 0.051930677 -0.051449884
-0.023254197 -0.07644231 0.0023875746 -0.02825289 -0.026073227 -0.057809245 -0.08818953 -0.11385116
-0.008963173 -0.027902251 -0.02438692 -0.013717188 0.0037805 0.058034837 -0.077926695 -0.051525258
0.010504616 0.052679297 -0.06238058 0.03432951 0.01636303 -0.0056565315 -0.04473269 -0.077865385
-0.0055744834 -0.025743738 -0.04614062 -0.061648265 0.02281369 -0.0089109 0.04538119 -0.07300327
-0.050340936 -0.0035259754 -0.042446163 -0.08310183 -0.05269934 -0.017380824 0.015712425 -0.012847156
-0.037450485 0.002039545 -0.060402956 -0.030282114 -0.0007383312 -0.05643449 0.014441949 -0.008754132
-0.0025178355 0.006851854 -0.03617285 0.024872664 -0.034689352 0.032589763 -0.059972953 -0.014158215
-0.06293345 0.032495152 -0.021490855 0.012940333 -0.035358127 -0.046066083 -0.08227251 0.033992324
-0.012545414 0.036192436 -0.021327874 -0.07766387 0.03697159 -0.03395715 -0.006573868 -0.021426741
-0.08401386 -0.049306918 -0.016956067 0.0523151 -0.037165068 0.030253377 -0.11262333 0.014679274
-0.017574597 0.049459763 0.024175622 -0.0506263 -0.046824303 -0.031753607 0.035225734 -0.051306996
-0.064184554 -0.018218203 -0.05744344 -0.056773257 0.007363996 -0.017440392 0.026168637 0.03359128
00000000: d522 cbbc 47f4 ed3c eeae 863c 7bea 54bc
00000010: fb76 0cbd a4ea 87bd 9011 febb 28f0 78bc
00000020: c0b0 23bc baa1 5139 943a 5cbc 91ba acbc
00000030: fae2 4d3d 300d 8ebd 5597 31bd 0734 38bd
00000040: 5f64 9d3c d587 95bd bde0 6ebd d0f4 72bd
00000050: 5058 2abd 162e c8bc 54c8 613d 402d 493d
00000060: 6862 c23b ca68 84bd b801 023d 31e3 c83b
00000070: 14bb 01bd 5f0e 9d3c 3d26 83bd 3cc9 703c
00000080: ede7 92bc 078f 79bc d40e 633d 7e7f 61bd
00000090: 753a 16bb d0d1 97bc 4445 2bbd c1cb 073d
000000a0: f62b bbbc c6a9 8fbd c0a1 40bd 2863 c8bc
000000b0: 30bd 043d 80fd 023c 34af f53c 590e b43c
000000c0: 1487 00bb 74ec 32bd abdf a5ba 5640 a2bd
000000d0: 97f2 0ebd 6ddd 8ebd 9b42 a2bc 6c5c 63bd
000000e0: 41d9 a4bd 0e7c da3c 976f 1f3d 7515 a6bc
000000f0: 3b0c 60bd 76a9 7f3c 9567 3dbb c24d 493c
00000100: c57e 14bd fe07 8bbd 4e04 9abc b885 a1bd
00000110: 741e 89bc 89dc 233d 1384 d03c 9358 8fbd
00000120: 2e65 30bd 5dc8 45bd 21db 7dbc a470 47bc
00000130: 840d 083d 5cf4 8ebd ff6e 0b3d 7fc2 81bc
00000140: fabb 15bd f294 46bd 8a16 143c 0807 dfbc
00000150: 1e8f 3fbc 33ad ca3c 2ca5 03bd 891b 8cbd
00000160: 7442 423c 386a 13bd bb35 353d dcf0 e3bb
00000170: a771 a8bd bbc8 103b 8e58 313d acb0 e2bc
00000180: e8bc 8abd 7f76 f0bc 2420 27bd 38d6 b2bb
00000190: ff56 03bd fd7b b0bc ed24 29bd a766 843b
000001a0: 31ca 37bd b58b 3cbd 02fd 45bd ada5 3a3d
000001b0: b04b 42bc bd43 b43c 8161 30bd 4232 063c
000001c0: bb56 193c 7839 be3c 72fb 273d b13f 29bd
000001d0: aec5 253d afce d03c 45c0 3bbd 442c 083c
000001e0: d609 873c 829e 6439 ef0f 4bbd 138a d2ba
000001f0: 4737 d7bc 1e74 dbbc e1f2 5bbd a4b6 f3bb
00000200: 1538 9e3c bfba a9bb dc17 3ebd 1400 c4bc
00000210: e73d 09bd 1935 d63c 6511 2b3c 9cda 393c
00000220: afeb 01bc 0da0 cf3c fa57 9dbd 36bd 3d3c
00000230: 89b1 a0bd 2cb0 83bd 4b0d 7fbc 13fa 513b
00000240: 51b5 67bd 41ce 043d 9f88 f3ba 5135 71bc
00000250: 751c 453d a361 67bd 3f86 3d3c 8d03 2c3c
00000260: 8e75 92bd fd7a 85bc 0677 2a3d f0df 2ebd
00000270: 60fe 883c 2301 95bd 43b5 543d 1dbd 52bd
00000280: 967f bebc c98d 9cbd db78 1c3b 9b72 e7bc
00000290: 8597 d5bc 63c9 6cbd b69c b4bd cc2a e9bd
000002a0: 46da 12bc 4393 e4bc 14c7 c7bc 0ebe 60bc
000002b0: 44c2 773b f0b5 6d3d 0898 9fbd 260c 53bd
000002c0: 8e1b 2c3c 3fc6 573d c782 7fbd 1a9d 0c3d
000002d0: c30b 863c 6d5a b9bb a039 37bd e377 9fbd
000002e0: 28aa b6bb 88e4 d2bc f2fd 3cbd e482 7cbd
000002f0: c7e3 ba3c 06ff 11bc a0e1 393d bd82 95bd
00000300: 4c32 4ebd 0d14 67bb 07dc 2dbd 4b31 aabd
00000310: 43db 57bd 3b62 8ebc 58b7 803c e17c 52bc
00000320: ae65 19bd e3a9 053b 1769 77bd 3212 f8bc
00000330: 918c 41ba da27 67bd ed9d 6c3c 7e6d 0fbc
00000340: 4502 25bb 8485 e03b fb29 14bd c2c1 cb3c
00000350: 6c16 0ebd d87c 053d 33a6 75bd dcf7 67bc
00000360: 41e3 80bd a319 053d 970d b0bc b103 543c
00000370: afd3 10bd caaf 3cbd 7d7e a8bd 893b 0b3d
00000380: 488b 4dbc 853e 143d cbb7 aebc 3c0e 9fbd
00000390: 866f 173d a716 0bbd 9a69 d7bb 2287 afbc
000003a0: 750f acbd 0df6 49bd 73e7 8abc 5c48 563d
000003b0: 663a 18bd eed5 f73c 0fa7 e6bd 5681 703c
000003c0: 9af8 8fbc 5296 4a3d f40b c63c 865d 4fbd
000003d0: d7ca 3fbd 1210 02bd dc48 103d 4927 52bd
000003e0: 3173 83bd 573e 95bc d049 6bbd 138b 68bd
000003f0: ad4d f13b 27df 8ebc 9c5f d63c 0397 093d
