pth of PINN/pinn_fiber_elasticity.pth (torch, 670260 bytes, 10 tensors)

net.0.weight f4 [128, 2]
00000000: b4d0 91bc 166d cd3e 448c a83e bb71 99be
00000010: 1c4a 7dbe 30d4 453e 970f 2cbf fa0c 6f3e
00000020: d518 ad3e 6957 eabe 7aee 2ebf 6b50 d8be
00000030: 9802 fb3e 143a 1b3e f604 eebe 8dae 4e3e
00000040: f89d 0bbf 863d 19bf 19f0 01be dc38 27bd
00000050: f856 233f 6ce3 0f3e 985e 0d3f 627a 7bbe
00000060: 89d6 7a3e edc8 a6be 2775 713d d149 66be
00000070: 3ee4 a9be 8a1a f93e 6c15 1abf 6e62 bebe
00000080: e0f2 3dbd 990d 26bc 6328 c23e 568a 423d
00000090: b491 123e f0c3 b13e f7dd 1f3f af29 a23d
000000a0: 2df3 433e 5d3c 323f 69fd b7be 57eb 29bf
000000b0: 2a29 c1be 01a3 a63e 3eab 18bf ce27 c33e
000000c0: b9ae 1a3f 3e21 d7be 9573 0e3f 11c8 f53e
000000d0: a025 113e 6143 30bf e32f 08be d597 033f
000000e0: f7bf 21bf d253 08bf 1470 ed3e bb0f 01bf
000000f0: b124 cfbe 402d 25bf 442e e43e 787b d6be
00000100: 54b8 583e eb93 7b3e 114b bdbe dce6 9bbe
00000110: 1330 24bf e9f4 af3d bfd4 683c 922f 2f3f
00000120: 2734 dd3e b98f 86bd eab5 633e 8d2d b0be
00000130: f0f8 683e b258 79be 4e6e d53e b6fe b23e
00000140: 83cf 0f3e 6797 11bf 96e8 bc3d 697b 56be
00000150: f028 963e 8141 e8bd fdc8 2ebf 1623 e73e
00000160: a4f5 493e 64d2 c33e e21e 1e3f cf7b 05be
00000170: 61e4 2e3e c2d1 e9be 1312 4f3e 3db1 443e
00000180: 1f16 b93e 0cad c03e d707 f63d 2bc9 a2be
00000190: e58d 0c3f 0969 d2be bc4c f4bc b005 f53d
000001a0: 92bd 733d e592 0dbf 9ed5 97be 60c4 ccbe
000001b0: 960f 1cbf f70c 29be ded6 b1be 1cb7 433e
000001c0: 8a5d 8e3e 9e47 f8bd f44c 243f 77cd d9be
000001d0: e8b9 6f3e f899 f0be 6476 2cbf a3c4 edbd
000001e0: 35ed e63e f66e fe3d 98a2 20bf a157 0d3d
000001f0: 7f63 f4be dc45 6d3e 7187 c9be 1172 2abe
00000200: 14b8 923e 235d ad3d 6ee0 4e3e 4db8 29bf
00000210: 3067 f73e e613 97be 2870 22bf d89d 2dbe
00000220: 9534 303f 3f59 a2be 890b 02bf 6d0e 07bf
00000230: c058 033f e158 f73e 8b98 31bf 3dd0 27bf
00000240: ee44 193f 9beb 32be 58e7 04bf a909 10bf
00000250: ff06 783e b9ba ccbd 9458 e7bd aa45 9b3c
00000260: d668 02be da82 1a3e cab6 223f 8b0b 1cbf
00000270: 6195 2bbf 98ef c53e dea9 9f3e 8217 6d3e
00000280: 780b 063f 5d3f 853d e351 43be 4282 86bb
00000290: 6c7d b8be 0017 2b3f b66f 6e3d 2eda ee3e
000002a0: 12af 99be d370 ac3d da37 b2bd aa72 2d3f
000002b0: d26d f93e 8ea0 40bd 5c3f 783e 4574 2d3f
000002c0: c74d 133e ca3a 2b3f e252 e8bd 550a 0e3e
000002d0: 457b d43e b97d a4be 9ec9 65bd 8dbf 313f
000002e0: 1e49 dbbd e85a d13e 5f56 d7be 124e 183e
000002f0: 0ac5 00be 6e80 53be 1bbf d43e 3ea4 273f
00000300: 77a7 babd a734 dd3e 502f f2bd 5a55 e8bc
00000310: 06f3 16bf 2d5b f83e 483f 2a3f c0ab 0fbf
00000320: 6c9e 4c3e f4f8 033f f2ae 5fbe 1391 dfbd
00000330: 0ad2 88be 01d1 c1bc c19c d6be c4ff cc3e
00000340: 8a8b 133f 69ac 033e c454 1fbf 4110 103b
00000350: d189 9dbe c7b9 903e 0fbe 2c3f 185b a33d
00000360: 71a3 143f 9f84 1bbf 3fb9 fa3c 8f45 103f
00000370: 8dc5 17bf 95ac b53e 868d 08bf 4efc 5c3e
00000380: aa5f 24bf b258 313f 83d0 e43e 4e14 bcbd
00000390: 4fec 273f 0112 343d 6974 9d3c 2d7f a2bd
000003a0: 1236 2cbf 59a1 db3e d7de 883d a521 263e
000003b0: fd4c be3d cace 243f 7a66 babe 44e0 eabc
000003c0: 71ab a73e df0a 153f bf15 31bf 4ef4 1a3f
000003d0: a3ad 2bbf d020 203e e578 60be 6962 0bbf
000003e0: 31dc 7ebe 6e7d ccbe ecef 343e 0bcc 523d
000003f0: 07ce 113f ef5f be3d a61f 05bf 6502 7d3c
-0.017799713 0.40122288 0.32919514 -0.29969582 -0.24735302 0.19319224 -0.6721129 0.23344794
0.33808008 -0.45769814 -0.68332636 -0.42248854 0.49025416 0.15158874 -0.4648816 0.20183773
-0.54537916 -0.598595 -0.12689246 -0.04082571 0.6380458 0.14051598 0.55222464 -0.24558404
0.24495901 -0.3257517 0.058949616 -0.22489096 -0.33181947 0.4865306 -0.6018894 -0.3718447
-0.0463742 -0.010135078 0.37921438 0.04749521 0.14313394 0.347198 0.62448066 0.07918107
0.19135733 0.6962336 -0.35935524 -0.66374725 -0.37726718 0.32546237 -0.59636295 0.38116306
0.60422856 -0.4201755 0.55645114 0.480042 0.14174509 -0.6885281 -0.13299517 0.5140355
-0.6318354 -0.532529 0.4637457 -0.5041463 -0.4045768 -0.6452217 0.44566548 -0.41891074
0.21164066 0.24568145 -0.36971334 -0.3044957 -0.64135855 0.08591635 0.014210879 0.6843196
0.43203852 -0.06570382 0.22237363 -0.34409752 0.22751212 -0.24350241 0.41685718 0.34959954
0.14044003 -0.56871647 0.0922405 -0.20945515 0.29328108 -0.11340619 -0.68275434 0.45143956
0.1972261 0.38246453 0.61765873 -0.1303551 0.17079307 -0.45667845 0.20221739 0.19208236
0.3614969 0.37632024 0.12013214 -0.31794104 0.54904014 -0.4109576 -0.029821746 0.119639754
0.05950696 -0.5530227 -0.29655164 -0.39993572 -0.6096128 -0.16508852 -0.34734243 0.1911282
0.2780574 -0.12123035 0.6417992 -0.4253957 0.23410761 -0.4699247 -0.6736815 -0.11609771
0.4510285 0.12423508 -0.627481 0.034507398 -0.4773216 0.2317118 -0.39361146 -0.16645075
0.28656065 0.0846503 0.202028 -0.66296846 0.48320913 -0.2950737 -0.63452387 -0.16954744
0.68830234 -0.31708714 -0.5079885 -0.52756387 0.51307297 0.48309997 -0.6937339 -0.6555212
0.59870803 -0.17472689 -0.519155 -0.5626474 0.24221419 -0.09996552 -0.11296192 0.018954117
-0.12735304 0.15088978 0.63560164 -0.60955113 -0.6702481 0.38659358 0.31184286 0.23153499
0.5236125 0.06506226 -0.19074206 -0.0041048834 -0.3603319 0.6683197 0.058212005 0.46650833
-0.3001638 0.08419957 -0.08702059 0.6775309 0.487166 -0.047028117 0.2424292 0.6775554
0.14385138 0.6688658 -0.11343934 0.13871129 0.41500297 -0.3212717 -0.05610048 0.6943291
-0.10707305 0.40889668 -0.42058083 0.14873531 -0.12575164 -0.20654461 0.41552052 0.6548499
-0.09113973 0.43204233 -0.118254304 -0.028361011 -0.58964574 0.48507062 0.6650281 -0.56121445
0.19982308 0.5155175 -0.2184408 -0.109163426 -0.26722747 -0.023659231 -0.4191647 0.40038884
0.57634795 0.12858738 -0.6223872 0.0021982344 -0.30769208 0.28266737 0.67477506 0.07976359
0.5806189 -0.6074924 0.03060591 0.5635614 -0.59285814 0.35483232 -0.5334095 0.21580622
-0.6420847 0.69275963 0.44690332 -0.0918356 0.65594953 0.043962482 0.019220548 -0.07934413
-0.67270005 0.42896536 0.06683128 0.16223772 0.09292028 0.64378035 -0.36406308 -0.028671391
0.32747987 0.5821971 -0.69173807 0.6052903 -0.67061824 0.15637517 -0.21921118 -0.54447037
-0.24888684 -0.39939445 0.17669648 0.05146412 0.56955 0.09295642 -0.52001417 0.015442465

net.0.bias f4 [128]
00000000: ccce 62be 0c30 f7be 5fa1 0f3e 0b25 adbe
00000010: 1649 d8be ee8e e53e 8af0 32bf a564 48be
00000020: b7c4 003f 9a33 16bf 7b1c cc3d 299c 2fbf
00000030: a70b 99be 003f 1b3f e0cd 753e c83b 713d
00000040: ed25 c73d 1c08 323f cfa1 0abf 7ac9 ac3e
00000050: 8ca0 293e 67ba cf3b 88c0 c53e bdfb 083f
00000060: e6f0 263f 242b 0d3f 666a 01bf 3d7a 743e
00000070: db9c dfbe c3e0 28bf aa3b 85bd 2682 b7bd
00000080: 76e3 31be 4dbe 0c3f d3ff 1f3f 1e34 30be
00000090: f7d2 1a3f bc15 f8be 758b 03bf 76ec b3be
000000a0: 47e7 983e bb40 91bd 7043 82bd f1c7 16bf
000000b0: 9a60 f83d ae08 80be 5a2f 4ebe 3185 943e
000000c0: c4bc 22bf 66b9 20be f555 e5be 10c7 81be
000000d0: 7e31 25bc 7be0 09bf 65da a5bd 8a3d 343f
000000e0: 9f59 ad3e d615 05bf b974 bebd 45dc 29bf
000000f0: d535 e23d a38e 853e c2cb 82be 1326 e73e
00000100: 243d 843e eed2 abbe 0d0d ff3e 292c 323f
00000110: dba3 bfbe a920 edbe ea62 ecbd 0b60 cbbe
00000120: d165 b43e 4ac7 c1be 9cc1 153f fdde 2ebf
00000130: c944 27bf 86b5 843e c4bc 08bf fb35 f9bd
00000140: efc3 0b3d ccc1 f2be 33c9 293f 622e dbbe
00000150: c790 dfbc 6334 193f 290e 14be 4377 a3be
00000160: 19a7 d13e 317e 6fbe 0a4e 33ba 005a 2cbf
00000170: 51d1 21bf f7c8 bd3e 7010 1c3f e3ac ef3e
00000180: fd77 243f b535 c6be a86d 303f e35f 5bbe
00000190: 8170 033f 4128 1cbf 4194 aebe 280b 01bf
000001a0: dd79 30be ab71 083e 9f10 cf3e 9024 a3be
000001b0: 8323 c33d 88ac c9be 0c2d 1f3e 6abb 143f
000001c0: c954 fcbe 0117 8a3e 3ec0 2b3e f22e c33e
000001d0: 1fb5 aa3e 27f2 2e3f 3f93 b13e 91dc f9be
000001e0: 3a41 c13e 5ff2 08bf 9d46 c53e 7a8d bfbe
000001f0: c1c6 7b3d 6ec9 e33e 7249 1bbf cc71 31bf
-0.22149199 -0.48278844 0.14026402 -0.33817324 -0.4224326 0.4483561 -0.69898283 -0.19569643
0.50300163 -0.5867249 0.0996637 -0.68597656 -0.29891703 0.60643005 0.24004316 0.058894902
0.09724031 0.69543624 -0.5415315 0.33747464 0.1656515 0.0063393596 0.38623452 0.5350912
0.6521133 0.5514395 -0.50552976 0.23874755 -0.4367436 -0.6596796 -0.06505521 -0.08960371
-0.17371926 0.54977876 0.6249973 -0.17207381 0.60478157 -0.48454082 -0.5138467 -0.35141343
0.2986395 -0.070924245 -0.06360519 -0.58898836 0.121278 -0.25006622 -0.2013525 0.29007867
-0.63569283 -0.15695724 -0.44792143 -0.25347185 -0.010082601 -0.53858155 -0.08098296 0.704064
0.33857438 -0.51986444 -0.09299607 -0.6635173 0.11045424 0.26085386 -0.2554608 0.45146236
0.25827897 -0.33559364 0.49814644 0.69598633 -0.374297 -0.4631398 -0.11542304 -0.39721712
0.3523393 -0.37847358 0.5849855 -0.68309003 -0.6533933 0.2591974 -0.53413033 -0.12168499
0.034122404 -0.4741348 0.6632263 -0.42808825 -0.027290715 0.5984556 -0.14458527 -0.31926927
0.40947798 -0.23387982 -0.0006839937 -0.6732483 -0.63210016 0.37067387 0.6096258 0.4681159
0.6424559 -0.3871285 0.6891732 -0.21423297 0.5134354 -0.6099892 -0.34097484 -0.5040765
-0.17233987 0.13324611 0.40442368 -0.31863832 0.09528258 -0.39389443 0.15544528 0.5809847
-0.49283436 0.26970676 0.16772553 0.38121754 0.3334131 0.68338245 0.34682652 -0.4880109
0.37745076 -0.5349483 0.38530436 -0.37412626 0.061468843 0.44489616 -0.60658944 -0.69314265

net.2.weight f4 [256, 128]
00000000: b0ba 163d f61a 1dbd 3de6 0ebd aa40 433d
00000010: f306 8cbd 1e63 403d 78ec 903d eb26 f9bb
00000020: 898f 84bd 8286 6abd e9df 4ebd 7a8c bebc
00000030: 5e1f 91ba 41ba f33c ee50 883d 7ad8 49bd
00000040: f5e7 f6bc 4ca6 2bbd a6d2 d33c 1918 e33b
00000050: d622 5abd 57f4 85bd 7ba1 4d3c 51b0 a5bc
00000060: 4f2f 7fbd dd98 353d 61cf d13c fd80 53bc
00000070: 9c67 8bbd 46f3 7a3d 3b5a 843d 48bc 3dbd
00000080: 3d4f aebd ce5c c0bb 015b 5cbc 51be 87bd
00000090: 6aff 76bd 4e35 833c 0554 8d3c 4c74 8d3d
000000a0: d871 963c c0db 3f3c a538 cbbc 79d8 a63d
000000b0: cd01 d4bb 3c12 9fbd 38bf 353c 072b 933d
000000c0: 3e07 a83d c5b9 a23d 3846 ecbc 1170 8e3d
000000d0: 61c7 263d 3c30 d2bc 47fe 1abd a2ff 37bb
000000e0: 1f89 8d3d 0f75 683a a31c 18bd 0be5 58bd
000000f0: 9fb3 8a3d 0fa9 22bc f3eb 41bd 9f9e adbd
00000100: 837c 803d 5e41 93bd f61a 73bd 8365 363d
00000110: 2aad 6e3d cd71 b43c 232d aa3c 86de cabc
00000120: d57b 5c3d 63aa 203d 7717 5e3d 402e 9fbd
00000130: cdd2 173b 854b f13b e66c 34bd ea51 a33d
00000140: 0177 9f3d c259 883c 2e99 5cbd 7b73 b33c
00000150: 8dfe 12bd c692 043b c3ef 93ba 2f0d 2d3a
00000160: 10db 4cbd d9a4 8dbd 28e3 46bd 7063 3e3d
00000170: ceeb 8f3d 973f 39bc 5a94 b13d 9425 aabb
00000180: 6044 b13c 79f3 7e3b 60bd a6bd bc04 233d
00000190: 922d 01bd 75b8 babc da15 a03d 7d8a 7f3d
000001a0: b04b 8bbc a94f 0d3d 288c 8c3d 496a 7d3d
000001b0: d903 1bbd fb48 5bbd bc4e 9bbb 1d25 a33d
000001c0: dc3c 603c 3b25 a5bd c2bc 973d 5677 a63d
000001d0: 3572 103d 8234 80bd d5f0 8cbd 2b5b 073d
000001e0: a3cf ab3d a4e4 803d fd85 163d 7790 6c3a
000001f0: 8c70 143d 1636 8dbc 187f 0f3d 786f 833d
00000200: 402f 0fbd 3793 853d feae edbc 0c9c 613d
00000210: a9af 813d a5a8 adbd 80b1 123d a4a6 493d
00000220: 98ec 99bc a5f4 5a3d e6e7 ba3d 0ec2 c33c
00000230: 17e1 803d 376b a7bd 051c 73bd 2da0 d63c
00000240: 9c39 9f3d 6923 47bd ee69 af3d 5fd1 6dbd
00000250: 11ec 43bd 870b 9abb cc44 743d 99ea a3bd
00000260: 0848 9cbd c7da 5abc 122f 43bd aedc e63c
00000270: 898e 04bd 3cb2 983d 1b9f 7abd 3853 97bc
00000280: 7f34 943d e1e8 94bd 8442 293b d195 4ebd
00000290: ea43 4b3d fccc 55bc 7702 af3d 9614 e83a
000002a0: d3fd 5fbc cd89 103c 77e7 28bc ff63 a83c
000002b0: b407 81bd 95cc 5e3d e93d 8a3d 94db 3abd
000002c0: bebe bdbb 6919 753c 83cc 463c ed00 723d
000002d0: d12d 31bd 8707 5d3c 0cd5 9cbd c95d 8c3b
000002e0: 2d4a 393d d111 1fbd 9c5e 6ebc deea 36bd
000002f0: 2d23 91bd c87a be3c 8a5a 9e3d bd9f 91bd
00000300: e701 2fbd 615d b4bd 6659 a0bd a005 793d
00000310: 0c7e 613d 2e0b a1bd 5053 a13d 97fb 123d
00000320: b9af 9fbd c300 88bd 34e8 a43d 3f3d ab3b
00000330: 505e 68bd a692 ec3b da16 013d fcf3 91bd
00000340: 20d3 14bd e590 0c3d 0d05 3dbd d149 9e3c
00000350: a52f 09bc 4688 853d bb1e 3dbc 6910 3dbc
00000360: b6ac 97bd b061 a0bc 97cd 883d 49ba 98bc
00000370: 542f acbc f490 82bd 1be8 1d3d 46f5 f0bb
00000380: d307 a4bd 032e a8bd 2653 40bd 50fb a1bd
00000390: 375c 9e3c 419e 30bd 78b4 b238 b018 073b
000003a0: e446 9bbd f9ab aebd 431f ab3d 1822 b3bd
000003b0: eed7 14bd 419d 1e3d 98d0 31bd 52d2 88bd
000003c0: 7b07 1f3d 05d1 a4bd 2456 ccbc d4c5 f3bc
000003d0: 9ebd 153d 4554 b23c 6e66 2fbd ae51 76bd
000003e0: 6b7a 103c 6564 873d 7664 ae3a 4bc1 593d
000003f0: 603d ce3a 736c 77bd c597 adbd dcf4 a6b9
0.036799133 -0.03835579 -0.03488754 0.04766909 -0.06837263 0.046969526 0.07076353 -0.0076035163
-0.0647269 -0.057257183 -0.050506506 -0.023260344 -0.001107197 0.029751899 0.06656061 -0.049278714
-0.030139903 -0.04190664 0.025857281 0.006930363 -0.05325588 -0.06540745 0.012550707 -0.020225676
-0.062300976 0.044335235 0.025611581 -0.012909171 -0.06806871 0.06126716 0.064625226 -0.046322137
-0.08511207 -0.005870438 -0.013449431 -0.06628097 -0.060302176 0.016016629 0.017251978 0.069069475
0.018364832 0.011710107 -0.024807284 0.08146758 -0.006469941 -0.0776715 0.011092953 0.07185941
0.08204506 0.07945589 -0.028842077 0.06954969 0.040717486 -0.025657766 -0.037840154 -0.0028075953
0.069109194 0.0008867541 -0.037136685 -0.052952807 0.06772541 -0.009928002 -0.04734416 -0.0847752
0.06273749 -0.07190202 -0.059351884 0.044530403 0.05827061 0.02202692 0.020773476 -0.02476431
0.053829033 0.039224993 0.054221597 -0.07772493 0.0023166419 0.007363739 -0.044049166 0.07974608
0.0778637 0.016644362 -0.05385702 0.021905651 -0.03588729 0.0020229085 -0.0011286665 0.0006601391
-0.0500136 -0.06916208 -0.048556477 0.04648155 0.07027398 -0.011306665 0.08670874 -0.005192468
0.021639049 0.0038902445 -0.08141589 0.039799437 -0.0315376 -0.022793034 0.07816668 0.062387932
-0.017003864 0.034499798 0.0686267 0.06186894 -0.037845466 -0.053536396 -0.0047396105 0.07966063
0.013686385 -0.08063742 0.074090496 0.0812823 0.035265166 -0.06260015 -0.068818726 0.03304593
0.08389213 0.0629361 0.036748875 0.00090242125 0.036240146 -0.017237704 0.035033315 0.06417745
-0.03495717 0.0652222 -0.029014107 0.05508046 0.06332333 -0.08479432 0.03581381 0.049231187
-0.018789575 0.053455967 0.09126262 0.023896243 0.062929325 -0.081747465 -0.059352893 0.026199425
0.0777466 -0.048617754 0.08565126 -0.058061 -0.047832552 -0.004701081 0.059635922 -0.0800373
-0.07630926 -0.013357825 -0.04765231 0.0281814 -0.032362495 0.074558705 -0.06118689 -0.018472299
0.07236575 -0.072709806 0.0025827 -0.050435845 0.049625315 -0.01304936 0.08545392 0.001770633
-0.013671356 0.008821917 -0.010309092 0.020555494 -0.063002974 0.054394323 0.0675009 -0.045619562
-0.0057905605 0.014959672 0.01213372 0.059082914 -0.043256585 0.013490564 -0.07657823 0.004283641
0.045236755 -0.03883535 -0.014548924 -0.04465758 -0.070867874 0.023251906 0.07732113 -0.07110546
-0.042726424 -0.08806873 -0.078295514 0.06079638 0.05505185 -0.078634605 0.07877219 0.035884466
-0.07797188 -0.0664077 0.08052102 0.005225807 -0.05673057 0.0072196303 0.031515934 -0.071266145
-0.036334157 0.03431787 -0.046147395 0.019322308 -0.008373176 0.06520133 -0.011542971 -0.011539557
-0.07405989 -0.019577831 0.06679838 -0.018643515 -0.021018662 -0.06375304 0.03855143 -0.0073534576
-0.08009305 -0.08211901 -0.046954297 -0.07909262 0.01933108 -0.043119673 8.521316e-05 0.002061408
-0.07581881 -0.08528895 0.08355572 -0.08746737 -0.03633874 0.038724188 -0.04341182 -0.066807404
0.038825493 -0.0804768 -0.024943419 -0.029757418 0.036557786 0.021768698 -0.042822294 -0.06013649
0.008818249 0.066109456 0.0013305086 0.053162854 0.0015734844 -0.06040616 -0.08476213 -0.00031844422

net.2.bias f4 [256]
00000000: 0277 afbd fbad fc3c 8bdc a63d 2270 51bd
00000010: 8a25 87bd fd45 223b 0bcc 353a f448 53bd
00000020: ac3f b4bd 89d7 aabd 20bd 2b3d ff3d 1c3d
00000030: 8195 5bbd 4c5f c83c fef6 41bd cd1d 683d
00000040: 92aa e33c a884 81bd 8e53 963d 0704 73bd
00000050: 9fc4 6ebc f3db b8ba fd85 823b 1bdd 53bd
00000060: d436 4f3d 13a3 953d a186 9b3c 5238 0cbc
00000070: 1f59 383d e195 3abd 8467 e13c 8ed6 82bd
00000080: e483 b1bc fe01 ef3c 5929 a8bc 14ab 363d
00000090: cd21 98bd 076d 313c 6ffe 9cbd 8613 9a3d
000000a0: 0649 8b3d 0b06 043c 473c 2cbd 7e95 9e3d
000000b0: 8e11 afbc c0cd 24bd 1337 ed3c a656 24bc
000000c0: 22d6 a8bd 1dd8 323d f762 713d ad12 95bd
000000d0: bf80 323d eeb0 1b3c eacc 7cbd d6d7 94bd
000000e0: 97ed 30bd 6e28 9fbd ae44 8abd a052 923d
000000f0: 4d1b 503d a251 903c c4ad 72bd 9616 80bd
00000100: d309 89bd ddc3 843d d4fd 2bbd 0624 d1bc
00000110: f5e5 78bd b4f8 3fbb 3d86 ad3d 1a1e 6fbd
00000120: 1cd6 713d 514d ae3c e8ec 71bd 3161 1fbc
00000130: 4b90 97bd e514 49bd 22e2 823b fac1 293d
00000140: 4fa2 aebd 23e5 4b3d 8132 d13b 8dd3 ce3c
00000150: f533 603d ac8d febc 1af8 b4bd eb39 8f3c
00000160: 0bc1 63bd c825 5a3d dbb2 9fbc 5719 ad3d
00000170: 0d83 a7bc 423e b7bd 77ff 8a3d 98fa d93c
00000180: d347 153c 60bd 52bd 2539 18bd 83d3 173d
00000190: f73e a03d db92 72bc 7f99 aa3d f823 b6bd
000001a0: 4c4f bd3c 5da4 35bd 401d 8d3c 5b3c 76bc
000001b0: 950b adbd d036 79bd 950e 46bc 6c86 50bd
000001c0: 050a 333d 0232 b63c 2dfb a4bd 5771 603d
000001d0: a594 9ebd 3ea7 5f3d 8871 683d f56b 90bd
000001e0: f2f7 893d 301b 83bd 7ca7 6fbd fd6e a4bd
000001f0: 21ad 8bbc abd9 a2bd 3573 b6bb 7298 373d
00000200: 8e09 243d baef f0bc 8259 6c3d d2da a1bc
00000210: a474 7cbc cc0c 843d 6891 a93d c53c b6bd
00000220: 2bf7 42bd 4e83 313c ee47 31bd 2def 6e3c
00000230: e83a 5b3d 1527 143d ab7c adbd f372 8d3d
00000240: ddc0 0b3d d086 55bd d121 2d3d 9ff6 063d
00000250: dd68 90bd f1cc adbd 4644 893d 9a3e 6f3d
00000260: 79d1 a73d 6d76 17bd 7b69 92bd 6354 123d
00000270: bf77 5d3d 23bd c53c 9ee2 6a3c 68ca a6bc
00000280: 5c7c 3fbd ec90 15bc bbf9 30bc e5f1 d03c
00000290: 8647 ccbc 5ae1 4abb 7ed2 7cbc a58d 0b3d
000002a0: bf87 04bd 008f 323d 5db0 74bd ddc3 333b
000002b0: acc7 43bd 3ff1 f13b 883c 14bc a58c 983d
000002c0: f089 f8bb 4720 5bbd 38e3 21bc 20e7 85bd
000002d0: 0b22 f53b b64b 7a3d 3358 783d 8618 bcbd
000002e0: 2f93 223d 49f3 07bd 4626 9bbd ff36 80bd
000002f0: 51b9 f7bc 3900 60bd 9972 11bd 6210 38bd
00000300: a43a 9bbc 3c28 2b3d f84b 05bd 8744 833d
00000310: bc77 8f3d 0660 ccbc 9e8c 83bd 0fec 38bd
00000320: cd40 143d e5a2 88bd add8 adbd 6d3a ddbc
00000330: 2677 cebc 1bd5 db3c c033 003d af25 80bd
00000340: 2c5d ac3c 65bd 2c3b e17a 6dbd 0d18 833d
00000350: f5ae b4bd 6914 8cbd b56d 3b3d 1206 63bd
00000360: 9267 0ebd 4b9a 4a3d a112 b6bd fc76 95bd
00000370: b40c 943d 61ce 67bd 146d 33bb e259 15bc
00000380: 142e b3bc b357 5fbd 7a52 4fbd e7ee 1dbd
00000390: 423e 64bd 5829 7fbd a6a0 90ba 9bf0 d63c
000003a0: ef16 75bb 28b1 553d 390b b83c 67ee 583d
000003b0: 2acb 643d ccb8 e93c 7615 6bbd 6d04 84bc
000003c0: 6486 3abc 7a36 26bd 1234 2ebc e637 09bc
000003d0: da9a 7e3d ac59 313d 3e1d a43c 2e66 7ebd
000003e0: 5da9 4c3d edc7 0bbd 04a2 25bd 6674 62bd
000003f0: 81cb 6b3d 2a40 1f3d fdeb 773d adb5 d8bc
-0.08567621 0.03084468 0.08147534 -0.05113233 -0.06598957 0.0024760955 0.0006935007 -0.051583245
-0.08801207 -0.08341891 0.04192841 0.03814506 -0.053609375 0.024459504 -0.04735469 0.056669045
0.027791295 -0.0632413 0.073401555 -0.059330013 -0.014573245 -0.0014103636 0.003983258 -0.051724534
0.050589398 0.073064946 0.018985095 -0.00855835 0.045006867 -0.045553092 0.02751518 -0.06388579
-0.021669336 0.029175755 -0.020527529 0.044596747 -0.07428322 0.010829217 -0.07665717 0.07523255
0.068010375 0.008058081 -0.042049672 0.07743357 -0.021370675 -0.04023528 0.028956925 -0.010030424
-0.082439676 0.043663133 0.05893227 -0.07278953 0.043579813 0.009502633 -0.06171886 -0.0726773
-0.043195333 -0.07771383 -0.06751381 0.07144666 0.050807286 0.01761705 -0.059247747 -0.06254308
-0.06691327 0.064826705 -0.041990116 -0.025529873 -0.06076618 -0.0029292526 0.084728695 -0.058378316
0.05904208 0.021277102 -0.059063822 -0.009727762 -0.074005686 -0.049092192 0.0039942423 0.041444756
-0.08527052 0.04977907 0.0063841944 0.02524736 0.05473705 -0.031073414 -0.08836384 0.017483672
-0.055604022 0.053258687 -0.019494465 0.08452099 -0.020448232 -0.089474216 0.06787007 0.02660875
0.0091113625 -0.051450133 -0.037163872 0.037066948 0.078245096 -0.014805521 0.08330058 -0.08893579
0.0231091 -0.044346202 0.017225862 -0.015029038 -0.08449475 -0.06084329 -0.012088438 -0.050909445
0.043710727 0.022240642 -0.080557205 0.05479559 -0.077431954 0.054602854 0.056748897 -0.07051841
0.06736745 -0.0640167 -0.058509335 -0.08028982 -0.017050328 -0.07951673 -0.005567933 0.044823118
0.040048175 -0.029411186 0.05770255 -0.019757662 -0.015408669 0.06447753 0.08279687 -0.088983096
-0.047599 0.010834528 -0.043281488 0.014583391 0.053522974 0.036170084 -0.08471044 0.069066904
0.034119476 -0.05213052 0.042268578 0.03295004 -0.07051251 -0.08486355 0.06702475 0.05840931
0.081942506 -0.036978174 -0.07149025 0.03572501 0.054069277 0.024138039 0.014336256 -0.020360187
-0.046749458 -0.00912879 -0.010801728 0.02550597 -0.024936449 -0.0030957074 -0.015431045 0.03407063
-0.03235602 0.043593407 -0.059738506 0.0027429976 -0.047797844 0.007383495 -0.009047635 0.07448701
-0.007584803 -0.05349758 -0.009880833 -0.06538224 0.007480865 0.06110736 0.06063099 -0.09184365
0.039691146 -0.033191 -0.075756595 -0.0626049 -0.030239733 -0.054687712 -0.03550968 -0.0449375
-0.01894886 0.041786417 -0.032543153 0.06409555 0.070052594 -0.024948131 -0.06423305 -0.045146998
0.03619461 -0.06671695 -0.08488593 -0.027005399 -0.025203299 0.026835015 0.031299353 -0.062571876
0.021040522 0.0026358005 -0.057978515 0.06401072 -0.08822433 -0.068398304 0.04575892 -0.05542571
-0.03476674 0.04946355 -0.08890272 -0.07298085 0.072289854 -0.056593303 -0.0027378248 -0.009115668
-0.021872558 -0.054526996 -0.050615765 -0.038557913 -0.055723436 -0.062295288 -0.0011034205 0.026237777
-0.0037397703 0.052170902 0.022466289 0.052961733 0.055857815 0.0285305 -0.057393514 -0.016115392
-0.01138458 -0.040579297 -0.010632532 -0.008375144 0.062159397 0.04329841 0.020033475 -0.062109165
0.049966205 -0.03412621 -0.040437713 -0.055286787 0.057567123 0.03887955 0.06052779 -0.026453817

net.4.weight f4 [256, 256]
00000000: cfe3 17bd 8a55 8e3c d818 aa3c 9ba1 323c
00000010: d9a8 c33c 95ea 8b3c 80b7 2abd a4e3 1abc
00000020: 89ed 74bb 1839 523d 571f 893c d185 c0bc
00000030: cc5a 6ebd a000 3cbd f864 b73b 5299 4fbd
00000040: cf64 213d a699 86bd 628d 1a3c 8f93 78bd
00000050: ed0c 303d f895 bf3c 7094 88bb 38eb d2bc
00000060: fc38 8cbd 7256 28bb b165 cfbc 7fc9 2e3d
00000070: 6f82 74bd 4e91 453d 0c95 bf3c bc12 d3bc
00000080: 0aa3 123c f825 efbb b9b2 85bd 9240 78bd
00000090: 168a bfbb 37f8 f63c 9a71 39bb 0192 28bb
000000a0: 921e 853b 3b24 e3bc 3364 123c 6339 043d
000000b0: 4ca7 3cbd 9ebd 19bd 3377 76bc d387 a8bb
000000c0: 6898 7abd cf08 94bc 6904 603c c834 44bd
000000d0: 5063 7339 bfa5 85ba aab8 62bd f521 15bc
000000e0: d311 55bd dc06 9b3c 7b83 b23c d429 23bd
000000f0: 9607 58bd beda 80bd c6e4 21bd 01a6 173d
00000100: 5c85 52bd 6e57 d9bc bbc0 2bbd 76e4 cdbc
00000110: d7a4 99bc 4714 e43b 4324 61bc 22e9 473d
00000120: 99ce 21bd 9243 463b fa70 0e3d c818 85bd
00000130: b243 b3bc bd17 003d 092a 4c3d 1a37 0dbd
00000140: b8ea 0a3b e90a 2c3d 5e47 663c 3904 f0bc
00000150: ca9f 163d 220f 303d 3f31 493d 8b1d 803c
00000160: 715a db3c 4818 ba3c 28c4 bbba 62e5 0d3d
00000170: 2b2e 523d 7b1d 0e3d ae66 72bd b649 65bc
00000180: afef 46bd 9027 8dbd 8a27 433d 44df 21bd
00000190: 69e1 513d e8ce f23c 417c 833c 115f 59bc
000001a0: 3756 afbc cf73 87bc e806 5d3b 309c 2f3d
000001b0: aad8 6dbd e317 6bbd 58d9 803b 47a3 7bbd
000001c0: a618 73bd bd0a 9c3c d1cc 083d 7cc7 74bd
000001d0: 2c63 33bd d0eb 17bd b3ac da3c fa77 e4bc
000001e0: 8fd1 d83c cd4f debc 60b6 40bd b175 293d
000001f0: 1925 81bd df9c 16bd a5d2 6fbc a063 463d
00000200: 4c21 243d cb85 8fbd e90f af3c eb19 35bd
00000210: d025 66bb d2c6 08bd 46ad 43bd 0d23 813c
00000220: 030f b23c dba5 cb3b 78fe 80bd 578d c73c
00000230: 9dc4 983c 888d f7bc a90c 90bc 93ec e53a
00000240: 4a0e 7539 101d 96bd 08ff 17bd a94f 8ebd
00000250: 3173 23bd a0ee b93c 7d04 523c 8b44 c5bc
00000260: c80c 1bbd a404 48bd 4174 23bd c3a9 51bc
00000270: 66bd 62bd a305 f53c e3f9 17bd b97e 3ebd
00000280: 0afd 40bc f1b5 6ebc bd27 2dbd b832 7dbd
00000290: 4424 513b defe 053d 154f e5bc e27e 413d
000002a0: bfde 383d 8658 513d 1f16 97bc 5372 c9bc
000002b0: c313 1a3d 50e2 01bd 0385 c3bc efdf 8fbd
000002c0: 1448 d53c 167d 96bc 9408 ccbb a8e5 183b
000002d0: 0b05 48bc 4d5d 88bb d353 1bbd 8710 2a3d
000002e0: 966d e13b db1c 91bd 440d 28bd 420a 69bd
000002f0: ee86 54bd 932b 40bd 3bfc 4b3d 8566 7ebd
00000300: c8c9 fabc b5ba 0939 88b7 5dbd c493 823c
00000310: f504 58bd 4a15 ccbb c111 fbbc 3c93 b43b
00000320: 8b4f 25bb ad56 1e3d ff81 56bd 9f68 adbc
00000330: b8ee 013c 5b6f 003d f78e 6bbb e4a4 00bd
00000340: b209 7fbd fbe2 a7bc fb9a ddba 1a75 89bd
00000350: 2c56 86bd bbd7 993b 5a5c 17bd 3707 9c3c
00000360: 2300 3bbd ad68 6bbc 852b e6bc 09a6 3b3d
00000370: 176b 8e3c 035a 88bd 57df 473c f5f7 b83b
00000380: 80a4 8abc 9aa1 bf3c c104 b1bc 378f f5bc
00000390: ec02 f83c 903e 87bd 75a4 213d 5ba8 3c3c
000003a0: 3234 92bd 8b2c f6bb 100e 453d 37e6 483d
000003b0: 51a8 873c 5b55 3b3d 7944 d03c 5dbe 4f3d
000003c0: d24d fb3c f2c2 f7bc c9ae 263d 8e06 58bd
000003d0: 671f 1b3d 921d 95bd a8c4 2ebc a0c6 f63c
000003e0: 719f 3c3b 28bb 8ebb 55dc d03c f956 813c
000003f0: aeaf e53b a79c 3e3d 2998 42bd 7d2b be3c
-0.03708249 0.017374773 0.0207638 0.010902788 0.023884224 0.01707963 -0.041678905 -0.009453688
-0.0037373027 0.05132398 0.016738577 -0.023501309 -0.05819206 -0.045899034 0.005596753 -0.050683327
0.03940278 -0.06572275 0.009433122 -0.060687598 0.042981077 0.02338694 -0.0041680858 -0.025746927
-0.068468064 -0.002568629 -0.025317045 0.04267263 -0.059694704 0.048234276 0.0233865 -0.02576577
0.008950004 -0.0072982274 -0.06528229 -0.060608454 -0.0058453185 0.030147655 -0.0028296472 -0.002572179
0.004062482 -0.027727237 0.008935022 0.03228129 -0.046057984 -0.03753435 -0.015043068 -0.0051431446
-0.061180502 -0.018070607 0.013672926 -0.0479019 0.00023211283 -0.0010196491 -0.05535189 -0.009102334
-0.05201895 0.01892417 0.02179121 -0.039834812 -0.05274161 -0.06291722 -0.039524816 0.037023548
-0.051396713 -0.026530948 -0.04193185 -0.025133353 -0.01875536 0.006960425 -0.013741556 0.048806317
-0.039503668 0.0030252677 0.03477571 -0.06498867 -0.021882866 0.03127264 0.049844775 -0.034476377
0.0021197032 0.042002592 0.014055101 -0.029298889 0.03677348 0.04298318 0.04911923 0.015639087
0.026776524 0.022716656 -0.0014325427 0.034642585 0.05131356 0.034696084 -0.059179954 -0.013994625
-0.048568424 -0.068923116 0.04764513 -0.039519563 0.05124036 0.029639676 0.01605046 -0.0132672945
-0.021403415 -0.016534714 0.003372604 0.04287356 -0.058067955 -0.057395827 0.0039321594 -0.06143501
-0.05934968 0.01904809 0.033398453 -0.059760556 -0.04379575 -0.037090123 0.026693678 -0.02788924
0.026467113 -0.027137661 -0.047048926 0.041372005 -0.06305904 -0.036770698 -0.014637624 0.048434854
0.040070817 -0.07007941 0.021369891 -0.04421417 -0.0035117753 -0.033392735 -0.04777267 0.015763784
0.021735674 0.00621484 -0.06298536 0.024359388 0.01864844 -0.030218855 -0.017584162 0.0017541818
0.00023370344 -0.07329762 -0.03710845 -0.06948788 -0.039904777 0.022696793 0.012818453 -0.024080535
-0.037853986 -0.04883255 -0.03990579 -0.012796822 -0.055356406 0.029909914 -0.037103545 -0.04650757
-0.011779079 -0.014569745 -0.042274226 -0.061815947 0.0031912485 0.032713763 -0.02799181 0.047240146
0.045134302 0.051109813 -0.018443165 -0.024590647 0.037616502 -0.03170997 -0.023867136 -0.07025134
0.026035346 -0.018370192 -0.0062266085 0.0023330245 -0.012208234 -0.004161513 -0.037921738 0.041519668
0.0068795187 -0.07085582 -0.041028276 -0.05689455 -0.05188649 -0.046916556 0.049801093 -0.06210949
-0.030613795 0.00013134892 -0.054130107 0.0159396 -0.052739102 -0.006228124 -0.030648114 0.005510716
-0.0025224413 0.03865688 -0.052370068 -0.021168051 0.00793045 0.031356197 -0.0035943368 -0.031407252
-0.062265106 -0.020493975 -0.001690715 -0.067117885 -0.06559405 0.0046949065 -0.036953308 0.019046409
-0.045654427 -0.014368218 -0.028096924 0.04581264 0.017385049 -0.066577934 0.012199244 0.005644793
-0.016924143 0.023392487 -0.021608712 -0.029975517 0.03027483 -0.0660373 0.03946348 0.011514748
-0.07138862 -0.007512634 0.048109114 0.049047675 0.016559752 0.0457357 0.025423275 0.050718654
0.030676756 -0.030244324 0.040694032 -0.052740626 0.037871744 -0.07281031 -0.010667004 0.030124009
0.0028781558 -0.004355807 0.025495687 0.015788542 0.007009468 0.046536114 -0.047508392 0.023214096

net.4.bias f4 [256]
00000000: db20 48b9 5a66 26bc 9c8c b1bc 1509 1ebd
00000010: e3b6 7cbd 5119 503d e981 533d 1ae5 253d
00000020: 31b5 9abb 0477 5f3d b67a 05bd 3a3e 4c3d
00000030: 9a94 4abd 884f 38bd 7cf4 023d 4bba 623d
00000040: 9fea 66bb 4e51 1b3d 0036 1b3d 797b 0cbd
00000050: 3ed3 80bc 719e 563a ba82 5d3d f88c 8bbc
00000060: 6c56 083d f41e d6bc 6f4b e5bb 70c5 8abc
00000070: 86e9 af3c 768d 94bc b57c 573d 778a f8bc
00000080: e159 d03a c141 023c 8352 2e3b 54d7 ccbc
00000090: fb99 f93b 4434 4b3d 47ec 8b3c 0811 27bd
000000a0: b9a2 87bd a33e 1abd e3d7 8d3c c4dc bb3b
000000b0: 3ad8 323c 68fc 1dbb 7232 443b 9eb2 9d3c
000000c0: f532 273d 8549 26bd b5ec 22bd 7954 14bd
000000d0: e6c4 6fbc 0b2c eebb 28ca 4c3d 2391 18bd
000000e0: f290 27bd 3006 8dbd ec25 353d d128 febc
000000f0: 1055 0d3d ff40 c5bb 7de7 22bc 0a75 0abc
00000100: 30a0 16bd aa25 7abd 1013 663d 6384 45bd
00000110: 7e82 073d f815 4d3d 8713 8ebc 0c6f e83c
00000120: e4b1 80bd bcef 21bd 44c7 3f3d 39fe 2d3d
00000130: ce74 96bc ed02 af3b dfb3 ca3c dc9e 50bd
00000140: e627 92bc b280 e73c 1bd6 96bc 2d45 b3bc
00000150: ab04 433d 27f5 f03c e1b0 83bb 7a84 d4bb
00000160: a8eb 593d 4b7a 87bd ad00 7fbd a3f5 203d
00000170: da5e 393d a369 7ebd 716a c73c 2e20 babc
00000180: ce0e a2bc 8d20 f3bb 4401 763c 790c 0f3d
00000190: ad25 c0bc dfa7 443d f4a9 5e3d 0680 aebc
000001a0: b1ec 00bd a5bf 77bd ebed c03a 771f e93b
000001b0: a6b8 583d cd84 dc3c 489c 093d 3673 a63c
000001c0: 3fbf 51bd 136d debc f23c 43bd d5e6 30bd
000001d0: 268e 3bbd 39ae 913c 1fb3 f93c 3b01 1e3d
000001e0: c899 ac3c 1008 72bc 666e 9f3c c4c2 6d3d
000001f0: f3e8 87bd 886a 86bc 1458 01bd fea4 53bd
00000200: b7dd 47bd 71bd 36bd 40a4 f4bc 5ab0 323d
00000210: cb3e e5bb 2041 c93c 93ba 143c e5b4 433d
00000220: 6c90 81bd 3b9e d4bb ce29 bb3c 11dc 85bc
00000230: 2e00 2bbd c96d b93c 263e 1dbd 7294 d03c
00000240: 4b88 03bc 0c44 66bd 1661 713d 6c9c 753d
00000250: 8127 15bd 35df 90bc a4c3 f0bc ed8e 5abd
00000260: cebc 46bd 7613 cb39 5edf 8abd 7d74 49bd
00000270: d838 82bd dc54 dfbc f022 bcbc a5b0 073d
00000280: fe9b 9dbc 20e2 493c 3ba0 2e3d 26bb f43c
00000290: 7bdd 01bd ffb3 0c3d e4dc 8f3a 2561 e73c
000002a0: a7b7 913c 53ba 493c c74c 673d 6384 eabc
000002b0: 58f6 093d 6ded 81bc 9d9d 60bd 3f42 f33c
000002c0: 9430 71bd f490 5b3c f1e9 463d 38b8 29bd
000002d0: 3833 81bd 74d9 6bbd ca73 c4bc e450 593c
000002e0: 28e9 8b3c cf0b 24bd a07c 27bd 7012 ed3b
000002f0: e32a 853c 8b41 d9bc 624c cfbc c32b 343d
00000300: 5a84 85bd 07f6 ab3b 3bba 8b3c 96d0 9d3c
00000310: fdc3 d7bc 1e1f 05bc 1ab9 323d 5078 8cbc
00000320: 618d 8abd e3f4 d63c 69d2 61bd 900a 1abc
00000330: 78e0 39bd 1d5a c13c 1dbf afba 9f78 e2bb
00000340: 6b2a 683d 5a5b 213d 6202 543d 0173 51bc
00000350: 9685 f0bc 582a 5b3d 8c9d 243d 1310 d93c
00000360: 6253 0f3d 1306 8abc ccba 1ebc ce72 403d
00000370: 5ebb 60bc cac3 49bd d181 dfbc 199f c1bc
00000380: 03ee e43a 9cfb 82bd 6941 78bc e64b 80bd
00000390: c8c7 303d 1cd9 2a3d a5ba 02bc 7d7b 4e3d
000003a0: 0fc1 b83c 6aa9 83bd 3510 21bd f5d0 4cbd
000003b0: c978 8bbd 23af 31bc d140 023d 59e0 363d
000003c0: c9bb d03a fbc7 273d 9c96 3b39 78f6 2f3c
000003d0: 252d 333a 3afa 293c b424 ccbc 4f4c 23bd
000003e0: c79f 4cbc 9329 2cbd 4aa7 0bbd 33b5 21bd
000003f0: 5629 5f3c 36dc 86bc 9eca 2dbd eb68 39bc
-0.00019085726 -0.010156238 -0.021673493 -0.03858288 -0.061697852 0.050805394 0.051637564 0.04050169
-0.0047213067 0.05455686 -0.03258773 0.04986403 -0.049458124 -0.044997722 0.03197144 0.055353444
-0.003523506 0.037919335 0.037893295 -0.03429744 -0.015725728 0.0008187062 0.05407975 -0.017034993
0.033285543 -0.026137806 -0.006997518 -0.016939849 0.021473657 -0.01813386 0.052609164 -0.030339463
0.0015895927 0.007950247 0.0026599474 -0.02500502 0.007617233 0.04961039 0.01708044 -0.040787727
-0.06622834 -0.03765739 0.017314857 0.0057331044 0.01091581 -0.0024106745 0.0029937294 0.01925021
0.04082008 -0.040597457 -0.039776523 -0.036213372 -0.014634347 -0.007268434 0.04999748 -0.03724779
-0.040909715 -0.06885946 0.04422562 -0.031025322 0.03450495 -0.006019711 -0.009942886 -0.008450756
-0.03677386 -0.061071075 0.056170523 -0.048221957 0.03308343 0.05006978 -0.017343296 0.028373264
-0.0628393 -0.03953527 0.046820894 0.042478774 -0.018366244 0.005340925 0.024743972 -0.05093275
-0.01784129 0.028259609 -0.01841264 -0.021883572 0.047611874 0.029413773 -0.0040188883 -0.006485519
0.053203255 -0.066151224 -0.062256504 0.039296757 0.045256473 -0.06211246 0.024342747 -0.022720423
-0.01978245 -0.007419652 0.01501495 0.034924004 -0.023455465 0.048011657 0.0543613 -0.02130128
-0.031475727 -0.0604855 0.0014719343 0.0071143466 0.05291047 0.026918793 0.033596307 0.020318609
-0.051207777 -0.02715162 -0.047665544 -0.04318889 -0.04578986 0.017783271 0.03048092 0.038575392
0.021069422 -0.01477243 0.019461822 0.05804707 -0.066362284 -0.01640822 -0.03157814 -0.05167102
-0.048795428 -0.04461426 -0.029863477 0.043625213 -0.006996011 0.024567187 0.009077686 0.047779936
-0.063263744 -0.006488589 0.022847082 -0.016340287 -0.04174822 0.022635357 -0.038389347 0.02546141
-0.0080281 -0.05621724 0.05893048 0.05996363 -0.036414627 -0.017684558 -0.029390164 -0.05335896
-0.048519902 0.00038733677 -0.06780885 -0.049183358 -0.06358498 -0.027262144 -0.022965878 0.033127446
-0.019239422 0.012321979 0.042633276 0.029874396 -0.03170536 0.034351345 0.0010975865 0.028244564
0.017787768 0.01231249 0.056469705 -0.02862758 0.033682197 -0.015860284 -0.05483781 0.029694675
-0.05888422 0.013401259 0.048562948 -0.04143545 -0.06308597 -0.057580426 -0.023980994 0.013263915
0.017078951 -0.040050324 -0.040890336 0.007234864 0.016255802 -0.026520511 -0.025304977 0.043987047
-0.06519385 0.0052478346 0.017056575 0.0192645 -0.026338572 -0.008125095 0.043633558 -0.017147213
-0.06765247 0.026239818 -0.055132303 -0.009401932 -0.045380086 0.02360254 -0.0013408397 -0.006911352
0.056681078 0.03939376 0.051760085 -0.012783767 -0.029360574 0.05350718 0.04018931 0.026496923
0.03499163 -0.0168486 -0.0096880905 0.046984486 -0.013716547 -0.049258985 -0.027283581 -0.023635434
0.0017465953 -0.06395647 -0.015152314 -0.062644765 0.043159276 0.041710958 -0.00797907 0.050410736
0.022552995 -0.064287975 -0.039322097 -0.050003964 -0.06810147 -0.0108449785 0.031800095 0.04464755
0.0015925105 0.0409622 0.00017889816 0.010739915 0.0006835035 0.0103746 -0.024919845 -0.039867695
-0.012489266 -0.042031836 -0.034095086 -0.039479446 0.013620695 -0.016462427 -0.04242956 -0.011316518

net.6.weight f4 [256, 256]
00000000: 5b79 3fbb 74ef f83c 1bef 75bd ef5b 143d
00000010: ab14 393d 6412 5f3d 26cc 01bd 661d 7abd
00000020: c00e 773c 2628 47bd 0485 143b b07e 283d
00000030: 42dd d43c 4818 03bd 527b 3bbd 5d27 6dbd
00000040: c7f8 c8bb e62b 933c 29e5 0a3d 3188 e2ba
00000050: 3cf2 c33c 6399 62bd 7097 563d 1ebc 0e3d
00000060: e426 07bd ef75 81bd d468 363d 4f02 11bd
00000070: a005 383c ff12 b3bc 81af e0bc ada1 933c
00000080: f35a 79bd c78e 25bd 1c50 1c3d 1328 82bd
00000090: cb2b 68bc 207e 323d 5554 42bd b6fc 16bc
000000a0: c4a6 ac3c 79a8 ddbb d89d a5bc 3546 1abd
000000b0: 1c3a 313d 6be2 eabb 48c0 7a3c 7c2a 343d
000000c0: 174b 603c bb62 283d ee5c 053b c681 eaba
000000d0: 37d8 f7bc 1794 ca3c 842a 0ebd 651b 883b
000000e0: b660 ae3c ef4d 58bd 7099 ad3c 9dd3 d23b
000000f0: 4dab 48bd 4b92 6fbd fe1a 6f3d c14e 203d
00000100: 1126 dd3a cd2d 683c 4121 173d 0799 4ebd
00000110: 9cdd f6bc d02f fd3c 83c6 6a3d 3194 7a3c
00000120: 1162 52bd 6752 65bd b688 00bc 5e4c d23b
00000130: 9434 1ebb b547 f6bc 1a19 81bd fc10 2ebd
00000140: c500 283d 3694 a33a 7066 243d 31f7 053d
00000150: be0a dc3c 65be 65bd 0e58 b73c 1b41 503d
00000160: 02b7 143d b0dd 64bd 3034 35bd 26f7 24bc
00000170: 8627 cfbc 2236 a43c 3f48 ca3c 6b89 7abd
00000180: 6a94 093d 8e81 9c3a ac14 6b3c 0dcc 7bba
00000190: 5d7c 653d a5e7 343d 42f3 f93a 389e 38bd
000001a0: 0e9f 733d 5c19 81bd f307 dabc 47ae 2e3d
000001b0: 77aa 2a3d 18a3 4abd 255f b0bb b4ce f13c
000001c0: f516 443d f2c9 0bbd 2b41 06bd 30f1 a83c
000001d0: 02df 8e3c 3c2b 7cbb e2dd 273d 1ff6 d83c
000001e0: fe88 003c 8f43 013d fb88 173d 71eb 1e3d
000001f0: c04f 223b a9d6 12bd 0a2c d83c 3313 293d
00000200: bf66 403d 31af f83c 5384 85bc 5379 8c3c
00000210: 8d01 7abd f116 7abd 411f 4cbd b173 783d
00000220: 89c9 363d abd9 933b 1a23 6c3d 8a34 a0bc
00000230: 5c90 2bbd ad52 fabc 3e7f babc 6a4f 71bd
00000240: 9b73 d3bc 3de1 e13b efe4 633d ab71 66ba
00000250: 85b3 1d3d 1c26 dcbc c2fb 12bd 07be fa3c
00000260: db65 643d bf34 d2bc e630 9fbc f123 4fbd
00000270: bbf7 38bd 58eb aebc 0da5 67bd e6ed 573c
00000280: 7b4c 8fbc c989 f8bc 42f3 a3bc 0b6b 5bbd
00000290: f53f 00bd 0cff 823c c148 72bd 6749 33bd
000002a0: 873e 21bd 52d5 543d 13aa 093d 65e6 083c
000002b0: 6771 fa3c 8cf7 bcbc 1385 02bd 6ccf 57bd
000002c0: 7009 de3c 81b2 91bc bfa8 c5bb 7e50 c33c
000002d0: 87d9 f2bc 1630 f7b9 2520 0f3d e3ce 85bd
000002e0: 1563 053c 80a8 61bc 22c5 a3bc 2671 cf3c
000002f0: a248 17bd 8d32 3abc b047 86bd 159f 9f3b
00000300: 65f8 b63c 43bf b5bc fc20 e23b 6d20 12bd
00000310: 2069 c13c e6e4 36bd 845b 38bd e202 f6bc
00000320: 0ade 663d 4462 2cbd 5617 2a3c 9c35 16bc
00000330: 8f7d bfbc daa1 5fbd 681e 30bd d8f5 533d
00000340: 6328 193c ee52 963c 9a1c 703d 9507 213c
00000350: 4fca f9bc c4da 6abd a864 203b 4ae2 1e3d
00000360: 4065 593d 5eb9 6ebd 9b21 3fbb 62f8 d2bc
00000370: 9762 b93c 9505 093c 4de9 173d b143 67bc
00000380: 4267 69bd 9773 3d3d f30e 36bd 3941 043d
00000390: 8918 293d 01a0 ec3b a877 7bbd ea08 1c3b
000003a0: 8f0b 2abd 9bd3 093c 966a c1bc 0d42 71bd
000003b0: 9756 fdbc 4fdb b6bb a626 30bc 1cd8 52bd
000003c0: cc3f 47bb 57f3 283d 923a 48bd 2f2c 543c
000003d0: e219 7abd d869 643d 23a6 233d 95ca 363d
000003e0: ba67 e2bc 7cad d73c 0861 58bd c332 3a3c
000003f0: a05c e5bb 3a7d 5a3d 33f2 193d 355d a2bb
-0.002921662 0.030387618 -0.060042482 0.036220487 0.045185726 0.054460898 -0.03168883 -0.061063193
0.0150792 -0.048622273 0.0022662291 0.041136444 0.02598441 -0.03200558 -0.045771904 -0.057898868
-0.006133172 0.017965268 0.03390995 -0.001728302 0.023919217 -0.055322062 0.052390516 0.03484737
-0.032996073 -0.06321322 0.044533566 -0.035402592 0.01123181 -0.021859644 -0.027427437 0.018021429
-0.06087775 -0.040419366 0.038162336 -0.063553 -0.014170597 0.043577313 -0.047443707 -0.009215524
0.021075614 -0.0067644683 -0.020216867 -0.03766461 0.043268308 -0.0071681044 0.0153046325 0.04398583
0.013689778 0.04110978 0.002034958 -0.0017891459 -0.030254466 0.024728818 -0.034708515 0.0041536563
0.02128635 -0.0528087 0.021191329 0.0064339177 -0.04899149 -0.058489125 0.05837535 0.039137606
0.0016872307 0.014171076 0.036896948 -0.050438907 -0.030134968 0.030906588 0.05731822 0.015294121
-0.051363055 -0.055986788 -0.007845094 0.006417795 -0.0024140226 -0.03006349 -0.06303616 -0.042496666
0.04101636 0.0012480083 0.040136755 0.032706443 0.026860591 -0.056089777 0.022380855 0.05084334
0.036307342 -0.05587548 -0.044239223 -0.01006869 -0.0252874 0.020045344 0.024692653 -0.06116621
0.033588804 0.0011940466 0.01434819 -0.0009605296 0.056026805 0.044166226 0.0019069689 -0.045072764
0.05947786 -0.06303665 -0.026615119 0.042646673 0.041666474 -0.049471945 -0.005382436 0.029517509
0.047873456 -0.034128137 -0.032776993 0.02062282 0.017440323 -0.0038477918 0.04098309 0.026484547
0.0078451615 0.03155857 0.03699587 0.038798753 0.0024766773 -0.035849247 0.026388187 0.041278075
0.046972986 0.030356975 -0.016298449 0.017147696 -0.061036635 -0.061057035 -0.049834494 0.060657207
0.044625793 0.004512032 0.057650663 -0.019556303 -0.04188572 -0.030557001 -0.022765752 -0.058913626
-0.02581196 0.0068933056 0.05563825 -0.00087907416 0.03850128 -0.02687364 -0.035884626 0.03060819
0.0557612 -0.025659917 -0.019432496 -0.050571386 -0.04515813 -0.021352455 -0.05655389 0.013179278
-0.017492523 -0.030339139 -0.020013455 -0.05356888 -0.031310994 0.015990756 -0.059151415 -0.043771174
-0.03936627 0.05196125 0.03360946 0.008355712 0.030571653 -0.023067258 -0.03186519 -0.052688047
0.02710411 -0.017785313 -0.006032079 0.023842093 -0.02964474 -0.00047147338 0.034942765 -0.06533601
0.008141299 -0.013773084 -0.019991461 0.025322508 -0.036934502 -0.011364591 -0.06556642 0.004871259
0.02233524 -0.022185927 0.0069009047 -0.035675455 0.023609698 -0.04465189 -0.04500915 -0.030030672
0.056364097 -0.0420859 0.01038154 -0.009168055 -0.0233753 -0.054597713 -0.042997748 0.051748127
0.009348008 0.01835009 0.058621027 0.009828468 -0.030491976 -0.057337537 0.0024474058 0.038790025
0.053075075 -0.05828225 -0.0029164318 -0.025753204 0.02263002 0.008363147 0.037087727 -0.01411526
-0.05698324 0.046252813 -0.04444785 0.032288764 0.041283164 0.0072212224 -0.06139341 0.0023809024
-0.04151493 0.008412267 -0.023610394 -0.05890088 -0.030925078 -0.005580343 -0.010751402 -0.05147563
-0.0030403016 0.041247692 -0.048883982 0.012949987 -0.06105984 0.055765003 0.039953362 0.04462679
-0.027637351 0.026327841 -0.05282691 0.011364642 -0.006999567 0.05334208 0.037584495 -0.004954959

net.6.bias f4 [256]
00000000: b4ed a63b 00eb 603d c2eb 393d ca7f 723d
00000010: 2d8d debc a4b8 953c 057e 273d c568 c73c
00000020: ee22 8cbd 988b be3c 7f71 dd3b 55d9 883c
00000030: 496b a23b 3400 903c 6903 0ebd a6ce 4cba
00000040: fbf3 263c e321 c93c 33d3 e33b c343 5b3d
00000050: fd63 b0b9 fa9c 8abc 3c82 46bb 6bcf aaba
00000060: 238d 23bd cd9a 28bd a660 b6bb 414d 6a3d
00000070: 32e4 e83c 184e f7bc b3f8 da3c 0192 29bd
00000080: 406d 3f3d 8e11 ccb9 da42 133d d67d 663c
00000090: 239e 58bd 162b 80bd 3d87 9bbc 0344 0fbd
000000a0: 610c 2ebd d8e9 633d 25f0 0f3d f808 753d
000000b0: e2de 7cbd a857 83bd 1720 db3c b154 62bb
000000c0: 5c16 d13b 8dda 483d 0f34 3ebd 67ef 103d
000000d0: fc63 213d c00f 213d 3a3b 3dbc e9f4 2abc
000000e0: 0487 dabc 0dd6 f939 132e 5f3d c40e 6e39
000000f0: 0f94 66bc 9268 563d eee5 85bd 12e6 d9bb
00000100: 0f9e 153c ea02 09bc 4715 dabb 5dcd 463d
00000110: 97ab 5d3d b25c 7fbd fe0a 083d 4a7d 39bd
00000120: 48e3 5abc 9640 db3b 295d ccbb 965d b1bc
00000130: e7fe 4c3d d323 693c 56ea 303d 00fe fa3c
00000140: 0166 083d ddce 34bd 4dc4 5abd 6580 e43c
00000150: a721 c9bc f76a c3bb f39b 173b 4f43 6abd
00000160: db42 5b3d c8f7 0e3c 9da8 d5bc 1246 6fbd
00000170: b5ae 8fbb 1fb8 553d 10af e23c 7bb6 8abc
00000180: dabd 20bd 21ea 3abd b1cb 6bbd d888 053d
00000190: 53fe 4f3c 6288 433d 2109 94ba 7f7f 77bd
000001a0: fd0b b9bc cdb4 2e3d ebc4 5f3d fff9 f23b
000001b0: f6de ec3c c161 02bc f045 fabc c416 e1bc
000001c0: 3559 56bd 252b 37bd fd72 f0bc b880 63bd
000001d0: 4815 4d3c f81a 96bc 8a15 d43b c58d 1a3d
000001e0: 5459 48bb 4177 4d3d 8ff8 28bd 6aae 00bd
000001f0: 1655 6a3c 499c ecbc 8bc2 8f3c d290 243c
00000200: abf0 b93c ec5e 9dbc 90c0 ee3c 149b 28bc
00000210: de46 67bd 4698 1ebd 295c 3abd 8fd8 72bd
00000220: b639 25bc e89b 21bd 1ef6 f3bc ebde 3cbd
00000230: 5acf 5d3d f935 34bd 9d8c b0bc 7c1e 0f3d
00000240: 702a dfbc db9e 10bc af91 dc3c 6e1e 07bc
00000250: ed55 803c a52e 98bd dbc0 79bc 6b05 4f3d
00000260: 5582 2e3d 80b1 823c c05b 85bd 89aa 2bbd
00000270: a53c 5cbd 092e 133d e8a4 293d 2d67 ed3c
00000280: 504e ec3c 63b1 4e3d faaf 0fbd 26f5 2d3d
00000290: a51b f23c 2270 54bd 5a9a 553d ed45 7cbc
000002a0: 955d 393b 7b7e 2c3d 91e8 163d b966 76bd
000002b0: 8d7c 0a3d eecb 013c ebc9 bebc 1e74 733d
000002c0: e77c d7bc 64ca 403d 02b6 04bd 8d24 31bd
000002d0: 65ea cebc 8f8e 1cbc 03c7 203d b3d6 4fbd
000002e0: 6264 c63c e011 db3c 155b 0a3d 1152 b3bb
000002f0: 4f51 2b3c 17ae 443b 7af3 07bd 522c 37bd
00000300: 5864 33bd 1765 0d3c 4e57 53bd afa7 fdbc
00000310: eaaa 37bd 1c4d 5abd 8eda 6cbd 03c6 4b3d
00000320: 5bbc c33c 6abf 58bd 154c 8bbc 7318 15bd
00000330: 1ca3 183d 22c2 85bb 0bfc 083d 54d1 ac3c
00000340: ba9e 24bd cc6c 783d f0ce 82bb 7c44 26bc
00000350: b1e1 8c3a b649 4ebd e613 4c3d 4559 a1bc
00000360: 7b0f 50bc ae4b b6bc 8ee0 95bc 9441 503d
00000370: 960f 793d 7953 9e3c dd3e 383d cb0d 083b
00000380: eb3c f03c dbd8 933c 8b45 033d 8e1c e53c
00000390: 3db4 953b 798b d33c 224c 403d 48f4 79bd
000003a0: 744f 61bd 7763 6b3d e8c4 02bc cb4e 23bd
000003b0: 4563 5bbc bbfb 543c a907 6dbd 6c4c 76bd
000003c0: 7493 653d dcdf 543d 212a 9a3c e910 ac3c
000003d0: f4c0 dfbb 72f4 31bd e1b4 42bd b969 d6bc
000003e0: 9ed6 b4ba b70f 5dbd 97da dabc a3ae 28bd
000003f0: 65bb 653d d662 403d 9243 82bc 8376 d6bc
0.0050942544 0.054911613 0.04539085 0.0592039 -0.027166927 0.01827652 0.040891666 0.02434195
-0.068426 0.023259923 0.0067579146 0.016705194 0.004956637 0.017578222 -0.03467122 -0.00078127754
0.010190005 0.024552291 0.006952667 0.05353142 -0.00033643833 -0.016920555 -0.0030290028 -0.0013031786
-0.03992952 -0.041163255 -0.0055657206 0.05720258 0.028429125 -0.030188605 0.026729917 -0.041399006
0.04673505 -0.0003892299 0.035952426 0.014068088 -0.052885186 -0.06258218 -0.018985385 -0.03497697
-0.042492274 0.055642933 0.03514113 0.059823006 -0.061735995 -0.064132035 0.0267487 -0.0034535343
0.0063808393 0.04903655 -0.046436366 0.035384562 0.039401993 0.03932166 -0.011549765 -0.010434368
-0.026675709 0.0004765246 0.0544873 0.0002270295 -0.014073386 0.05234582 -0.06537996 -0.006649741
0.009131922 -0.008362511 -0.0066553685 0.048535693 0.05411872 -0.06234426 0.033213608 -0.0452855
-0.013359852 0.006691049 -0.0062366915 -0.02165107 0.05004778 0.014229733 0.04319223 0.030638695
0.033300404 -0.044142593 -0.053409863 0.027893255 -0.02455218 -0.005963679 0.0023133724 -0.057193097
0.053530555 0.008726068 -0.026081378 -0.058416434 -0.0043848404 0.052177545 0.027671367 -0.016932717
-0.039243557 -0.04563344 -0.057567302 0.032601207 0.012694913 0.047737487 -0.0011294225 -0.060424324
-0.022588724 0.042652894 0.054631155 0.0074150558 0.02891491 -0.007957877 -0.030550927 -0.027476676
-0.05233117 -0.04471888 -0.029351706 -0.055542678 0.012517281 -0.018323407 0.006472294 0.03773286
-0.0030570822 0.050162558 -0.04125267 -0.031416334 0.014302513 -0.028883116 0.01754882 0.0100442935
0.022697767 -0.019210301 0.029144555 -0.01029088 -0.05646407 -0.038719438 -0.045498047 -0.059288558
-0.01008456 -0.039455324 -0.029780444 -0.04611103 0.054152824 -0.043996785 -0.021551425 0.03494118
-0.027241915 -0.008826937 0.026924936 -0.008247001 0.015665973 -0.07430772 -0.015243734 0.050542276
0.042604763 0.01595378 -0.065116405 -0.041910682 -0.053768773 0.035932574 0.041417032 0.028979862
0.028845936 0.050462138 -0.035079934 0.04247012 0.029554198 -0.05186475 0.052149154 -0.015397531
0.002828454 0.04211281 0.036842886 -0.060156558 0.033810187 0.007922156 -0.023289641 0.05943691
-0.026304675 0.047068015 -0.03240014 -0.04324775 -0.025258252 -0.009555473 0.039252292 -0.050741863
0.024217788 0.026741922 0.03377827 -0.0054724296 0.010456397 0.0030010992 -0.03319118 -0.04472
-0.043796867 0.008630059 -0.051596932 -0.030963747 -0.04484073 -0.053296193 -0.057825617 0.049749386
0.023893526 -0.05291692 -0.017004052 -0.03640027 0.03726493 -0.0040819803 0.033443492 0.02109591
-0.040190436 0.06065063 -0.003991954 -0.010148164 0.0010748414 -0.050363265 0.049823664 -0.019695887
-0.012699003 -0.022252884 -0.018295553 0.05084379 0.06080588 0.019326912 0.044981826 0.0020760174
0.029325923 0.01804774 0.032048743 0.027967717 0.004568605 0.025823342 0.046947606 -0.06102398
-0.055007413 0.057467904 -0.007981516 -0.039870065 -0.013390367 0.01299947 -0.057868633 -0.060131475
0.056048825 0.0519713 0.018818917 0.021004157 -0.0068284217 -0.04344601 -0.04753578 -0.02617346
-0.0013796871 -0.053970065 -0.02671556 -0.04118217 0.056086916 0.046969257 -0.01590136 -0.026179558
