pth of PINN/pinn_fiber_elasticity.pth (torch, 670140 bytes, 10 tensors)

net.0.weight f4 [128, 2]
00000000: 191b cabe 9caa 87be a52b 8dbe 77af 1b3f
00000010: 6f5f 063f df83 3abe ed54 27be af3f 14bf
00000020: fe9b 013f 6bc2 bf3e 9471 26bf 57da 50be
00000030: 19c1 09bf be23 093f 2f81 d0be 03ad 91be
00000040: afe3 ce3e 8239 623e eca9 fb3e 0686 a1be
00000050: e9f1 1abf 83dc f33e 239f ddbe 2c3a 9c3d
00000060: 7f4b 4fbe 576f b0be a0f4 203f 7af4 a33e
00000070: 2cb3 c53e e895 823e 7a99 233e e025 db3e
00000080: 1459 db3d 825f 05be 0238 b93c 63ff de3e
00000090: e6c9 ca3e 91ab 9e3e dd25 cabe 4f38 823e
000000a0: a973 223f 03f0 03bf 695f 8b3d c4c9 563e
000000b0: 5c69 a4be 8971 14bf e03b 683e f858 c93e
000000c0: 3fd1 9bbe defd a2be e1f2 85be ac93 5dbd
000000d0: 6c56 443d e09c a4bd 4afa c53e 3f14 c33d
000000e0: 76e4 19bf e2ae d93e d5cc a73e 9577 26bf
000000f0: 17f8 e5be 7c75 2d3f 867e fe3e 0530 a0be
00000100: d114 e73d 20dd c0be f0c3 a93d 316a 803e
00000110: 1130 60be 5466 cdbe 35de 2ebf 0536 113e
00000120: 7d81 1c3f 20ac 42be fe2e 95be 7ee0 e23e
00000130: 48ec 8a3d b5a6 8e3e bd4c dbbe 3edc e83d
00000140: 0d74 863e df47 cd3c 2076 973e 258a d0be
00000150: 8bb4 49be ba85 7abe 3de0 05be 44a0 83be
00000160: b264 1b3f 7000 c43e 19be f7be e54b 2b3f
00000170: f384 3bbe 3ab5 febe 5e41 2bbf e473 0abe
00000180: 1b56 4c3e b226 483e 7326 323e 397f 5b3e
00000190: 92b4 59be d42b 073f 6dc1 a63e bd99 17bf
000001a0: df92 0a3f 5d4e ba3d 494b 94be 04a0 973d
000001b0: 2f65 9dbe 82f4 a6be af6e d53e 0134 aebe
000001c0: a99e 29be d945 c8be 4c75 77be 32cb 0a3f
000001d0: 52bb fd3e 37fc 763c a3bf c8be ea33 b8be
000001e0: 75b0 1bbe b4d9 35be 8453 07bf e061 6b3e
000001f0: 27a9 06bf 9918 4c3e 7975 563d ee1a 2a3f
00000200: c54b c23e 87da 073f 94e5 31bf 8a73 6abe
00000210: c707 303e 7907 27bf ac0a 323f 6e64 29bf
00000220: ea79 73be a0c2 b73e 9a95 b73e a6e5 603e
00000230: 0e23 c73c 1f73 a0be 0664 1abf 3713 863e
00000240: 0172 02be cb52 243f 4af3 7ebe 0991 133f
00000250: 618e c13c 79a8 1fbf 414a 093f 821f 143f
00000260: f861 2fbf abc1 05bf 4ec8 7a3e 770f 073d
00000270: e771 07bf e33b 313f 61bb 00bf d393 0abf
00000280: 1ddd ad3e 68b7 2c3f 43ca 02bf 2f7f 2c3f
00000290: 083a 12be ab13 17bf 2457 043e 016c fabe
000002a0: a323 38be 1642 213f 6eff 85be 53d4 243e
000002b0: 1958 113f d6a9 293d 0e60 dfbe ad30 f4be
000002c0: 8223 31bf 42da 253f 3d98 febe be20 db3e
000002d0: 9651 0abf 619c 19bf c887 ea3e 8234 20bf
000002e0: 2911 28be 0529 95be 06ae 9dbe e662 a73d
000002f0: df21 033f 683e 26bf 0b59 0a3e 3fee 983d
00000300: 43a1 a7bd 31e9 523e bb55 ddbe 5b88 973d
00000310: 015d 1dbf ae25 01bf 734b aa3b 8fb0 8d3d
00000320: faac 123f 107f 163c a4ac cdbe d0b2 cf3d
00000330: b1c3 2a3f f3d4 153f b46f ccbe 50f6 c0be
00000340: 1299 023f 838a 1e3e d8f9 503e 3ee5 013e
00000350: f9b1 503d 7740 fbbe be2e 023f c55d 883e
00000360: e70c f03e 8ec6 4fbd c7a4 16bf b62a 133f
00000370: 2677 193f b2f4 72be 59db ce3e d452 ecbd
00000380: a248 2dbe f219 083f df8f 28bf dcc5 873e
00000390: 7010 54bc 2f71 22bf 1ae4 ba3b cce4 17bf
000003a0: 1f99 9fbe 59c1 28bf 3c1e bb3e 9be1 f33e
000003b0: d422 883e 45cd 19be 3b12 3bbe c9aa 903d
000003c0: d126 f33e 873e c4be 895c dcbe 0cae 03bf
000003d0: 0b45 213e e907 2bbf 1a42 263f 8c8b 7a3d
000003e0: e9d3 98be 98be 003f dfef edbc 8371 0abe
000003f0: e20b 2bbd ade9 183f a8f7 17be b362 9abe
-0.394738 -0.26497352 -0.2757236 0.60814613 0.5248937 -0.18214367 -0.1634099 -0.57909673
0.5062865 0.37453017 -0.65017056 -0.2039579 -0.5381027 0.53570163 -0.4072356 -0.2845231
0.40408084 0.2209225 0.49153078 -0.31547564 -0.60525376 0.47629175 -0.43285474 0.07628283
-0.20243643 -0.34459946 0.6287327 0.32022458 0.3861326 0.25504994 0.15976515 0.42802334
0.1071035 -0.13024715 0.022609714 0.4355422 0.3960716 0.3099027 -0.39482012 0.25433585
0.63457733 -0.51538104 0.068053074 0.20975405 -0.32111633 -0.5798574 0.2267909 0.3932569
-0.3043308 -0.3183431 -0.26161864 -0.05409591 0.04793398 -0.08037734 0.38667518 0.09525346
-0.6011423 0.42516237 0.32773462 -0.6502622 -0.4491584 0.6775739 0.49705905 -0.31286636
0.11283267 -0.37668705 0.08289325 0.25081018 -0.21893336 -0.40117133 -0.6830781 0.14180763
0.61135083 -0.19010973 -0.29137415 0.443119 0.06783348 0.27861562 -0.42831984 0.11370133
0.26260415 0.025058685 0.2958231 -0.40730396 -0.19697778 -0.24465075 -0.13073821 -0.2570821
0.60700524 0.38281584 -0.4838722 0.6691268 -0.18312435 -0.4974764 -0.6689662 -0.13520771
0.19954722 0.19546011 0.1739748 0.2143525 -0.21260288 0.5280125 0.32569447 -0.5921896
0.5413036 0.09096978 -0.28963688 0.074035674 -0.3074126 -0.3260842 0.41686007 -0.3402405
-0.1656443 -0.3911579 -0.24165839 0.542163 0.49556977 0.015074781 -0.39208707 -0.35977107
-0.15204032 -0.17758828 -0.5286181 0.22986555 -0.52601856 0.19931258 0.052358124 0.6644734
0.37948433 0.5306782 -0.69490933 -0.22895637 0.17190467 -0.6524578 0.69547534 -0.6616887
-0.23776975 0.35890675 0.35856324 0.21962604 0.024308708 -0.3133783 -0.60308874 0.26186535
-0.12738802 0.6418883 -0.24897495 0.5764318 0.023627462 -0.62366444 0.5362893 0.5786058
-0.68508863 -0.5224864 0.24490473 0.032973733 -0.52908176 0.69232005 -0.5028592 -0.5413181
0.3395776 0.67467356 -0.51089877 0.67381567 -0.1427995 -0.59014386 0.12923867 -0.48910525
-0.17982344 0.62991464 -0.2617144 0.1609662 0.5677505 0.041421734 -0.4362797 -0.47693387
-0.69194806 0.6478616 -0.49725524 0.42798418 -0.5403074 -0.6000424 0.45806718 -0.6258012
-0.16412796 -0.29132858 -0.30796832 0.0817316 0.5122356 -0.64938974 0.1351053 0.07467317
-0.08185055 0.20596768 -0.4322947 0.073990546 -0.6147004 -0.5044812 0.0051969825 0.069184415
0.5729519 0.0091855675 -0.40170777 0.10141528 0.6670485 0.5852806 -0.39928973 -0.37687922
0.51014817 0.15482526 0.20407808 0.12685105 0.050950978 -0.4907262 0.5085257 0.2663404
0.46884844 -0.050726466 -0.5884518 0.57487047 0.5994743 -0.23726156 0.40401724 -0.11539236
-0.16922238 0.5316459 -0.6584453 0.26518142 -0.012943372 -0.63453954 0.0057034614 -0.5933349
-0.3117151 -0.65920025 0.36546504 0.4763306 0.26589072 -0.1501971 -0.18268673 0.07063825
0.47490552 -0.38328955 -0.4303935 -0.5143745 0.15748994 -0.66808945 0.6494461 0.06116824
-0.29849175 0.50290823 -0.029045044 -0.13519864 -0.04175938 0.5973156 -0.14840567 -0.30153427

net.0.bias f4 [128]
00000000: 0daa 673c d761 0d3d 9ab2 123e b909 4bbe
00000010: c7c3 93bc e15e 0cbf 0639 bbbe b9d0 69be
00000020: 653f 1cbf 18a1 06bf afc1 e8be 6d7e 773e
00000030: 1583 183f f4f9 01bf cb87 2abf 688a 603d
00000040: 3298 423e 0656 1e3e 064d 343f c3eb 7abd
00000050: 6c7b 98be 3f9e 85bd f082 253f 5b6c 14bf
00000060: 8df2 e23e 40cc abbd 6b19 153f ff4a 2d3f
00000070: 8278 1dbf 9157 b33d dce9 ee3e 62cd 0ebe
00000080: 6cbf 223b 55d7 29bf 8260 d2bd 1d74 233d
00000090: 319a 003f e490 043f cb79 64bd 144e 00be
000000a0: a469 ad3e 0e8a c0bc 2d1e 16be d30b 33bf
000000b0: 806f 31be 8bb3 5ebe ea9f 033e d477 23bf
000000c0: 130e 893e ce87 d9bc ed89 af3e 4f6b e3be
000000d0: c889 b53d 372c c23d 9b9a ec3d bf73 ff3e
000000e0: a7bb 263f bd08 06bf 8f39 a9be 608a 713d
000000f0: 750d b5be 176b 14bf 0e92 093f 1d4e 123e
00000100: ba9f af3e 804b f6be cbc6 a7be b45d c9be
00000110: 53f9 cd3e a269 73be 0ea5 0fbf a828 b0bd
00000120: 89ad da3e 115e 71be 081f 02bf 57cf babd
00000130: 5478 81bc a56f 3d3d 6855 b43e 19f5 f9bd
00000140: 8fa5 43be 5661 a1be 4b2c 8ebe a2b2 77be
00000150: 2384 31be aaf6 2ebf 2ad5 85be 8687 933e
00000160: 9c49 2cbf 7f6e e93d c7e3 e63e 851f 003f
00000170: 4d3f 8ebd 8412 10bf 399d 4d3e 568e f2be
00000180: e93d 403d cf29 b3be e2c5 ee3e c9a7 2f3f
00000190: 71dc a8bd 921f f13e 6c15 6b3e 19a4 023d
000001a0: 27e5 4cbe c37b 2a3f 18e4 5d3e e93d a4be
000001b0: 4fc3 88be 477b 95bd 2538 33be a4e1 96bd
000001c0: 66f3 8f3d 14a1 ef3e 718c c1be ff1f 053f
000001d0: 1b90 80be 82df 18bd 91bb 0f3f b3b7 b03e
000001e0: 4a0a 9cba 469a 323f e939 463e f5c1 273f
000001f0: 494a 19bf 7719 2f3f 8c7c 533e 3bb6 12be
0.014139664 0.034517135 0.14325944 -0.19827928 -0.01803769 -0.54832274 -0.36566943 -0.22833528
-0.6103423 -0.5258956 -0.4546027 0.24169321 0.59575015 -0.50772023 -0.66613454 0.054819494
0.1900337 0.15462503 0.7043003 -0.061259996 -0.29781663 -0.06524324 0.6465292 -0.5797784
0.44325677 -0.08388567 0.5824191 0.6769256 -0.61512005 0.08756936 0.46662796 -0.13945535
0.0024833335 -0.66344196 -0.10272314 0.039905656 0.5023528 0.51783586 -0.055780213 -0.12529784
0.3386966 -0.02350333 -0.14659949 -0.6993992 -0.1732769 -0.21748178 0.12853971 -0.6385472
0.2676855 -0.026554015 0.34284917 -0.44417807 0.0886417 0.094810896 0.11552926 0.49892995
0.65130085 -0.52357084 -0.33051726 0.058969855 -0.3536183 -0.57975906 0.53738487 0.1428761
0.3430155 -0.48104477 -0.32768854 -0.39329302 0.40229282 -0.23770764 -0.5611123 -0.086015046
0.42710522 -0.2357104 -0.508286 -0.09121578 -0.015804447 0.04624905 0.3522141 -0.12204952
-0.19106124 -0.31519574 -0.27768168 -0.24189237 -0.17335562 -0.6834513 -0.26139194 0.28814334
-0.6729982 0.113980286 0.45095655 0.50048095 -0.069456674 -0.5627825 0.20079507 -0.4737422
0.046934042 -0.34992835 0.46635348 0.68615395 -0.08245171 0.470944 0.2295739 0.031894777
-0.2000929 0.66595095 0.21669042 -0.32078484 -0.2671151 -0.07298904 -0.17501886 -0.07367256
0.070288464 0.4680258 -0.3780246 0.5200195 -0.25109944 -0.03732253 0.5614558 0.3451515
-0.0011904922 0.6976665 0.19358028 0.6553033 -0.59878975 0.6839823 0.2065298 -0.14327328

net.2.weight f4 [256, 128]
00000000: 53c4 dfbc 5649 a73d 5051 393d fd79 963d
00000010: 3186 3fbd 4c50 683c b239 523d ad9b abbd
00000020: 4b07 963d 3af8 fabb 8ce4 a13d 24f9 6c3d
00000030: 5480 7a3c 8fe8 843d 317c 36bd 5438 9c3d
00000040: b738 9c3c f9c4 3d3d fd5d 9c3d 8c7d 36bd
00000050: 860a 54bd f1e3 b4ba 800e 343c 65ec 5abd
00000060: 712c 1d3c e263 b43c 0dd8 4cbd 6960 dd3c
00000070: 9953 00bd f297 bc3c 664f 033d 7060 afbc
00000080: ec51 02bc 7db7 5dbd 9c84 c9bc 3227 01bc
00000090: 04da 29bd 553f 85bd 6c3f eb3c a62b 0b3d
000000a0: 0648 9e3d 838f a33d c00c 223d e017 4dbc
000000b0: b88e 8a3d 3bce 86bd 5816 5ebd d37b 84bc
000000c0: 06cc b8bd f85b 1a3d c757 933d ffbc 52bd
000000d0: 0433 8bbc 7810 c43c f17b e7bc 3d44 a23c
000000e0: 6083 033d d52e 8fbd 1cce 1f3d 169f 0fbc
000000f0: a32c a2bd 5788 853d f192 3a3b 3180 4d3d
00000100: 11b8 a4bd c01e 7c3d 33db feba 0f0c d8bc
00000110: 4e99 ef3c 264b 61bd d6ee a53d 0ffe 10bd
00000120: 0909 7abd 85e7 2dbc ac09 10bc 5ab7 e1bc
00000130: 86be 243d e075 a33d 6dc6 5a3b ec5b 8abd
00000140: 3b90 6abd 2ccb 59bd 5cc2 793c 620e 73bd
00000150: 0f3c 613d c6c3 a63c dae2 b2bc e328 6cbb
00000160: 1dc2 9f3d 99df 943d 82c9 8ebd f00b c1ba
00000170: 0f1c a03c 159f 83bc c8a4 823d a7f3 003c
00000180: 240e d8bc 73aa 073d b6e1 adbd 9205 c83c
00000190: cc3d aa3d 6a33 8c3c 25fd 6fbd 5967 9dbd
000001a0: c94f 833c dee0 3e3d 61a7 ac3d 4f43 1bbd
000001b0: f3fb 663d be4b 95bd 4edf 9e3d acf5 9bbb
000001c0: 86df f0bc 1162 393c 5ca8 673d d8b2 6abd
000001d0: 5006 49bd 5847 d83a 7521 a23c 11c6 43bc
000001e0: 2a9c 073d ef35 32bc 3b96 33bd efc4 c73c
000001f0: bc76 933d 9b8d 20bd c3e0 afbc 9c08 5bbd
00000200: e433 3d3d 7812 6c3d 4b0c 8e3d 6f4a 983d
00000210: 9662 523d ed69 b83c 8aad 133d cdee 5abd
00000220: 0bff 7abd 35d2 363d a628 3fbc c577 85bc
00000230: ac21 22bd 6dde 9e3d 600c b1bd 64f8 65bc
00000240: 4273 8abd a54d 17bd 1659 b7bd ae82 6dbd
00000250: 9772 ef3c 50ca 46bd 9475 583d 0d33 99bc
00000260: d8bd 78bd a159 273d 7bf5 763b 4b9b 153d
00000270: 3672 a23d 844e 20bd 19c0 0f3d fa76 70bd
00000280: bd55 4f3c 063a ae3d 9c67 a1bd 0fd7 9abd
00000290: 7a4f b2bd 8abf 553d a872 b7bd 379c 0a3d
000002a0: 1c64 0cbd 5565 40bc 3716 90bd c2d5 c13a
000002b0: a2b0 06bd 1f61 adbd 959c 94bb 63a7 b0bd
000002c0: 3740 5b3d 067b b73b fe13 02bd 77cd 7bbb
000002d0: da54 62bd 476b 1cbd 4f1f 31bb 36e2 293d
000002e0: b8c1 4dbc 5076 46bd 8afd 823d 5604 5dbd
000002f0: 1d0c 703d fd76 a7bd 2ce5 8a3d 82fd 343b
00000300: e48a 113d bc56 0dbc 039b b6bd f9d7 58bd
00000310: 21b9 c93c 7ead 82bd bcdf a43c e5c0 8fbd
00000320: 3549 1a3d ddbf 413d 9d41 003d eee9 5ebd
00000330: 3b1e 84bd 1747 4b3d d72a 6aba 9940 993c
00000340: 1851 0e3d bc97 e33b cb80 3f3c ba98 75bc
00000350: f8cf 943d b2dd 3cbd 5d3b 463d dbc5 6e3c
00000360: c9a2 8dbd 6c65 313d 7a72 033b 034f 8c3d
00000370: 0d6a bcbc 4325 e5bc aaaa 3f3c 68e0 853d
00000380: d94e a13d a79f 0b3d 364e acbd 289c 12bd
00000390: 31bd a0bd a825 d3bc b747 73bd 28c0 2bbd
000003a0: 69c3 92bd b030 d43c 4bf4 1dbd cfbb 483d
000003b0: 2c05 2a3d 56d2 c8bc fb9b dbbb cefd 28bd
000003c0: 155d 823d b624 443d 8af3 883c 6bad 47bc
000003d0: 6936 33bd 3a24 18bd 6115 ef3b 54bd 5fbd
000003e0: 5a60 9e3d 3891 3a3d b99c 79bd b3a4 1bbd
000003f0: 70d5 15bc 96f2 7d3d 113c de3c f7ba 1ebc
-0.027315294 0.081682846 0.04524356 0.07347486 -0.046758834 0.0141793005 0.051324554 -0.08379302
0.0732561 -0.0076589854 0.0790492 0.057854787 0.015289385 0.064896695 -0.044552032 0.07627931
0.019070012 0.046330426 0.07635114 -0.044553325 -0.05176785 -0.0013800842 0.010989785 -0.0534481
0.009593115 0.022020284 -0.05001073 0.027023511 -0.031329725 0.023021672 0.032058142 -0.02140829
-0.007954102 -0.054130066 -0.024599366 -0.00788288 -0.04146768 -0.0650622 0.028716765 0.033977173
0.07728581 0.07986357 0.03956294 -0.012517899 0.06765503 -0.06582304 -0.054220527 -0.016172325
-0.090232894 0.037685364 0.071944766 -0.051449772 -0.0169921 0.023933634 -0.028257342 0.01980793
0.03210771 -0.069913544 0.03901492 -0.008765956 -0.0791867 0.065201454 0.0028468932 0.05017108
-0.080429204 0.061552763 -0.0019443989 -0.026372937 0.029247906 -0.055003308 0.08102195 -0.03539854
-0.061043773 -0.010614281 -0.008791368 -0.02755325 0.04022076 0.07981467 0.003338243 -0.06755814
-0.057266455 -0.053172275 0.015244093 -0.05933989 0.054988917 0.020357024 -0.021836687 -0.0036035113
0.07800696 0.0726921 -0.06972028 -0.0014728289 0.01954463 -0.016067067 0.06379086 0.007870591
-0.02637393 0.033121537 -0.084903166 0.024416719 0.08312568 0.01711436 -0.058591027 -0.076857276
0.016029255 0.04660117 0.084303625 -0.037905987 0.05639262 -0.07289837 0.07757436 -0.004759511
-0.02940346 0.011314885 0.056557044 -0.057299465 -0.049078286 0.0016500754 0.019791344 -0.011949078
0.033107914 -0.010877117 -0.043844443 0.024385897 0.07200381 -0.039197545 -0.02146948 -0.053475007
0.046192065 0.0576348 0.069359384 0.07436072 0.05136355 0.022511447 0.03605417 -0.053450394
-0.061278384 0.044634063 -0.011667406 -0.016292462 -0.039582893 0.07757268 -0.086449385 -0.014036272
-0.06760265 -0.036939282 -0.08952539 -0.057985954 0.029229445 -0.048532784 0.052846506 -0.0187011
-0.060727924 0.04085696 0.003768294 0.036525052 0.0793194 -0.03913738 0.035095308 -0.058707215
0.012654719 0.08507161 -0.0788109 -0.075605504 -0.08706565 0.05218462 -0.08957416 0.033840384
-0.03427516 -0.011742909 -0.07035487 0.0014788436 -0.032883294 -0.0846579 -0.0045352676 -0.086256765
0.053528037 0.0055993823 -0.031757347 -0.0038422027 -0.055256702 -0.038188245 -0.0027026718 0.041475497
-0.012558393 -0.048452675 0.06396015 -0.053959213 0.058605302 -0.08176992 0.06781992 0.0027616923
0.035532847 -0.008626636 -0.08916285 -0.052940343 0.02462441 -0.06380747 0.020126216 -0.070192136
0.037667472 0.047302116 0.031312574 -0.05442231 -0.064510785 0.049628343 -0.0008932775 0.01870756
0.034745306 0.0069455784 0.0116884215 -0.014990026 0.072662294 -0.046109863 0.048396457 0.01457354
-0.069158144 0.043309614 0.0020057247 0.06851008 -0.022999788 -0.02797187 0.011698404 0.06536943
0.07876367 0.034087803 -0.08413355 -0.035793453 -0.078485854 -0.025774792 -0.059394564 -0.0419313
-0.07166178 0.025902122 -0.038563054 0.049007233 0.04150884 -0.024514358 -0.006701944 -0.041257672
0.0636541 0.047886573 0.016717691 -0.012187342 -0.04375306 -0.037143923 0.0072962497 -0.054623917
0.07733221 0.045548648 -0.060940478 -0.037998866 -0.009145126 0.061998926 0.027128251 -0.009688131

net.2.bias f4 [256]
00000000: b40b aabd 6c5f 7f3d 48cd 44bc 5416 a83d
00000010: 640c 683d 9504 86bd ecf2 94bd 7371 aabd
00000020: 6b71 763d 5078 c83a 2ea8 3f3c 8887 eabc
00000030: 5b96 80bd 3ab6 b3bd f80e 9c3d f192 64bd
00000040: 6a45 313d 0cb1 5a3d 1493 893d 357b 41bd
00000050: 6633 88bd 270a aabd 47b7 913d 4f8e f0bc
00000060: 5255 033d 4b3a 823d 1aea 62bd f466 cbbb
00000070: 2c4a 6cbd f121 033b fb8c abbd a1e4 073d
00000080: 6626 413c 0666 873d 6341 a7bc 673f e4bb
00000090: cbbe 97bd ae07 183d 1cb7 443d ad38 23bd
000000a0: 943e d5bc d8d0 2f3d b197 a5bd 0280 4fbd
000000b0: 8224 b1bd 71b6 babd ebe6 393b 04da 5cbd
000000c0: f259 1bbb 85f8 18bd fe0b 63bd f6f5 ad3d
000000d0: d3c3 143d 7591 0e3d 92a3 e93a c5eb 913c
000000e0: 3467 9cbd 1aad fe3c b084 8fbd f4b5 71bd
000000f0: 40d4 bd3d 9cf8 a43c c3c9 4bbd b65a 9abd
00000100: 98a1 92bc 2237 4c3d 82f6 a23d 879c 4d3c
00000110: c2b9 70bd 1339 d03c 49d7 513d 1c1f 1b3d
00000120: dd91 56bd 1fc2 3ebb 5d39 acbd 0001 013c
00000130: 5d15 0cbc c1a6 483b 7231 d23c ccbe 113d
00000140: f615 e3bc ecf9 9b3d 257d 86bd 19d9 8bbd
00000150: 6b08 623d c05d a7bd c5c7 8fbc fb40 8abd
00000160: 3d2a f53c 378e ea3c 28d7 29bd d3b4 5b3c
00000170: cdf6 fb3b 411a f23c 2c50 c1bd 6be1 9d3d
00000180: 27e5 46bd d170 893d 27ed 673d ed2a 91bd
00000190: 5d8e a63d 7106 623d d275 d0bc 4af9 0c3d
000001a0: c4a2 5fbc a046 0d3c 9afc 5e3c e931 9b3d
000001b0: 2103 ae3d 3ca6 9ebc 3b7f febc 850c 62bd
000001c0: 774b ec3c 43bf 8b3d 0314 93bd 4afc 7a3d
000001d0: fe62 30bc e538 cbbc 55b3 91bd f4f8 12bc
000001e0: 0ce2 64bd 84ac b4bb a254 6b3d 180d 5fbd
000001f0: 1455 353d 73c9 bfbd 89c2 85bd 82b2 fd3c
00000200: bcd7 dfbb 06f0 1f3d 73a6 803d dac6 a6bd
00000210: 2fbf 683d 98e2 333d dae3 23bd b5ad 45bd
00000220: 391a 833d 38f0 8b3d 619f 8c3d 5d96 8a3c
00000230: 4c1f a33d 883c b53c 3ea9 8b3d 5b34 9dbc
00000240: ed2f fcbb ac58 be3b 1d68 81bd 83d8 5bbb
00000250: 732f 033c d1d1 493d 529d ce3c c5b3 a83d
00000260: 373e 813c 17aa 573d c3c9 80bd ae26 99bd
00000270: d4f9 6abd 32b4 793d 38e2 8dbc 26b0 0abd
00000280: b938 a8bd 0180 2ebd 7bfd 8e3a 6f56 413d
00000290: 7505 eb3a 349e db3c 48cb 983c 42ad 85bd
000002a0: bc1c 72bd e1dc 97bd ccc0 463d c153 f0bc
000002b0: 0e4e 853d e067 b03d 0b0d 84bd 4b92 803c
000002c0: d7b4 d43c 204c 31bd b165 80bd f85a 8f3d
000002d0: 81fc 08bd f870 80bd cd62 e03c 8428 653d
000002e0: 8ecb 74bc 19f5 72bd 270d 04bb 581b 46ba
000002f0: d3fa 903d 4ed7 8f3d 53fd 3b3d c8b9 d53c
00000300: cae2 d43c e605 133e e7fe 97bd f0e0 8e3d
00000310: fbbc b73d 4267 203b d619 51bd 7ffa de3c
00000320: bbfc 823d c90b 67bd dcab 093d 5eef 61bc
00000330: 0f09 7ebd 6114 b9bd 9e73 ee3c b7dd 2fbd
00000340: b3f2 94bb 8f64 da3b 74da b4bd 87e7 8c3d
00000350: e469 5c3c 677c 983c 31cc 983d 58a3 71bd
00000360: a133 aa3d baf2 763d 525e 92bd 7fbf 783d
00000370: 7d98 9ebb a36f 893d ff35 0e3d 6572 a6bd
00000380: aa82 8cb8 58fa 66bc c01c 753d 8526 8ebd
00000390: 8a68 943c 78fe a7bd 6911 b53d bc14 a7bd
000003a0: 9ff1 053d 8814 09bd 5509 93bd 468c 5dbc
000003b0: f398 423d 9b3e b7bd ca1b 5fbd a8a2 1e3d
000003c0: bf98 7c3d 4c80 b33c 4bc4 90bc 0e53 debc
000003d0: 6e7a 693d bebc 4abb 42a3 5b3d be95 8bbd
000003e0: 8c99 833c 699b 7e3d 17bd a43d 7950 93bd
000003f0: 457e aabd 44ce 3abd 396e 2ebd 37b9 b2bc
-0.083030134 0.06234686 -0.0120118335 0.08207384 0.05665244 -0.06543843 -0.07272896 -0.0832242
0.060166758 0.0015294645 0.011697812 -0.02862908 -0.06278678 -0.08774991 0.076200426 -0.055804197
0.04327909 0.0533915 0.06717506 -0.04723664 -0.066504285 -0.08302718 0.071150355 -0.029364733
0.03206379 0.06358775 -0.055399038 -0.0062073413 -0.057687923 0.0020009244 -0.08376499 0.033177022
0.01178894 0.06611256 -0.020416921 -0.006965566 -0.07409438 0.0371167 0.04802619 -0.039848972
-0.026030816 0.04292378 -0.080855735 -0.050659187 -0.086495414 -0.09116829 0.0028366398 -0.053918853
-0.0023704735 -0.03734638 -0.05543136 0.08494179 0.036319565 0.034806687 0.0017825237 0.017812619
-0.07636872 0.0310884 -0.0700773 -0.059011415 0.09268999 0.020138077 -0.04975296 -0.07536833
-0.01789932 0.049857266 0.07957174 0.012549526 -0.058770902 0.02541784 0.051230703 0.037871465
-0.0523852 -0.0029107404 -0.08409379 0.007873774 -0.008550015 0.0030616971 0.025658343 0.03558235
-0.027720433 0.07616028 -0.06566838 -0.068285175 0.05518381 -0.08172178 -0.017551312 -0.06750675
0.029927367 0.028632266 -0.041464955 0.013409811 0.007689333 0.029553534 -0.0943912 0.07709011
-0.04855838 0.06710971 0.05662265 -0.070882656 0.081326224 0.055181924 -0.025446806 0.034417428
-0.013649646 0.008622795 0.01361003 0.07577879 0.084966905 -0.019366376 -0.031066528 -0.05518772
0.028844578 0.0682359 -0.07181551 0.061275758 -0.010765789 -0.024807403 -0.07114283 -0.008970488
-0.055879638 -0.0055137295 0.05745376 -0.054455847 0.04427059 -0.09364595 -0.06531245 0.030968908
-0.0068311375 0.039047264 0.06281748 -0.08143397 0.056822952 0.04391727 -0.040012218 -0.048261363
0.06401486 0.068329275 0.068663366 0.016917402 0.07964954 0.02212359 0.0681939 -0.019190004
-0.007696143 0.0058089104 -0.06318686 -0.00335458 0.008006918 0.049272362 0.0252215 0.08237413
0.015776737 0.052652445 -0.06288483 -0.07478081 -0.05736716 0.060962863 -0.017319784 -0.033859394
-0.08213944 -0.042602543 0.0010909283 0.04720157 0.0017930703 0.026808836 0.01865162 -0.06527187
-0.059109434 -0.07415176 0.04852371 -0.029336812 0.065090284 0.086135626 -0.064478 0.015694758
0.025965137 -0.04328549 -0.06269396 0.06999773 -0.03344393 -0.06271547 0.027390862 0.05594684
-0.014941109 -0.059315775 -0.002014944 -0.0007557175 0.07079091 0.07023488 0.045895886 0.026089564
0.025987048 0.14357719 -0.07421666 0.06976497 0.08971592 0.002447561 -0.05105003 0.027219055
0.06395861 -0.056407724 0.033611163 -0.01378998 -0.062020358 -0.0903709 0.029107865 -0.042936053
-0.0045455336 0.0066648195 -0.08830729 0.06880098 0.013452981 0.018614007 0.074608214 -0.058993667
0.08310629 0.060290076 -0.071468964 0.0607295 -0.0048399554 0.06710746 0.034719463 -0.08127288
-6.700058e-05 -0.014097773 0.05984187 -0.06940941 0.018116254 -0.08202833 0.08841211 -0.08158252
0.03270113 -0.033466846 -0.07179514 -0.013522213 0.047509145 -0.08947488 -0.05446986 0.03872934
0.061669108 0.021911763 -0.017671725 -0.027139213 0.057001524 -0.0030935253 0.05362249 -0.068156704
0.016064428 0.06215993 0.080438785 -0.07193083 -0.08324865 -0.045606866 -0.042585585 -0.021816833

net.4.weight f4 [256, 256]
00000000: 1a8d 403c 3890 233d 5497 a3bb f271 c23c
00000010: 8027 61bd 1cad 35bd dd91 8a3c 69fa 81bd
00000020: 2666 e7bc d25d 033d 3f94 373d cdd7 26bc
00000030: bcb7 ddbb 4a60 58bb 1ab6 84bd 1597 1bbd
00000040: 8f8b 8abc d560 25bd 6e3b 39bd 116f b3bc
00000050: 5f9b 03bd 8b0c 7cbd a4be 363d 16c6 71bd
00000060: 9b3f 8dba bb29 1abc 9650 fe3c 63f9 743c
00000070: 0b21 48bd a058 3f3d 3a13 213d f33d 98bc
00000080: 418f 703b 839d 9eba 1ca0 88ba 4a09 45bd
00000090: 24eb e8bb 8829 39bd 88f5 b03c 499a f93c
000000a0: 0b62 68bd 0ed6 4f3d 6871 973c 7433 0f3d
000000b0: f588 d63c ad4e 19bd 0e41 f13c f2c7 a0bc
000000c0: 1c64 50bd 96ef 09bd 7706 70bd 5f19 203b
000000d0: fc1b 79bd 2d28 493d 5b40 573d 4527 c33c
000000e0: f9f0 5abd 84bf d13b d8d3 523d 3204 1d3c
000000f0: dfa3 9d3c 7539 c13d 4717 07bd 277f fbbc
00000100: 0daa 79bd b06e 2fbd 8f54 2dbd bcc9 abbc
00000110: 7a93 323d d6ca 7bbd a2b5 4c3c 5785 14bd
00000120: a3f3 f4bb 7f3f a7bc f845 a6bc 05cc 3fbd
00000130: 0a80 9fb8 fe75 a23c 899e 293d c917 c8bc
00000140: b300 ebbc 56f8 fabb d0cc b1bc 5e2b 303d
00000150: 23db 41bb cd97 7abb cfff 5fbd 3fdb 9cbc
00000160: 624e f6bc 2751 723d 42af 9b3c 79f7 47bc
00000170: f3d8 3dbd c473 1fbd 2990 413d dc79 553d
00000180: bf28 54bc 79b9 8bbc ceba 1a3d aa9f 6c3b
00000190: 9dc0 1d3d 0a53 7abd 6050 483d 7a02 5f3d
000001a0: 61c8 7dbd e52d 9c3b 1c31 433c 9509 2ebd
000001b0: 3100 883c 0cc1 0e3d 65b0 413c 0630 3e3d
000001c0: f49c 103c 7ba6 773d c5cf 453c bc78 8d3d
000001d0: f22c c6bc 0591 1fbb 60a7 daba f022 2cbd
000001e0: 8f5e 573b 8b4a 733b fe6a 843b 4a23 f4bc
000001f0: 67ad 44bb 6123 c33c 82f7 4d3c 9872 afbb
00000200: 0537 b93b e36c 2f3d 5b2e 2bbd 015a 97ba
00000210: 2aa7 48bd 2fb0 a63c a086 53bd b34b fa3b
00000220: fa65 ac3c 6d20 4c3d 0bc9 55bd c0c3 84bc
00000230: dc81 f23b 3cff debc 8301 4b3d fdc6 57bd
00000240: 426e 8ebb bf63 67bd f000 373d 8a28 fd3c
00000250: 60ca 32bd 1a48 4ebd 8db5 cc3c 159f 49bc
00000260: 1ac9 7bbd b809 fb3c fa5b 4c3c 0b18 bbbc
00000270: e5a0 7cbc ffce 723a 99fa 8e3d 0f96 e5ba
00000280: ea5d cdbc 9c21 ad3c 0869 763d 01c3 1cbd
00000290: 6058 1abd 9900 093d 9e0d 47bd 5842 303d
000002a0: 6bc0 f23b 4d18 0f3d fae4 82bd 91a8 75bd
000002b0: 8065 733d 1986 a7bc a45f 3d3d 5dd3 153c
000002c0: 4d19 263d a689 6abc 0a51 473d 779c 15bb
000002d0: 781c c7bb 1090 5d3d 9b77 8c3d ce3a b23c
000002e0: 37a1 703d a5ad 403b 4c12 18bd 64c1 bc3c
000002f0: 3f14 29bd b23b 80bd e122 833a cda1 b93c
00000300: 494c 043d 287d 293d 6542 81bc 6d20 6dbd
00000310: bfa4 20bc b2cb d13d 25c3 4a3d abd3 2ebd
00000320: 59d1 11bc bd3d 11bd d5cb 603c fb23 f8bc
00000330: f9e4 75bd dd88 38bd 2b0b ba3c 95c5 8dbc
00000340: 8a8c cebc c776 11bd 4790 973c 5651 0f3c
00000350: 9f43 36bd b59d 01bd 70b4 41bd ebee 79bd
00000360: f04d 5cbb e46a 5b3d 33a7 703d be4c 683d
00000370: ac35 82bd b792 35bd 1261 373d d5e5 adbc
00000380: 4bbc 4c3d 3a0b 1d3d e029 b33b 6c01 d4bc
00000390: c30d 853b 9a69 0c3d 8979 683c 3ec9 773d
000003a0: 9422 2339 810b a23c 3a32 d4bc 9170 18bc
000003b0: 528a af3c 493a 473d 0bcf 873c e09b 593d
000003c0: 6295 3eba 32ba 6dbd 1ff2 b33c 0cdb e7bc
000003d0: 1f9f 0bbd ac74 d0bc 5226 eb3c e09a a43c
000003e0: d9a9 7cbc 6b0b 413c d470 77bb eab6 19bd
000003f0: 54a9 0d3c 8c96 7f3d 612e 253d 6930 4abd
0.011752391 0.03993246 -0.004992405 0.023735974 -0.05496931 -0.044354543 0.016915256 -0.0634659
-0.02824695 0.032071896 0.044819113 -0.010183287 -0.0067662876 -0.0033016377 -0.064800456 -0.03798588
-0.01691225 -0.04037555 -0.045222692 -0.021903547 -0.032130595 -0.0615354 0.044615403 -0.0590268
-0.0010776402 -0.009409363 0.031044286 0.014952037 -0.048859637 0.04671538 0.039324977 -0.018584227
0.003670648 -0.0012101386 -0.0010423693 -0.048104562 -0.007108109 -0.045205623 0.021601453 0.030469077
-0.056734126 0.050741248 0.018486694 0.03496118 0.026188353 -0.037428547 0.029449966 -0.019626591
-0.05087672 -0.033675753 -0.058599915 0.0024429185 -0.060817704 0.04911058 0.05255161 0.023822436
-0.053452466 0.0064010043 0.05147156 0.00958352 0.019243179 0.09434787 -0.032981183 -0.03070028
-0.06095319 -0.04283017 -0.04231697 -0.020970218 0.043597676 -0.061472736 0.0124944765 -0.036259975
-0.007475333 -0.02041602 -0.020297036 -0.046825428 -7.60556e-05 0.019831654 0.041410957 -0.024425404
-0.028686857 -0.0076589985 -0.021704108 0.04301011 -0.0029580079 -0.0038237453 -0.054687317 -0.019147513
-0.030066673 0.059159424 0.019004468 -0.012204998 -0.046349477 -0.038928762 0.047256622 0.052118167
-0.012949168 -0.017056214 0.037775807 0.003610591 0.03851377 -0.06111435 0.048904777 0.05444572
-0.061958674 0.0047662132 0.011913564 -0.042489607 0.016601654 0.034852073 0.011821841 0.046432517
0.008826483 0.060461503 0.012073462 0.06907794 -0.024191353 -0.0024347913 -0.0016681962 -0.042025506
0.0032862758 0.0037123288 0.004041075 -0.029801983 -0.0030010582 0.02382058 0.0125712175 -0.005354237
0.005652311 0.04282845 -0.041792255 -0.0011547209 -0.048987545 0.020347683 -0.05164206 0.0076384186
0.02104472 0.04983561 -0.052193683 -0.016206622 0.0074007344 -0.027221315 0.04956199 -0.052680004
-0.00434664 -0.05649161 0.04467863 0.03090312 -0.04365003 -0.05036173 0.024988914 -0.0123059945
-0.061471082 0.030644283 0.012473101 -0.022838613 -0.01541922 0.0009262412 0.069813915 -0.0017516034
-0.025069196 0.02113419 0.06015876 -0.038271908 -0.037681937 0.033447836 -0.04859697 0.04303202
0.007408192 0.034935284 -0.0639133 -0.05997521 0.05942297 -0.020449685 0.046233788 0.009144631
0.040551472 -0.0143150445 0.04866127 -0.0022828856 -0.006076392 0.054092467 0.068587504 0.021756556
0.058747496 0.0029400375 -0.037126824 0.023041435 -0.041279074 -0.06261386 0.0010004902 0.02266016
0.032299314 0.041379124 -0.01577873 -0.05789225 -0.0098049035 0.1024393 0.04950251 -0.04268233
-0.00890001 -0.03545927 0.013720472 -0.030290594 -0.06003282 -0.045052398 0.022710403 -0.017306129
-0.025213499 -0.035513666 0.018501414 0.008747419 -0.044498082 -0.03164454 -0.04729122 -0.061018866
-0.003361579 0.053568736 0.058753204 0.056713812 -0.06357893 -0.04432937 0.044770308 -0.021227757
0.049984258 0.038340785 0.0054676384 -0.025879584 0.0040604784 0.034280397 0.0141891325 0.060494654
0.00015557773 0.019780876 -0.025902856 -0.009304182 0.021428261 0.04863957 0.016578218 0.05312717
-0.00072701846 -0.058038898 0.021966038 -0.028302692 -0.034087297 -0.025446258 0.028704796 0.020093381
-0.015421354 0.011782507 -0.003775646 -0.037527956 0.008646328 0.062399432 0.040327433 -0.049362574

net.4.bias f4 [256]
00000000: a81e 35bd 56cc d63c 8dbc 6b3c 82f9 c4bc
00000010: cc68 39bd ec10 54bd d3a3 e03c cc38 b33c
00000020: e457 0abd 79ed ef3b 435d 81bd da24 603d
00000030: d18e 253c fb2b 5a3d 5963 1d3d 4401 373d
00000040: a363 fd3c 53ff 5a3d bc0e 383d 4992 143d
00000050: 2957 2dbc cd50 173d 56e4 21bd 11df 84bd
00000060: 6f30 3d3d a80c 003c 3b61 4fbd 3d14 b4bc
00000070: 2c0e fd3c 169b 283b cea0 b03c 8337 6cbd
00000080: 51f4 5bbd f273 6b3d 5cf1 943b 9ef9 2e3d
00000090: 1429 89bc 7949 dbbc 02c3 cebc dc28 823c
000000a0: 9e54 06bd 2c98 e6bb c3f2 bd3c 9708 7abc
000000b0: 781d 733c 048e 4c3d 9613 0cbd d25c cc3c
000000c0: 4d19 a5bc d6b4 93bc 6dc9 cb3b 3ba0 7fbd
000000d0: 1c76 53bd b44d 48bd 1f12 dcbc 5dc1 b33c
000000e0: af3a d3bc 66ef 6a3d 20a1 f23c 5b4d bdbc
000000f0: 76b6 2a3d bb70 61bd d0f2 70bb 94b9 553d
00000100: 06de 0bbd 8689 fb3c 9072 2e3d 0583 26bd
00000110: 8aa2 55bd 4c57 083d 1331 5dbd e7d7 26bd
00000120: 2cbc 2ebd ede2 81bd e19e 613d ff6e 5cbc
00000130: 895d 5b3c 5659 333d ce9f 9fbc 43ef 623c
00000140: 480b 0abd 9cef 453d bafa fcbc 9b39 143c
00000150: 5222 c2bc 7109 1ebd f4ee db3a 02de 183d
00000160: d955 aebb 7cb3 7bbd 2208 6ebd 4b7b 5f3d
00000170: 1a3e 653d afc5 843c dd83 45bd 6f6e 0c3d
00000180: a7d8 4cbd f18e 503d d308 3e3d 2885 ca3b
00000190: 770e fbbc d461 c13c 66b8 8cbd ae1c fe3c
000001a0: cc16 36bd ebfd 7abd f7b1 943c c375 ab3c
000001b0: 41af a13c 7140 49bd 7366 c43b 83fd 5b3d
000001c0: 3c96 2cbd 23c7 de3c 5269 7d3d d44f 75bd
000001d0: 5360 c2bc 8714 35bd c1f5 75bc 3a03 263d
000001e0: 59ee fa3c 2d2c 8fbc 46d3 d43c 4dd3 0abd
000001f0: 7cfe 9c3c 20c3 0fbd 2429 16bd abd6 51bd
00000200: c742 903c 7d8d 26bc b3ec 7dbd ba0a 2fbd
00000210: 30d5 483d 4692 853b b7dd aabb e2e8 573c
00000220: fb37 82bc 4daf 483d cc25 253d e8d8 bfba
00000230: 8647 70bd c02d 8abc 789e 35bd d3ee 663d
00000240: 7946 26bd c261 f63c 96fc 243d 8f20 f2ba
00000250: b999 2dbd c3a1 b4bc 47b6 243d 5166 393d
00000260: 982b 80bd 4527 1d3d 673f aebb 404e 4fbd
00000270: 659c ffbc fb3e 3c3d f52f 303d 1fdf e5bc
00000280: 22c3 e9bb 8f65 bbbc 4673 643c 6ce6 2dbd
00000290: 34a7 3c3d 060e e43c ab62 cdbb 4a89 c8bc
000002a0: 2f88 3cbd b55f 5ebd 209f 22bd a8b0 3cbd
000002b0: 0ffa a13b 8f93 1c3c 169a 9dbc 9301 ecbc
000002c0: 1f52 78ba 0f90 9b3c 7001 1a3d 6678 55bb
000002d0: 2fd1 3dbd 6fc4 4f3c b60d 83bd 96d3 7e3d
000002e0: 9446 1a3d 76af d53c 6cb1 c43c e705 1b3d
000002f0: 2987 ae3c 9228 2e3d 0e7a 7bbd 35b5 bc3b
00000300: 5bc8 623c 7a3a d23c 4431 7fbd 69c2 69bd
00000310: a648 f7bb 7ad1 3cbd f82f 2abd f001 46bc
00000320: e11e aabc b03c fbbc eb4c c23c b1f5 52bd
00000330: 41b4 7fbd 5d4a 1bbc 9f38 523c 18e4 093c
00000340: df51 08bc 6853 01bd 8077 1e3d 800a 063c
00000350: 37d8 32bd 8f56 89bd 3c0c 243d 3074 343d
00000360: c1f1 043d 8c04 433d 219e 313c 538f e93a
00000370: a6af 273c 14df 2d3c 8c17 65bd 47b8 fbbc
00000380: b8c3 2c3d dc70 d83c 25ef 66bc fce2 553d
00000390: fad4 bfbb f7f2 3ebc d8da f7bb aeaa 1fbc
000003a0: 030a 8a3c d584 4dbd 31ae a0bb a270 a33c
000003b0: 398b 38bd df49 4fbd 22c3 603d 7d6d 9cbc
000003c0: 8491 813d 58a1 d13c 3c7d 5d3d 7342 debc
000003d0: 3afa 85bd 2a20 0abd f0e4 79bd 3705 99bb
000003e0: 5fcf 4a3d 5df8 88bd 8a8a 05bb bdb7 ce3c
000003f0: 252d 043d ae41 cabc 9671 43bc a88f 62bd
-0.04421869 0.026220482 0.014388216 -0.024044756 -0.045265958 -0.05177395 0.027421867 0.021877669
-0.033775225 0.00732201 -0.063166164 0.054722644 0.010104851 0.0532646 0.038424823 0.04467894
0.0309313 0.053466152 0.044935927 0.03627232 -0.010579863 0.036942292 -0.0395244 -0.06487859
0.046188768 0.0078155175 -0.050629836 -0.021982307 0.030890547 0.0025727204 0.021561053 -0.057670128
-0.053699795 0.05748362 0.004545374 0.042718522 -0.01674322 -0.026768433 -0.025239471 0.015888624
-0.03279554 -0.0070371833 0.023187047 -0.015260837 0.014838569 0.049940124 -0.034198366 0.024946604
-0.020153666 -0.018030565 0.00621908 -0.062408667 -0.05162631 -0.04890223 -0.02686411 0.021942789
-0.025784818 0.057357214 0.029617846 -0.023108175 0.041677915 -0.05503915 -0.0036765821 0.052178934
-0.034147285 0.030705225 0.042589724 -0.040652294 -0.052156962 0.033286378 -0.05400188 -0.040733244
-0.042659923 -0.06342111 0.05508316 -0.013454198 0.013389 0.04378637 -0.01948538 0.01385099
-0.033702165 0.048324212 -0.030881274 0.009046937 -0.023698006 -0.038583223 0.0016779588 0.0373211
-0.0053202924 -0.061450467 -0.058113225 0.05456094 0.055967428 0.016207544 -0.048221458 0.034285005
-0.050011303 0.05091757 0.046395134 0.0061804242 -0.030646546 0.023606218 -0.06871109 0.031019535
-0.044455335 -0.06127731 0.018151267 0.020930177 0.019736888 -0.04913372 0.005993658 0.053708564
-0.042135462 0.027194565 0.06186802 -0.059890583 -0.023727572 -0.04420903 -0.015012206 0.04053042
0.030631231 -0.01747712 0.02597965 -0.03389292 0.019164316 -0.035098195 -0.03666033 -0.051230114
0.017609967 -0.010165569 -0.061993312 -0.04273484 0.049031436 0.004076275 -0.0052144188 0.013178082
-0.015895834 0.048995305 0.04031925 -0.0014636787 -0.05866196 -0.016867518 -0.04434058 0.056380104
-0.04059455 0.030075911 0.040279947 -0.0018472838 -0.04238293 -0.02204979 0.040212896 0.045263592
-0.06258315 0.03836753 -0.0053176167 -0.050611734 -0.031202504 0.0459585 0.043014485 -0.028060494
-0.0071338573 -0.022875575 0.013943499 -0.042456076 0.046057895 0.027838718 -0.0062678657 -0.024479527
-0.046028312 -0.054290492 -0.039702535 -0.04606691 0.0049431394 0.009556665 -0.019238513 -0.028809344
-0.0009472686 0.01898959 0.037599027 -0.0032572984 -0.04634207 0.012681111 -0.063990995 0.062213503
0.037664965 0.026084643 0.024010383 0.037847426 0.021304684 0.04251916 -0.061395697 0.0057589062
0.013841714 0.02566265 -0.062302843 -0.05707017 -0.007546502 -0.04609821 -0.041549653 -0.012085423
-0.020766677 -0.030668586 0.023718318 -0.05150384 -0.062427763 -0.009478179 0.012830882 0.008416198
-0.008320301 -0.031573683 0.038688183 0.008181214 -0.04366323 -0.06705963 0.04005073 0.044056118
0.032457117 0.047611758 0.0108409235 0.0017819203 0.010234749 0.010612268 -0.05593066 -0.030727519
0.04217884 0.026421003 -0.014095102 0.052218422 -0.005854246 -0.011654607 -0.00756393 -0.009745283
0.016850477 -0.050175507 -0.0049035777 0.019951168 -0.045054648 -0.05060756 0.054873593 -0.019095177
0.06326583 0.02558963 0.05407451 -0.027131295 -0.065418676 -0.03372208 -0.061009347 -0.004669811
0.04951417 -0.066879965 -0.0020376765 0.025234098 0.032269616 -0.024689522 -0.0119289365 -0.055312783

net.6.weight f4 [256, 256]
00000000: 3957 f73b 7b07 c73c 8e35 ee3b 2c66 8b3c
00000010: b8bf 053d 5788 2fbd 60ea f9bc 8852 0cbd
00000020: ce59 7dbd 6c4b 953c f34a f33b b723 cf3c
00000030: 87d8 c53c ad49 053d 54e5 1f3c 19db 8a3c
00000040: 1414 7dbd 8caa 49bd a283 40bd b1f6 2bbd
00000050: fa1e b6bc 6f4e 50bc 60f1 e03c b20f 60bd
00000060: 6af5 c5bc 948e c93c 0f47 aebc 48c3 9b3c
00000070: f666 08bd b633 013d ded9 46bd a33c 0a3d
00000080: 3f82 2e3c 0d72 233d 3e16 b73b 2006 af3b
00000090: 3217 44bd b942 46bd 9331 83bc e2d3 6e3a
000000a0: 76a9 a2bd 771f 3fbd 08f7 6abd 7aab 52bd
000000b0: c1ef 77bd 922c 3e39 7915 efbc d27b 98bc
000000c0: fb27 85bd eb40 cebc cb9a e7ba 7c3a 15bb
000000d0: fbea 9e3c 295b 173d e870 8cbc e98d 87bd
000000e0: 2c26 13bd 5671 40bd a0dc 203d 8615 06bd
000000f0: 084c 293d d6e0 3dbd 5003 383d 5206 03bc
00000100: e95e 64bd b44b 283d adb7 4abd f6a7 1cbc
00000110: dee2 1cbd d388 153c f40c a73b 8d0e 853c
00000120: f6cb 5b3d 22e8 0d3d 1a6f 6bbd 4358 a83b
00000130: 65f9 143d a0c6 51bd 06d9 c5bc 82af 823b
00000140: e5ca c9bc 7f37 003d 562b 243d 14cd 4fbd
00000150: 14ee 23bd 832e 87bb 42ed 72bd 0eb2 663d
00000160: 7f9a 10bd a38b 0c3d 8a60 1fbc a72f af3c
00000170: fcd5 18bc ec64 e8bc 2266 0d3d 02f8 59bd
00000180: a359 d93b 46f1 15bd 0e76 98bd 76c8 edbb
00000190: 9ece c6bb 9d5a 73bd 42b1 adbc acb5 353d
000001a0: 080c d13c 7661 11bd 0c6c 693c fa32 8fbd
000001b0: c7ec 26bd ce8b 2c3d 26bb e03c e15f afbc
000001c0: 5466 993c 6424 fa3b 2c9b 95bd 2058 413d
000001d0: c573 93bc 63a2 29bc 71b4 6fbd 9179 81bd
000001e0: df52 90bc b592 a63c 72f7 c33c 489a 9fbc
000001f0: 7abd fcbc 4e58 48bd 07df 8d3b d495 5dbd
00000200: c434 63bd 2564 8dbc 1060 7abc beaa 4a3d
00000210: 3735 89bc 1e73 83bd d486 f33b 6895 edbc
00000220: f407 503d c241 be3c da06 7abd f96a 5c3d
00000230: e019 31bd d3bc 36bd 6f7b 3f3c 0b03 073d
00000240: 4d24 34bd c7c2 c73c f0e8 f03c d708 52bd
00000250: 0f7a 283d c8a6 5a3c b67b 353d 0d66 08bd
00000260: 4ff2 36bd 5c4c 1b39 c215 e6bc 88fd 1d3d
00000270: 09a9 4a3c 6b0a 563d cfcc 7cbd a233 413d
00000280: 81d7 43bd 4149 ac3c fb7e 5ebd c1f3 4ebd
00000290: e01e 3abc e8b2 4ebd 66ca 513d 861b 243c
000002a0: 868a febb 1c0e 8bbd 56a2 5fbd e9e4 40bd
000002b0: c025 f9bc 78ee 233d de39 b53c c136 83bc
000002c0: 1781 60bc 4d6b 323d 2688 2bbd 72e6 8ebd
000002d0: bdd4 d6bc 9991 ac3b 8fd3 1a3d 6658 80bd
000002e0: 8f6e c2bb 8d79 82bc c1da 703d 6773 b9bc
000002f0: 6537 043b c933 373d ce43 7fbc ab13 31bd
00000300: 1c3f 343c d675 9fbc 0624 3a3d 07e9 3f3d
00000310: 8333 223d fbff 84bc 0aef 143d 14bd 4cbd
00000320: 4f67 703c eb33 c5bc e23c 27bd e39c 74bd
00000330: ce72 3bbc 6339 c8bc 1f15 20bd 45d5 cabc
00000340: c393 28bd 8e98 f33c eae1 22bc 4fd6 2d3d
00000350: 173b 3c3d 4617 8e3b a447 f83b 41f9 d5bc
00000360: 7e28 6cbd 36ca 583d 2c23 2abd 09ca 73bc
00000370: 2cb4 e43c ad1c 97bc 6016 653b 0d73 04bd
00000380: 6817 32bd 514f c2bc db8d 61bd bc37 37bd
00000390: bc94 fbbc 682c 77bc 07f9 ba3c bd8f b0bc
000003a0: a3d8 b33c f673 b0bc 7f68 7ebc 2cff 8dbd
000003b0: 4ff6 343d 462e 2c3d fd78 1e3c 60fc 09bd
000003c0: dcd3 083c 92c9 05bb 0cdd 61bd 38d8 973b
000003d0: 963b 18bd 2460 863c febf c73c a510 1c3d
000003e0: 8e71 84bb d606 363b a2b4 1c3c 1877 26bd
000003f0: c956 253d 56a6 76bc 35b1 d93c 90f4 27bd
0.0075482395 0.02429556 0.007269568 0.017016493 0.03265354 -0.042854633 -0.030507267 -0.034258395
-0.061853223 0.01822444 0.007424706 0.025285585 0.0241511 0.032540966 0.009759266 0.016950177
-0.061786726 -0.04923491 -0.047000535 -0.04198331 -0.022231568 -0.0127140125 0.027458847 -0.05470247
-0.024164874 0.02460412 -0.021274118 0.019014016 -0.033301316 0.031543456 -0.048547618 0.033749234
0.01065117 0.03990369 0.0055873683 0.0053413063 -0.047873683 -0.048403475 -0.01601485 0.00091105525
-0.07942478 -0.046660867 -0.057364494 -0.051433064 -0.06053138 0.00018136416 -0.029185044 -0.01861373
-0.06501766 -0.02517744 -0.0017670033 -0.0022770455 0.019399157 0.03695217 -0.017143682 -0.06618864
-0.035925075 -0.046983086 0.039272904 -0.03273537 0.041332275 -0.046357 0.044925034 -0.007997112
-0.055754576 0.04108782 -0.049491573 -0.009561529 -0.038302295 0.00912686 0.0050979797 0.01624229
0.05366131 0.034645207 -0.057479 0.0051374747 0.036370654 -0.051214814 -0.024151336 0.0039882073
-0.02463288 0.031302925 0.04008039 -0.050732687 -0.04002197 -0.0041254177 -0.059308298 0.05632215
-0.03530359 0.034312855 -0.009727607 0.021385027 -0.009328362 -0.028368436 0.03452123 -0.053215034
0.006633 -0.03660705 -0.07444392 -0.007256563 -0.006067111 -0.059412587 -0.021202687 0.04436271
0.025518432 -0.035493337 0.014246952 -0.06992145 -0.040753152 0.042125516 0.02743299 -0.021408023
0.018725552 0.0076337326 -0.07304987 0.047203183 -0.01799954 -0.010353657 -0.05852169 -0.06322015
-0.017617641 0.020333627 0.023921702 -0.019482747 -0.030852068 -0.04891234 0.0043295654 -0.054097965
-0.055470243 -0.017259667 -0.015281692 0.04947924 -0.016749008 -0.06418441 0.0074318442 -0.029001907
0.050788835 0.023224715 -0.06104169 0.053812955 -0.043237567 -0.04461367 0.011687144 0.032961886
-0.04397993 0.02438487 0.029407948 -0.05127796 0.04113203 0.013345428 0.044307433 -0.03330045
-0.044664677 0.00014810398 -0.028086547 0.038571864 0.012369403 0.05225603 -0.06171876 0.04716838
-0.047812942 0.021031024 -0.054320317 -0.05052543 -0.0113599 -0.050463587 0.051218413 0.010016328
-0.007767978 -0.067898005 -0.054598175 -0.047093306 -0.030413508 0.040022343 0.02212232 -0.01601732
-0.013702652 0.04355936 -0.04187789 -0.06977548 -0.026224488 0.00526638 0.037799414 -0.06266861
-0.00593359 -0.0159271 0.05880237 -0.022638036 0.002017462 0.04472712 -0.015580131 -0.043231647
0.011001375 -0.019465368 0.04544451 0.04685309 0.039599907 -0.016235342 0.036360778 -0.049985006
0.014673068 -0.024072608 -0.040829547 -0.05971993 -0.011440946 -0.024441427 -0.039082643 -0.024759898
-0.04115654 0.02973583 -0.009941557 0.04244071 0.04595479 0.0043362705 0.0075768996 -0.02611983
-0.057655804 0.05292722 -0.04153745 -0.014879712 0.027917944 -0.01844629 0.0034955963 -0.032336283
-0.043479353 -0.023719462 -0.055066925 -0.044730887 -0.03071057 -0.015086271 0.022823824 -0.021552915
0.021953886 -0.02153967 -0.0155278435 -0.06933436 0.04418021 0.042036317 0.009672401 -0.03368795
0.008351292 -0.0020414335 -0.055142447 0.0046339296 -0.0371662 0.016403265 0.024383541 0.03810181
-0.004041857 0.002777507 0.009564551 -0.04064092 0.040365968 -0.015054306 0.026573757 -0.041004717

net.6.bias f4 [256]
00000000: 72de fc3c 8f31 633d 7a3d 253d fddd 85bd
00000010: 207c 343d 2fbc 39bd 77dd afbc 634b 7abd
00000020: c5f8 0dbc d9c3 2c3c d4c1 5bbd 3041 7bbd
00000030: 2b39 21bd cfb0 15bd 3638 25bd a222 89bc
00000040: e3d3 803c 9030 17bd 2de9 a4bd 64cc 45bd
00000050: 7d60 db3b c5a1 d8bb 264d 4e3b 6a36 3e3d
00000060: a985 8abd 508a 5fbd 0e2b 80bd d3f3 89bd
00000070: 086a a13c 98b0 96bd ed62 3b3d 399a 4bbd
00000080: ce92 1dbd 197f 663c ad96 583d 4ad6 5d3d
00000090: 0df9 71bd 8862 1bbc 5f02 d33c a43d 823c
000000a0: abc2 37bd 0dbd 45bd b8e8 43bd 0b30 01bd
000000b0: 46bc 76bd e7a6 78bd ec69 eabc cfb9 ffbc
000000c0: 9442 2dbd 7f39 3a3d 439c a13c ed77 57bd
000000d0: 0c9d d7bc d039 3cbc 40e3 4fbc 3669 a0bd
000000e0: a37e 3b3d 0cde c5bc cf5c 0dbc 7da3 a0bc
000000f0: 8018 c83c 5040 b4bd c70f 11bd 5c82 d2bb
00000100: 52dd 1fbd fc24 81bd 316a b33c 9a98 423c
00000110: d67a a43c 2173 7cbc 6dc2 3bbd 9b37 85bd
00000120: 9d75 e73c 1d2c 153d bf9e c7bb d625 26bd
00000130: 4cc9 68bd 10bf 9e3c 5bb8 d3bc b4b8 8f3c
00000140: 8a8d 8ebd 81a3 47bc 0fde 8f3c ce5f 5abd
00000150: 1332 11bd 7eb2 25bc 99f9 433d a254 293d
00000160: 9776 5e3c 0738 ccbc 89e0 87bd 6f3e d73c
00000170: bfc4 f3bc 39f6 b83c 965a a83b b65a af3c
00000180: 376b eaba a67b 2abd b251 e83b 149c b53c
00000190: 9bfa 08bd 4bfc 85bc 42c6 7dbc c5a1 3ebd
000001a0: 6727 423d 3006 b3bc 10a6 52bd 4e6c aa3c
000001b0: c29a 50bd d6fe 56bd 502a 293d ab71 43bd
000001c0: a694 25bc ce8b 68bd e2c7 01bd 2665 8fbd
000001d0: 8ed8 343d 5d13 e0bc 76b1 3fbd 37a6 1d3d
000001e0: 1773 94bd 891e 68bc 9316 d5bc dbea d5ba
000001f0: 1dd4 72bd ecf8 69bc a991 c13c 356f 80bc
00000200: 9d77 a43c 7427 ee3a 08be 8bbd e1e1 b1bc
00000210: d3f6 c03c 6014 c43c 0b75 2f3d e221 e9bc
00000220: 4f7b a8bd 6d01 01bd 36c2 eebb 9669 1cbd
00000230: 25b7 1d3b 31a1 4cbd 6a19 34bd f5b6 0a3c
00000240: 8b5b 08bc a244 58bd 1b9d 32bd c850 83bd
00000250: 754e 183d e8a3 79bd 6a0a 35bd ab42 77bd
00000260: 2b95 cf3c e791 50bd 38f9 efbc b6a2 6ebd
00000270: 0b9b 8ebc d7eb 3dbd 8dff bfbc 14df 8fbd
00000280: b6ac d1bc 6d4f 743c c94d 123c 067f eabb
00000290: 1a17 953b c97a ad3c 74e8 633c 50a2 81bd
000002a0: 225c ccbc 0c67 11bd 3151 eebc c81d 463d
000002b0: 6efc d8bb 4f37 b43c 4036 88bc 73f2 54bc
000002c0: 0e2a 89bd ef0a 5dbd c641 98bd cd5b 15bd
000002d0: 21c8 383c 633c 50bd 8fee 043d 64f3 573a
000002e0: 6739 0fbd d0c3 323c 4312 07bd 0420 21bc
000002f0: 0689 813c 1b36 8dbd 687f 39bd d732 463c
00000300: 4608 84bb 2e8a 9dbc 6c6c e53c 276d 773c
00000310: a3c2 5a3d c922 35bd d510 0bbb a1ab 2fbd
00000320: 589f b5bc 3136 03bd 6978 c03b 346e 72bd
00000330: e7e1 5f3d be33 d7bc f823 88bd 937f 98bd
00000340: b1ec 83bc 02a3 693c 8167 ffbc e723 8ebc
00000350: c2f5 063d 1043 68bd 07a4 dcbc 6780 813c
00000360: 87f7 0a3d 493e 1dbd b49f d83c de67 d6bc
00000370: c01a e8bc 1f02 b33a 170a d6bc 2fb0 ac3c
00000380: d888 63bd 18ed 33bd 9659 97bb f835 9d3c
00000390: 4a49 7fbd 4b65 253d d28b 4abd 4672 83bd
000003a0: 3e95 ba3c a3f3 25bc edc1 213d c2c7 d8bc
000003b0: bd8a 17bd 7dfb 363d b585 8a3a 16bd 26bd
000003c0: bc78 90bd 7bb2 243b f5e0 53bd 1d9d 21bd
000003d0: 7681 adbb dc2b 7ebd 80cf debc 73be 89bd
000003e0: 4449 b8bc 48f0 32bd b43f 81bd 2c1d d53b
000003f0: 829a 3a3d 1606 b33c b320 cdbc 5e28 88bd
0.030867789 0.055467185 0.04034183 -0.065364815 0.044063687 -0.04534548 -0.021467907 -0.06110705
-0.008665268 0.010544741 -0.053651646 -0.061341465 -0.03936116 -0.03654557 -0.04033681 -0.016740147
0.015726035 -0.036911547 -0.08052287 -0.048290625 0.006694852 -0.0066110813 0.003147909 0.046438612
-0.06763775 -0.054575264 -0.06258212 -0.06735959 0.01970388 -0.07357901 0.04574864 -0.049707625
-0.038470082 0.014068388 0.05287807 0.05415944 -0.059075404 -0.009483941 0.025757967 0.015898533
-0.044863384 -0.048275996 -0.04782936 -0.031539958 -0.060238145 -0.060706045 -0.02861496 -0.03121653
-0.042299822 0.04546499 0.019727832 -0.052604605 -0.026320003 -0.011488393 -0.012688458 -0.078325674
0.045775067 -0.024153732 -0.008628084 -0.019609207 0.024425745 -0.08801329 -0.035415437 -0.0064242315
-0.039029427 -0.06305882 0.021901222 0.011877203 0.020078104 -0.015408308 -0.045839716 -0.065047465
0.028254325 0.036419023 -0.006091922 -0.040563427 -0.056832597 0.019378215 -0.025844743 0.017544128
-0.0696059 -0.012184978 0.01756194 -0.053314023 -0.035448145 -0.010113357 0.047845457 0.041340478
0.013578079 -0.02492906 -0.066346236 0.026274888 -0.029756902 0.022578346 0.005137752 0.021405559
-0.0017884736 -0.041621827 0.007089817 0.02216915 -0.03344212 -0.016355654 -0.015489163 -0.046540994
0.04740086 -0.021853536 -0.0514279 0.020803597 -0.05092884 -0.052489124 0.041300118 -0.047715824
-0.010106241 -0.056773953 -0.031684764 -0.070017144 0.044151835 -0.027352983 -0.0468001 0.038488593
-0.07248514 -0.014167436 -0.02601174 -0.0016320603 -0.05928432 -0.014280539 0.023629026 -0.015678028
0.020076567 0.0018169717 -0.06823355 -0.021714153 0.023555195 0.023935497 0.04283623 -0.02845854
-0.08226644 -0.0314955 -0.0072863353 -0.038186632 0.0024065461 -0.04995841 -0.04396955 0.008466472
-0.008322607 -0.05279983 -0.04360686 -0.06411892 0.037184197 -0.06094733 -0.044199385 -0.060366314
0.025339684 -0.050920393 -0.029293641 -0.058260642 -0.017407915 -0.046367493 -0.023437286 -0.07024971
-0.02559505 0.014911515 0.008929678 -0.0071562557 0.004549873 0.021176713 0.013910402 -0.06329787
-0.024946276 -0.035498664 -0.02909145 0.048368245 -0.006621889 0.02199903 -0.01662743 -0.0129972575
-0.066974744 -0.053965505 -0.0743442 -0.0364645 0.011278183 -0.05083884 0.03245407 0.0008237867
-0.034966853 0.010910943 -0.0329764 -0.009834293 0.015812408 -0.068950854 -0.04528752 0.012097082
-0.0040293066 -0.019230928 0.028005801 0.015101708 0.053408276 -0.044222627 -0.002121975 -0.042888287
-0.022170708 -0.032034103 0.005873729 -0.05918713 0.054658797 -0.02626979 -0.066474855 -0.07446208
-0.016104074 0.0142600555 -0.031177284 -0.017351104 0.032949217 -0.05670458 -0.026933683 0.015808297
0.033927467 -0.038389478 0.02644334 -0.026172575 -0.028333068 0.0013657248 -0.026127858 0.021080105
-0.055550426 -0.043927282 -0.004618834 0.019190773 -0.062325753 0.040379804 -0.04944975 -0.0641828
0.022776242 -0.010128888 0.039491583 -0.02646244 -0.036997546 0.04467343 0.0010568412 -0.04070767
-0.07054278 0.0025130797 -0.051728208 -0.039456476 -0.005294974 -0.062053546 -0.027198553 -0.067257784
-0.022495873 -0.04368618 -0.063109785 0.0065037217 0.045557506 0.021853488 -0.025040006 -0.066483244
