pth of PINN/pinn_linear_elasticity.pth (torch, 670344 bytes, 10 tensors)

net.0.weight f4 [128, 2]
0	0xbf292502	-0.66072094
1	0xbe09f772	-0.13473299
2	0xbeaed6f4	-0.3414837
3	0xbe41d4db	-0.18928854
4	0xbf2731d1	-0.6531039
5	0x3e930d22	0.28720957
6	0xbf20981c	-0.627321
7	0xbd14229a	-0.03616581
8	0x3e7a5ffd	0.24450679
9	0xbe6ab6c1	-0.22921278
10	0x3ec8a475	0.3918797
11	0x3db0c81e	0.08631919
12	0x3ebed0ed	0.37268773
13	0x3ee25fb1	0.44213632
14	0xbe9516dd	-0.29119006
15	0x3e799745	0.24374111
16	0xbe94c700	-0.29058075
17	0x3e5e222e	0.21692726
18	0xbeb8af3b	-0.3607119
19	0x3ea3e542	0.32010847
20	0x3e1be29d	0.15223165
21	0xbe918161	-0.2841902
22	0xbeb4e069	-0.3532746
23	0x3e3fa25b	0.18714277
24	0x3f2abe4d	0.66696626
25	0x3eaf429c	0.34230506
26	0xbd824fd5	-0.06362883
27	0xbd436130	-0.047700107
28	0x3ec828fc	0.3909377
29	0xbef7c53d	-0.48392668
30	0x3e657789	0.2240888
31	0xbe713583	-0.2355557
32	0x3ecd89b5	0.40144125
33	0xbe78fad8	-0.2431444
34	0x3ceec856	0.029148262
35	0x3e7a6299	0.24451675
36	0x3ef316f2	0.47478443
37	0xbdc60050	-0.09668028
38	0x3f22ab93	0.6354305
39	0xbf16fb79	-0.58977467
40	0xbe019547	-0.12654601
41	0xbf3194e2	-0.693678
42	0x3d6a6bb4	0.05723162
43	0x3e48efdb	0.19622748
44	0xbe8d872a	-0.27642184
45	0x3e93e0df	0.288825
46	0xbdf7ec25	-0.12105588
47	0xbf1a4323	-0.6025869
48	0x3f08e344	0.5347178
49	0x3edbfd43	0.4296666
50	0x3eb19947	0.34687254
51	0x3f0dddc2	0.554165
52	0x3e828d9a	0.25498658
53	0x3ebe3afa	0.3715437
54	0x3f1547ba	0.5831257
55	0xbe1088ff	-0.1411476
56	0xbf0d9f60	-0.5532131
57	0xbeb7f0e1	-0.35925964
58	0xbdd6475b	-0.10462829
59	0xbd80dac5	-0.06291727
60	0x3bcfa136	0.0063363565
61	0x3ecd8dfd	0.4014739
62	0x3e62c383	0.22144894
63	0xbf05696d	-0.5211399
64	0xbe60b0be	-0.21942422
65	0xbe2a909f	-0.16656731
66	0x3ed9af99	0.42516783
67	0xbe804a0f	-0.25056502
68	0xbe92f59a	-0.28703004
69	0xbddd71bb	-0.10812708
70	0xbe31d0d6	-0.17364821
71	0xbe2d0c54	-0.16899234
72	0xbf318644	-0.693455
73	0x3f2152f1	0.63017184
74	0x3ebb3836	0.36566323
75	0xbea570d5	-0.32312647
76	0xbee31b7a	-0.443569
77	0x3caf773a	0.021419156
78	0x3ec9fc1b	0.39450154
79	0xbefc0d22	-0.4922877
80	0xbe8554f8	-0.2604139
81	0x3e92b852	0.2865625
82	0xbee4f999	-0.44721678
83	0xbda0699c	-0.078326434
84	0xbf06b204	-0.5261538
85	0x3f264cbf	0.64960855
86	0x3ec17592	0.37785012
87	0xbf262760	-0.6490383
88	0xbecf0acd	-0.40437928
89	0x3e857638	0.26066756
90	0x3ce66337	0.028123481
91	0x3e3681cf	0.17822956
92	0xbf10a544	-0.56502175
93	0xbebda742	-0.3704167
94	0x3ea09ca4	0.31369507
95	0xbf07060b	-0.52743596
96	0xbe154d9f	-0.14580391
97	0x3e9e3c56	0.30905408
98	0x3eb706d2	0.3574739
99	0x3d4527dd	0.04813372
100	0x3e3e43f2	0.18580607
101	0x3e9dedf0	0.30845594
102	0xbdaecdd3	-0.085353516
103	0xbe43ff84	-0.1914044
104	0x3f08c394	0.5342343
105	0x3f2e0869	0.6798158
106	0x3ea35bcf	0.31905982
107	0xbe9c5e83	-0.30540857
108	0xbf1d0189	-0.6133047
109	0xbf302ded	-0.6882008
110	0x3c18b639	0.009320789
111	0xbe8a6816	-0.27032536
112	0xbe30f47d	-0.17280765
113	0xbdc2dd0b	-0.09514817
114	0x3f2aaf4b	0.66673726
115	0x3f2b9deb	0.6703784
116	0xbd83e8e8	-0.06440908
117	0xbe53b697	-0.20675121
118	0x3eaaf9b8	0.33393645
119	0xbd4b6329	-0.049655113
120	0xbf2b4f86	-0.6691822
121	0x3e613c44	0.21995646
122	0x3f291928	0.6605401
123	0xbf0e1ce6	-0.55512846
124	0xbe121ee3	-0.14269595
125	0x3e126c05	0.14299019
126	0xbf108fa4	-0.5646918
127	0xbf19fb98	-0.60149527
128	0x3f03838d	0.51372606
129	0xbe7bf8aa	-0.24606577
130	0x3ecdac62	0.4017058
131	0x3d8a1d5a	0.067438796
132	0x3e30f9f1	0.17282845
133	0xbee8860c	-0.4541477
134	0xbe19946c	-0.14998025
135	0x3ef0a4d4	0.47000754
136	0x3ea28fdf	0.3175039
137	0xbe45c8d7	-0.19314896
138	0x3dc22318	0.0947935
139	0x3f071853	0.5277149
140	0xbf1888a4	-0.595835
141	0x3ee16a31	0.4402633
142	0xbe433428	-0.19062865
143	0xbe03b58b	-0.12862222
144	0x3ea50d9b	0.32236943
145	0xbf1595cf	-0.58431715
146	0xbde532e5	-0.11191348
147	0x3f2ae702	0.6675874
148	0x3e7fef98	0.24993742
149	0xbe868be3	-0.262786
150	0xbe14de90	-0.14538026
151	0x3f0c8537	0.5489077
152	0x3e88ec4f	0.2674279
153	0x3ef1e299	0.47243193
154	0xbee528a1	-0.4475756
155	0x3e480799	0.19534148
156	0x3e0b2739	0.13589181
157	0x3dfcd88e	0.12345992
158	0x3f284f38	0.6574588
159	0x3eca8a62	0.39558703
160	0x3ef17192	0.4715696
161	0x3e9dd700	0.30828094
162	0x3e9421c5	0.28932014
163	0xbde8778d	-0.113509275
164	0xbf1bcfdc	-0.60864043
165	0xbf1521d9	-0.5825477
166	0xbedea9c7	-0.43488905
167	0xbee5da34	-0.44893038
168	0x3ea6185d	0.32440463
169	0x3e58258f	0.21108077
170	0xbe559392	-0.20857075
171	0xbf099bf1	-0.5375357
172	0x3f2f79dd	0.68545324
173	0x3f07789d	0.52918416
174	0x3ea9dee0	0.33177853
175	0x3f31a540	0.69392776
176	0xbec0255b	-0.375285
177	0xbec7440d	-0.38919106
178	0xbedac132	-0.4272552
179	0xbcf4fa17	-0.029904408
180	0xbf1f14ab	-0.6214091
181	0x3f0f2d08	0.5592809
182	0x3c660b70	0.014040813
183	0x3eb2f8f5	0.34955564
184	0xbec8934b	-0.39174876
185	0xbd9af442	-0.0756612
186	0x3dcc1c59	0.099663444
187	0xbe47a60e	-0.19496939
188	0x3f29d136	0.66334856
189	0xbea47a91	-0.3212476
190	0x3e65c26e	0.2243745
191	0xbeefae03	-0.46812448
192	0xbd977a4b	-0.073963724
193	0xbe3cd893	-0.18441992
194	0x3e981c3f	0.2970905
195	0x3ef93401	0.48672488
196	0x3e284f82	0.1643658
197	0xbd676cc1	-0.0565002
198	0xbe470a5f	-0.1943755
199	0x3f0b5f2c	0.54442096
200	0xbe2328a8	-0.15933478
201	0x3efd63a4	0.49490082
202	0xbe9f7b7d	-0.31148902
203	0x3f13602b	0.57568616
204	0x3f33a5b8	0.7017474
205	0x3ef53a67	0.4789612
206	0x3ec9a6b1	0.39384988
207	0x3e81acfc	0.2532729
208	0xbeb69dea	-0.35667354
209	0x3b63b52f	0.0034745445
210	0x3e815d2f	0.25266406
211	0xbe4429c1	-0.19156553
212	0x3df1202a	0.11773713
213	0x3eccc4e7	0.39993975
214	0xbf26c2af	-0.65140814
215	0xbf234508	-0.6377721
216	0xbedaa29b	-0.42702183
217	0x3dce913f	0.10086297
218	0xbdfaa607	-0.122386985
219	0x3e17cd3b	0.14824383
220	0xbe299506	-0.16560754
221	0xbeeae09a	-0.45874482
222	0x3dc30dfb	0.09524151
223	0x3ef6e627	0.48222467
224	0xbed3519f	-0.4127321
225	0x3f1e4ef5	0.6183923
226	0x3e317b9b	0.17332308
227	0x3f2e6e4e	0.6813706
228	0xbf23b4b7	-0.63947624
229	0xbf2bd54c	-0.6712234
230	0x3e6e95c1	0.23299314
231	0xbf26cd1d	-0.6515673
232	0xbf108f3c	-0.5646856
233	0x3eb7f419	0.3592842
234	0x3ea86747	0.32891294
235	0xbf221cad	-0.63325006
236	0x3efd61f0	0.49488783
237	0xbe01923e	-0.12653443
238	0x3f043370	0.5164099
239	0xbed28169	-0.41114357
240	0xbf277cdd	-0.654249
241	0xbeed1fd9	-0.4631336
242	0xbdf4085d	-0.11915658
243	0xbf33ffb0	-0.70312023
244	0xbd7a1ffe	-0.061065666
245	0xbeb3eb71	-0.35140565
246	0xbe2940af	-0.16528581
247	0x3ad3645b	0.0016127931
248	0x3d15b0b8	0.036545485
249	0xbf32ed07	-0.69892925
250	0x3eb5b1bf	0.35487172
251	0xbed86351	-0.42263272
252	0x3eda978a	0.4269374
253	0x3f2227b5	0.6334184
254	0xbe7257c0	-0.23666286
255	0x3d99fa1e	0.07518409

net.0.bias f4 [128]
0	0x3ec41e13	0.38304195
1	0xbd64d652	-0.055868454
2	0xbf13391f	-0.57509035
3	0x3ea0e0d2	0.31421524
4	0x3eaaada0	0.3333559
5	0xbecb6001	-0.39721683
6	0xbefa154b	-0.4884437
7	0xbe0b82c7	-0.13624106
8	0x3e06b283	0.13154034
9	0xbebb098d	-0.36530724
10	0xbc046f92	-0.008083241
11	0xbe9898e7	-0.29804155
12	0xbe899599	-0.26871946
13	0xbdbdb61a	-0.09263249
14	0xbe8d84fd	-0.27640525
15	0x3f0e6509	0.5562292
16	0x3e364007	0.17797862
17	0x3f21d645	0.63217574
18	0x3f20c607	0.62802166
19	0x3dd92506	0.10602765
20	0xbe9c3706	-0.3051073
21	0x3edea454	0.43484747
22	0xbcf761dc	-0.03019803
23	0x3f03abc0	0.51433945
24	0xbe210331	-0.15723874
25	0x3f1e4129	0.61818177
26	0x3db61a5d	0.08891747
27	0xbe250883	-0.16116528
28	0xbee7fa02	-0.45307928
29	0x3f0471e1	0.51736265
30	0x3db79a66	0.08964996
31	0x3e7985fc	0.24367517
32	0x3e9418b1	0.28925088
33	0xbd296ec9	-0.04136542
34	0xbebb26cf	-0.36553046
35	0xbe5d5f66	-0.21618423
36	0xbcf96206	-0.030442249
37	0x3edd100a	0.431763
38	0xbd52693c	-0.05136989
39	0xbe4720bf	-0.19446085
40	0xbddbf118	-0.10739344
41	0x3ddf0ace	0.10890733
42	0x3f0f86c2	0.56065
43	0x3f0784b8	0.5293689
44	0xbce674ab	-0.028131803
45	0x3dafc20a	0.08581932
46	0x3f227c8e	0.63471305
47	0x3e97ec2f	0.2967238
48	0xbd9c9451	-0.076454766
49	0x3eda040e	0.42581218
50	0x3ea01358	0.31264758
51	0xbe440bfa	-0.19145194
52	0x3e8f5728	0.27996182
53	0x3d555eea	0.05209247
54	0xbe8a8406	-0.2705385
55	0xbd5624b5	-0.0522811
56	0x3f2a26bd	0.6646536
57	0x3e5e5b8b	0.21714608
58	0xbf16bd7e	-0.5888289
59	0x3ee44df0	0.44590712
60	0x3e196432	0.14979628
61	0x3eac43e0	0.33645535
62	0xbaf96c84	-0.0019029533
63	0x3e8d19b4	0.27558672
64	0x3e517dd1	0.20458151
65	0x3f1b2053	0.605962
66	0x3ebbfe5e	0.36717504
67	0xbe9cb558	-0.30607104
68	0x3ebaf010	0.36511278
69	0xbd62c536	-0.055363856
70	0x3ee8fbbe	0.45504564
71	0xbe882de7	-0.2659752
72	0xbe571246	-0.21003065
73	0x3f26de2d	0.65182763
74	0x3dff8783	0.12477019
75	0x3db5c626	0.088756844
76	0x3d885b97	0.066580944
77	0x3d1f8e06	0.038953803
78	0x3d006d9e	0.03135454
79	0xbf1cbd36	-0.6122621
80	0x3f2cbb65	0.6747344
81	0x3f2b9da0	0.6703739
82	0xbf00804e	-0.5019578
83	0x3e2becd4	0.16789562
84	0x3f1572e7	0.5837845
85	0x3e0b1837	0.13583456
86	0x3e9a44bc	0.30130565
87	0x3f05e5ea	0.52303946
88	0x3e9622fd	0.2932357
89	0xbdf43188	-0.1192351
90	0xbf169066	-0.58814085
91	0xbeac0d90	-0.33604097
92	0xbed54947	-0.4165747
93	0x3c83fcba	0.01611172
94	0xbf00b646	-0.5027813
95	0x3ee13889	0.43988445
96	0x3e0a2863	0.13491969
97	0xbea0ad70	-0.31382322
98	0xbed572cc	-0.41689146
99	0x3e624bc3	0.22099213
100	0xbe3d7e4d	-0.18505211
101	0x3dffbb1a	0.12486859
102	0x3d81c748	0.06336838
103	0x3d966128	0.0734275
104	0xbdbcf8db	-0.09227153
105	0xbe064fdd	-0.13116403
106	0xbe37f011	-0.17962672
107	0x3e8a912e	0.27063888
108	0xbee7a587	-0.45243475
109	0x3c46b419	0.0121279
110	0xbe94de4b	-0.29075846
111	0xbf2b3d85	-0.66890746
112	0x3e49aab3	0.19694023
113	0x3e501bd2	0.20323113
114	0x3f1dccbe	0.61640537
115	0x3eea4bad	0.4576086
116	0x3f30f3b8	0.69121885
117	0xbf1138c5	-0.5672725
118	0xbf2076d0	-0.62681293
119	0x3e5d8ae5	0.21635015
120	0x3eadd748	0.3395331
121	0x3e9e23ff	0.30886838
122	0xbef01eb1	-0.46898416
123	0x3f0ae258	0.54251623
124	0xbf1bc300	-0.6084442
125	0x3e3367dd	0.1752009
126	0xbe91f077	-0.28503773
127	0xbe864c7c	-0.26230228

net.2.weight f4 [256, 128]
0	0x3d8d7d9c	0.06908724
1	0x3d9a3ca4	0.075310975
2	0x3ced7ca6	0.028990101
3	0x3d1f91c5	0.038957376
4	0x3b4e67fa	0.003149508
5	0xbd50fa3d	-0.051019896
6	0x3cbaab3c	0.022786729
7	0x3d972701	0.07380486
8	0x3d1584bc	0.03650354
9	0xbda63561	-0.0811565
10	0xbc9a84dd	-0.018862182
11	0x3cc1858a	0.023623247
12	0xbc73a4f0	-0.014870867
13	0xbce752d6	-0.028237741
14	0xbd9de164	-0.077090055
15	0x3c0f8bbb	0.008761342
16	0x3cbe1e7a	0.023207892
17	0xbda4dc9b	-0.0804989
18	0x3c8947cc	0.016757868
19	0x3cd52998	0.02602081
20	0x3d056243	0.032564413
21	0x3d6b924a	0.05751256
22	0xbd5a6d71	-0.053327028
23	0x3ce7097d	0.028202767
24	0x3bdc1f97	0.006717633
25	0xbccd8e62	-0.025092307
26	0xbb9b241a	-0.0047345283
27	0x3db2e70c	0.08735475
28	0xb95b7f39	-0.00020932862
29	0xbcc73cab	-0.02432092
30	0x3b135bea	0.0022485205
31	0xbd30af3f	-0.043135878
32	0xbd54e08c	-0.051971957
33	0xbca4b2cf	-0.020104794
34	0x3d2baac1	0.04191089
35	0xbc056603	-0.008141997
36	0xbcb9b8bb	-0.022671094
37	0x3d154886	0.036446117
38	0x3d417d6a	0.047238745
39	0xbc84bb0b	-0.01620247
40	0xbcc2c038	-0.023773298
41	0x3c65a331	0.014015959
42	0xbd448f86	-0.047988437
43	0x3d84a9af	0.06477677
44	0xbcd9dd6a	-0.026594836
45	0xbcf09512	-0.029367957
46	0x3da407da	0.0800931
47	0xbd8d01df	-0.068851225
48	0xbcc455bc	-0.023966663
49	0x3da3b493	0.07993426
50	0xbd25f5e7	-0.040517714
51	0xbc9c4ae1	-0.019078674
52	0x3db23cf8	0.08703035
53	0xbcf288e3	-0.029606288
54	0x3d242b54	0.040080383
55	0x3d19c979	0.037545655
56	0x3c8793bd	0.01654994
57	0xbd96113b	-0.07327505
58	0xbd6bc01a	-0.05755625
59	0xbd90c56a	-0.07068904
60	0xbdb51b7d	-0.088431336
61	0xbccebe80	-0.025237322
62	0x3c20bf37	0.009811214
63	0xbda04eff	-0.07827567
64	0xbda50be9	-0.08058912
65	0x3b8fc80f	0.0043878625
66	0xbd0882c2	-0.033327825
67	0x3c798240	0.015228808
68	0x3c94507e	0.018104788
69	0x3db4197b	0.087939225
70	0xbb64fda8	-0.003494123
71	0xbd966779	-0.073439546
72	0xbd6ec6c3	-0.058295023
73	0xbda46671	-0.08027352
74	0xbc879076	-0.016548377
75	0x3c341569	0.010991433
76	0x3cf2e14b	0.029648444
77	0x3c7cc990	0.015428916
78	0x3ca739a4	0.020413227
79	0x3c118a8e	0.008883132
80	0xbbfd2aac	-0.007726034
81	0xbd234e99	-0.03986988
82	0x3c9f85fe	0.019473072
83	0x3c2efc99	0.010680341
84	0xbccaa083	-0.024734741
85	0x3d8242de	0.0636041
86	0xbdaba15f	-0.083803885
87	0x3cdfeb39	0.027333843
88	0xbd4f8f49	-0.050673757
89	0x3d36f95d	0.044671405
90	0x3d8bd8b5	0.06828443
91	0x3d7a4c78	0.061108083
92	0x3cd69807	0.02619554
93	0xbd2e4c75	-0.042553384
94	0xbc81a5a1	-0.015826048
95	0xbcce854d	-0.025210047
96	0x3c241bae	0.010016365
97	0xbd3647ea	-0.044502176
98	0x3d34a97a	0.044106938
99	0x3d56f012	0.052475043
100	0xbd150349	-0.036380086
101	0xbccb73c8	-0.024835482
102	0xbd7df673	-0.06200261
103	0xbd468100	-0.048462868
104	0xbd3abe08	-0.045591384
105	0x3d7cbf96	0.061706148
106	0xbd9d361b	-0.076763354
107	0x3cd1ad73	0.025595402
108	0x3d8eb270	0.06967628
109	0xbd7228c0	-0.059120893
110	0xbda09458	-0.07840794
111	0x3d40a2ca	0.047030248
112	0x3d5fbd80	0.05462408
113	0x3d1bf247	0.03807285
114	0x3d8d1a69	0.06889803
115	0x3d630593	0.055425238
116	0xbc651249	-0.01398141
117	0x3d88d7a4	0.06681755
118	0xbd13f113	-0.03611858
119	0x3d18a47b	0.037266236
120	0xbd5de2f3	-0.054171514
121	0x3c9cb8ff	0.019131182
122	0x3d447e7f	0.0479722
123	0x3d055844	0.03255488
124	0x3d4d2b93	0.050090384
125	0xbc623225	-0.013805901
126	0x3ce3d630	0.027812093
127	0x3c05481a	0.008134866
128	0x3d8cc82d	0.06874118
129	0x3d442a37	0.04789182
130	0xbd8e65c1	-0.06953002
131	0x3cf2b9f6	0.029629689
132	0x3d31615e	0.043305747
133	0x3caa42b3	0.020783758
134	0xbd481792	-0.048850603
135	0x3da34d06	0.079736754
136	0xbd8add46	-0.06780486
137	0xbda06ddb	-0.07833453
138	0x3ccd8106	0.025085937
139	0x3cff7634	0.031184293
140	0x3b5c7729	0.003364036
141	0xba86c504	-0.0010282104
142	0x3d09c005	0.03363039
143	0x3d70385c	0.0586475
144	0xbd3da392	-0.04629857
145	0x3cbb0ae6	0.022832345
146	0xbd159d53	-0.03652699
147	0xbd49e05f	-0.049286243
148	0xbd48791a	-0.048943616
149	0xbd90d2e5	-0.07071475
150	0x3d8be176	0.06830113
151	0xbd09f82b	-0.033683937
152	0xbce7b0be	-0.02828252
153	0xbbeac0a7	-0.007164079
154	0xbd7e7f20	-0.062132955
155	0x3d5bca7e	0.05365991
156	0xbcf08eda	-0.029364992
157	0x3d2e27ab	0.0425183
158	0x3ca72ae9	0.020406203
159	0xbdbaf166	-0.09128074
160	0xbdaf3350	-0.08554709
161	0xbdb7ed18	-0.08980769
162	0x3d9b7ebf	0.07592534
163	0x3d9e6b3b	0.07735296
164	0x3cbfdbcd	0.023420239
165	0xbd2580c2	-0.040405996
166	0x3cc44c30	0.02396211
167	0xbd90310b	-0.07040604
168	0x3c05a406	0.008156782
169	0xbc8a6aae	-0.016896572
170	0x3d61297b	0.0549712
171	0x3af812a8	0.0018926458
172	0xbbe284fb	-0.006912825
173	0xbc54e880	-0.012994885
174	0x3da4e401	0.08051301
175	0xbd85cdd0	-0.06533396
176	0x3d0c1003	0.034194957
177	0xbdab6c1d	-0.0837023
178	0x3c395fa4	0.011314306
179	0xbd9ea8f9	-0.07747073
180	0x3d1ea870	0.038734853
181	0x3d9a9b69	0.075491734
182	0xbd389d09	-0.045071635
183	0x3d9b3f92	0.075804844
184	0xbdab40f7	-0.083620004
185	0x3d1c3ab0	0.038141906
186	0x3c40e9a3	0.011774453
187	0xbcc6a4d2	-0.024248514
188	0xbc969d1f	-0.018385468
189	0x3d02ad43	0.031903517
190	0xbcb3b685	-0.021937618
191	0xbdb69d18	-0.08916682
192	0xbd11446a	-0.035465635
193	0x3d90d5e1	0.07072044
194	0xbda3620a	-0.07977684
195	0xbd133369	-0.0359377
196	0x3d061a0f	0.032739695
197	0x3d73c458	0.05951342
198	0xbd93976f	-0.07206618
199	0xbd8417da	-0.06449862
200	0x3d4bf1c7	0.049791124
201	0x3d5f47fc	0.05451201
202	0x3d5cc675	0.0539002
203	0x3d38e792	0.045142718
204	0xbda3d9e7	-0.08000546
205	0x3cbbdd34	0.022932626
206	0xbbfc9613	-0.00770832
207	0x3c06540f	0.008198752
208	0xbd1d4312	-0.03839404
209	0x3da6bc8c	0.08141431
210	0xbbdd583e	-0.006754904
211	0xbd837336	-0.06418459
212	0x3d28ba87	0.04119351
213	0xbbb4c5f5	-0.0055167624
214	0xbd71026b	-0.058840197
215	0xbd34610b	-0.04403786
216	0xbd74650e	-0.059666686
217	0x3c594867	0.013261891
218	0x3c45b85f	0.012067883
219	0xbcf7d0dc	-0.03025096
220	0x3b708c04	0.003670455
221	0xbd5352aa	-0.051592506
222	0xbdb87f77	-0.09008687
223	0xbbbe986b	-0.0058165095
224	0x3da3ad1a	0.07992001
225	0xbd900e6c	-0.07034001
226	0x3c642c84	0.013926629
227	0xbd4d0a02	-0.050058372
228	0xbca0906b	-0.019600114
229	0x3c6f6b5e	0.014613001
230	0xbd41226f	-0.04715198
231	0xbda2e940	-0.07954645
232	0xbbcabeef	-0.006187312
233	0xbc255792	-0.010091679
234	0x3d70d0c5	0.05879285
235	0x3d019aea	0.03164188
236	0x3d3f2c5b	0.04667316
237	0xbd7b1b87	-0.06130555
238	0xbdafa445	-0.08576254
239	0xbd6ff656	-0.058584534
240	0xbd9e0ab7	-0.077168874
241	0xbc02c2a1	-0.007980973
242	0xbcf8484b	-0.03030791
243	0xbc40e61e	-0.011773614
244	0xbcf90fa7	-0.030402971
245	0xbc8fb91f	-0.017544327
246	0x3c801596	0.015635293
247	0x3daa44ac	0.08313879
248	0xbcb66d73	-0.022268986
249	0x3d8cfac1	0.06883765
250	0x3d9c5205	0.076328315
251	0x3d1a4133	0.037659835
252	0xbcd826c5	-0.026385674
253	0x3ca3d4a0	0.019998848
254	0xbd7fa3f4	-0.062412217
255	0xbc569a13	-0.013098258

net.2.bias f4 [256]
0	0x3c66ce75	0.014087309
1	0x3d5e3502	0.05424977
2	0xbda8250d	-0.08210192
3	0x3d14f19f	0.03636324
4	0x3d9dde9b	0.07708474
5	0x3b0eeb66	0.002180779
6	0xbcda9eee	-0.026687112
7	0x3dac4263	0.084111
8	0xbc1af6c2	-0.009458246
9	0x3d86fd80	0.0659132
10	0xbc9940ab	-0.018707594
11	0x3d4a7f06	0.049437545
12	0xbcdc7402	-0.026910786
13	0x3c9e2ee1	0.019309463
14	0xbd93c478	-0.07215208
15	0xbdb8b8ce	-0.09019624
16	0x3d0deed7	0.034651604
17	0xbd45313a	-0.04814265
18	0x3d977615	0.07395569
19	0x3dacefa7	0.084441476
20	0x3d3941df	0.045228835
21	0xbb4d71fd	-0.003134846
22	0xbd8655d6	-0.06559341
23	0xbd7451de	-0.059648387
24	0x3d9326c1	0.07185126
25	0xbbc11a75	-0.0058930465
26	0xbd957311	-0.07297338
27	0xbd287ee2	-0.04113663
28	0xbd1e728c	-0.03868346
29	0xbcfbd9bb	-0.03074347
30	0x3d492513	0.049107622
31	0xbd185541	-0.03719068
32	0x3d71213f	0.058869597
33	0x3ce704f8	0.028200611
34	0xbd366e69	-0.04453889
35	0xbcd75e97	-0.026290221
36	0x3d309b1e	0.04311668
37	0xbcf2f52d	-0.029657925
38	0xbd3c983f	-0.04604363
39	0x3d0f7bdf	0.035030242
40	0xbd71a7bd	-0.05899786
41	0x3c730e1d	0.014834908
42	0xbcd9b76e	-0.026576724
43	0x3d2d1d25	0.042264123
44	0x3d856767	0.06513863
45	0x3c642601	0.013925076
46	0xbd70d649	-0.05879811
47	0x3d5ff039	0.054672454
48	0xbcfd4b7b	-0.030919781
49	0x3c0f2cab	0.008738677
50	0x3c95e673	0.018298363
51	0xbd7f63b2	-0.062350936
52	0xbc30215a	-0.010750139
53	0xbd71d0ed	-0.059037138
54	0x3cf51722	0.029918257
55	0xbd530d14	-0.051526144
56	0xbdbf652e	-0.0934547
57	0x3cbdd4bb	0.023172727
58	0x3d338073	0.04382367
59	0x3d72aff6	0.05924984
60	0x3d95de73	0.073178194
61	0x3daa33ca	0.08310659
62	0xbceb8bee	-0.028753247
63	0x3cb883f6	0.022523861
64	0x3da71925	0.08159093
65	0xba2f7fce	-0.00066947646
66	0x3cbd2174	0.02308724
67	0x3d74e25e	0.059786193
68	0xbdbcf99e	-0.09227298
69	0xbc7d84d1	-0.01547356
70	0x3cf17ea3	0.02947933
71	0xbc5eb24e	-0.013592316
72	0x3cb9d196	0.022682946
73	0x3d96b75b	0.07359191
74	0xbd9b5048	-0.07583672
75	0x3d4d1c1b	0.05007563
76	0x3cef7bf8	0.029233918
77	0xbd9ea96d	-0.07747159
78	0x3da244ce	0.0792328
79	0x3d888e1e	0.06667732
80	0xbcc5dd14	-0.02415327
81	0xbd018ac1	-0.031626467
82	0xbd1d9eaa	-0.038481392
83	0xbc9b3222	-0.018944804
84	0x3d2d3059	0.042282436
85	0x3c00e19e	0.007866291
86	0x3d8ccfd3	0.06875577
87	0x3cc89753	0.02448622
88	0xbd875644	-0.06608251
89	0xbd3bf17e	-0.0458846
90	0x3d6271e4	0.055284396
91	0x39377d3f	0.00017498898
92	0xbcda6f58	-0.026664421
93	0x3d5e4858	0.05426821
94	0x3d034f3f	0.032057997
95	0x3c4907d9	0.012269937
96	0x3daee2ae	0.085393295
97	0x3d35ae82	0.044355877
98	0xbcbddf00	-0.023177624
99	0x3c263b57	0.010145984
100	0xbd725a38	-0.05916807
101	0xbd654a81	-0.055979256
102	0xbd960cf8	-0.07326692
103	0x3d510c1b	0.051036935
104	0x3bfbd03e	0.0076847365
105	0x3da76f88	0.0817557
106	0xbd43cfc4	-0.047805563
107	0x3c897e06	0.016783725
108	0xbce85627	-0.028361393
109	0x3d0afda4	0.033933297
110	0x3d865595	0.06559292
111	0x3da08d7b	0.07839485
112	0x3c8ec8db	0.01742976
113	0xbca03ff1	-0.01956174
114	0x3d08fbb9	0.033443186
115	0xbd2dae1b	-0.042402368
116	0xbd17b525	-0.037037987
117	0x3d46bd2a	0.048520245
118	0xbd56975f	-0.052390452
119	0xbd7f3380	-0.062304974
120	0x3d8ee5cc	0.06977424
121	0x3d537db5	0.051633555
122	0xbd7b859b	-0.061406713
123	0xbd186eaa	-0.037214912
124	0x3d9b1175	0.07571689
125	0xbd933e04	-0.07189563
126	0x3d8a6f10	0.06759465
127	0x3c1529f3	0.00910424
128	0x3c4ab2d1	0.012371735
129	0x3c936fe1	0.017997684
130	0xbd81cfb8	-0.06338447
131	0x3d8e05fb	0.069347344
132	0x3d4e9b9d	0.050441373
133	0xbdbb0ae3	-0.09132936
134	0x3c7f88e1	0.015596599
135	0xbc5f571c	-0.013631608
136	0x3d5d0c8c	0.053967044
137	0x3d8b0b1c	0.06789228
138	0xbd8fc9e7	-0.07020932
139	0x3d909d14	0.0706121
140	0xbcb6d84a	-0.022319932
141	0xbd5e6679	-0.054296944
142	0x3c46a6e0	0.012124747
143	0xbce2d1f4	-0.027688004
144	0x3d8e17b9	0.069381185
145	0xbd36b2e6	-0.044604205
146	0xbd00e2d7	-0.03146633
147	0x3d200099	0.03906307
148	0x3d206075	0.03915449
149	0x3d836c95	0.06417195
150	0xbdb0f4a9	-0.08640415
151	0x3d29c467	0.04144707
152	0x3d445cc9	0.04794005
153	0xbd111bf0	-0.035427034
154	0xbd5d161e	-0.05397617
155	0xbd9fe54d	-0.078074075
156	0xbd621b33	-0.05520172
157	0xbd79916c	-0.0609297
158	0x3cf49213	0.02985481
159	0x3da6c9c0	0.081439495
160	0x3daf5ce7	0.085626416
161	0x3d51b896	0.051201425
162	0xbdbc7bb4	-0.09203282
163	0x3d87f82f	0.06639134
164	0x3d79f31e	0.06102287
165	0xbda5095a	-0.08058424
166	0x3d732f22	0.05937112
167	0x3d04df2b	0.032439392
168	0xbd8b5359	-0.06803007
169	0x3d82870c	0.063734144
170	0x3cc79874	0.024364688
171	0xbcddc8a0	-0.027073205
172	0x3d13cf63	0.03608645
173	0xbb864537	-0.0040976065
174	0x3c8763dc	0.016527109
175	0xbd91fef8	-0.071287096
176	0xbd610b33	-0.05494232
177	0x3d3e7457	0.04649767
178	0x3db142fe	0.08655356
179	0x3d7d38cd	0.061821748
180	0xbdb01eda	-0.085996345
181	0xbdaef0db	-0.08542033
182	0xbd1ecc2f	-0.038768943
183	0x3cce8df0	0.025214165
184	0x3d8e53aa	0.069495514
185	0xbb52ba9a	-0.003215468
186	0x3ce4ecb8	0.027944908
187	0xbd4e365a	-0.050344802
188	0xbdb1a61f	-0.08674263
189	0x3d0cf018	0.03440866
190	0x3d7f2f77	0.062301125
191	0x3bf98300	0.0076144934
192	0xbcb5c440	-0.022188306
193	0x3da64e2f	0.08120381
194	0xbcf8f948	-0.030392304
195	0x3cc7e1bf	0.024399636
196	0xbd4966f7	-0.04917046
197	0x3d0ed691	0.034872595
198	0xbda36b52	-0.07979454
199	0xbd640da0	-0.055677056
200	0xbd27743e	-0.04088234
201	0xbd7ee4fe	-0.062230103
202	0x3d68c19c	0.056825265
203	0xbd8a20e2	-0.06744553
204	0xbdaa67d2	-0.083205834
205	0x3d94250f	0.07233631
206	0xbda84eb6	-0.08218138
207	0xbd0e0ef1	-0.034682218
208	0xbcd96691	-0.026538165
209	0x3d9211cf	0.07132303
210	0x3d85fc87	0.065423064
211	0xbcf42633	-0.029803371
212	0xbc9f9914	-0.019482173
213	0xbd001b10	-0.03127581
214	0xbd0481b7	-0.03235027
215	0x3d3a0e53	0.045423817
216	0xbce43581	-0.027857544
217	0x3d3d8efc	0.04627894
218	0x3d97f2d3	0.07419362
219	0xbc5c6fab	-0.013454358
220	0x3cc70efc	0.024299137
221	0xbdb9cef7	-0.090726785
222	0x3baa3efa	0.0051954957
223	0xbbce144f	-0.006289042
224	0x3d71d9ac	0.05904548
225	0xbd82e3b2	-0.06391086
226	0x3da1365c	0.07871696
227	0xbd8ca896	-0.06868093
228	0x3d8ccdcb	0.068751894
229	0xbd5912bb	-0.05299638
230	0x3bff9391	0.0077995737
231	0x3cf78d74	0.030218817
232	0xbd83e1d7	-0.0643956
233	0xbd9c240f	-0.07624065
234	0xbdafb7f3	-0.085800074
235	0x3d673b9d	0.056453336
236	0xbd3bf1d4	-0.045884922
237	0xbcf28cb5	-0.02960811
238	0xbc9afeb9	-0.01892029
239	0x3b560f21	0.0032662826
240	0x3cdbf1d2	0.026848707
241	0xbd430cf7	-0.047619786
242	0x3cac3015	0.021019021
243	0xbd6c09c1	-0.05762649
244	0xbda309a1	-0.07960821
245	0xbd14cd26	-0.036328457
246	0x3cb2b064	0.021812625
247	0xbc80fb6f	-0.015744893
248	0x3d2657d8	0.040611118
249	0x3d7553f8	0.059894532
250	0x3d00eed0	0.03147775
251	0xbbbd485d	-0.0057764486
252	0xbd38d4ea	-0.045124926
253	0x3c3f53c2	0.011677684
254	0xbd92ef35	-0.07174531
255	0x3be5b941	0.0070106094

net.4.weight f4 [256, 256]
0	0x3c933202	0.017968182
1	0xbd590a5e	-0.052988403
2	0x3cfa8068	0.030578807
3	0x3aac94b9	0.0013166881
4	0x3cd35f43	0.02580226
5	0xbd39d243	-0.045366537
6	0x3d486e8a	0.048933543
7	0xbd273c31	-0.040828887
8	0xbd46c201	-0.04852486
9	0xbc860c08	-0.016363159
10	0x3d01d2d4	0.031695202
11	0xbd0637b9	-0.032767985
12	0xbd57dc84	-0.052700534
13	0x3d289483	0.041157257
14	0x3d1359e4	0.0359744
15	0x3c463d67	0.0120996
16	0xbc3eb241	-0.011639179
17	0x3d4dc26e	0.05023425
18	0x3cc7c850	0.024387509
19	0xbcbb0f21	-0.022834362
20	0x3cf04106	0.02932788
21	0xbd1c74e1	-0.038197402
22	0xbd6a5ab5	-0.05721541
23	0x3d4d9709	0.050192866
24	0x3d2a6031	0.04159564
25	0x3c66276b	0.014047484
26	0xbcbaf1cf	-0.022820381
27	0xbd845980	-0.06462383
28	0xbb98c5bd	-0.004662244
29	0x3cc7f20e	0.024407413
30	0xbb90b5cf	-0.0044162045
31	0xbc05834c	-0.008148979
32	0xbd323901	-0.043511394
33	0xbd224cff	-0.03962421
34	0xbd04ccae	-0.03242176
35	0xbccbc544	-0.024874337
36	0xbd4227e3	-0.04740132
37	0xbccaf3be	-0.024774428
38	0xbd0752b6	-0.033037864
39	0xbd3e7d9d	-0.046506513
40	0x3cb65a80	0.02225995
41	0xbd017a62	-0.031610854
42	0x3a3c4a79	0.0007182728
43	0x3c862108	0.016373172
44	0xbd76b137	-0.0602276
45	0xbcaf2d55	-0.02138392
46	0xbcc91ff9	-0.024551379
47	0xbcceaa6f	-0.025227753
48	0xba6820e1	-0.0008854997
49	0x3bb4959c	0.005510999
50	0x3d483ed6	0.04888805
51	0xbc978b86	-0.018499147
52	0xbc116276	-0.008873573
53	0x3c3b8d7e	0.011447309
54	0x3d40fe3a	0.04711745
55	0x3d06ebe9	0.032939825
56	0x3d284c6e	0.041088514
57	0x3d009f9a	0.031402208
58	0xbc2e60a0	-0.010643154
59	0x3b652535	0.0034964804
60	0xbd4daab4	-0.050211623
61	0xbd0417f4	-0.032249406
62	0xbd5f23ab	-0.054477375
63	0x3c6ce7c6	0.014459556
64	0xbb6270f1	-0.0034552182
65	0xbc77eeec	-0.015132647
66	0xba3518ed	-0.0006908316
67	0xbd80b64a	-0.06284769
68	0x3d4e0f6e	0.050307684
69	0xbca6ab59	-0.020345377
70	0x3d1c45d0	0.038152516
71	0x3d2b45db	0.041814666
72	0x3cdff71c	0.02733951
73	0x3d46c542	0.048527963
74	0xbd2ae8d8	-0.041725963
75	0x3c0ca1a9	0.008583465
76	0x3bd67e75	0.0065458366
77	0x3c1811c6	0.009281581
78	0x3d433795	0.04766043
79	0x3ba23dfa	0.004951236
80	0xbc2ae458	-0.010430418
81	0xba513c2d	-0.0007981684
82	0x3d0e2527	0.0347034
83	0xbd24a3f1	-0.04019541
84	0x3ceffaeb	0.029294452
85	0xbcbf113b	-0.023323646
86	0x3c30ba7c	0.010786649
87	0x3d3f4558	0.04669699
88	0x3cc1c8d7	0.023655338
89	0x3d543a06	0.051813148
90	0xbcfafefb	-0.030639162
91	0xbd04df17	-0.032439318
92	0xbd4bfd21	-0.04980195
93	0xbd5ae855	-0.053444225
94	0xbce92062	-0.028457824
95	0x3c8304b7	0.01599346
96	0xbd6e789a	-0.058220483
97	0xbd82f740	-0.063948154
98	0xbd6f3ae8	-0.058405787
99	0xbc319983	-0.010839823
100	0x3cff4714	0.031161822
101	0xbb76be23	-0.0037649951
102	0xbb13cda0	-0.0022552982
103	0x3cb6b14f	0.022301344
104	0x3b16cf49	0.0023011735
105	0x3d2218dd	0.039574493
106	0xbc9c694f	-0.019093184
107	0xbcb86a47	-0.022511614
108	0xbcb7e726	-0.022449087
109	0x3c483763	0.0122202365
110	0x3d6564a9	0.0560042
111	0xbca0a016	-0.019607585
112	0x3cdf5f31	0.02726707
113	0xbcddcc03	-0.02707482
114	0xbd067743	-0.03282858
115	0xbd099e03	-0.033597957
116	0xbd8022a6	-0.06256609
117	0xbd109bcb	-0.035304826
118	0x3d0acbb3	0.03388567
119	0x3c384d54	0.011248905
120	0x3d5546b1	0.05206937
121	0x3d64dddb	0.05587564
122	0xbd81ebfb	-0.06343838
123	0x3c99d226	0.018776964
124	0x3d4dc889	0.050240073
125	0xbd88471d	-0.06654189
126	0xbc3b10f9	-0.011417621
127	0xbd839890	-0.06425583
128	0x3d7495ed	0.059713293
129	0xbd35a814	-0.044349745
130	0x3d56d2fa	0.052447297
131	0x3bf6585d	0.007517858
132	0xbc210b44	-0.009829346
133	0xbc94274d	-0.018085146
134	0xbc81967a	-0.015818823
135	0xbd6748a9	-0.05646578
136	0x3c43d4d1	0.011952595
137	0xbc19068b	-0.009339939
138	0xbd8b7d7e	-0.06811045
139	0xbcd439e0	-0.025906503
140	0xbd66d2da	-0.056353427
141	0xbc44b463	-0.012005898
142	0x3c8cae70	0.017173022
143	0x3d1e6e14	0.038679197
144	0x3bf046c9	0.007332657
145	0xbc6aeb86	-0.01433838
146	0x3cb9e005	0.022689829
147	0xbd4c2df1	-0.0498485
148	0x3d0f47be	0.034980528
149	0x3cf9eb55	0.030507723
150	0xbd360fab	-0.044448536
151	0x3b9a9895	0.004717896
152	0xbd821eeb	-0.063535534
153	0x3c6608dc	0.014040198
154	0xbc74d5ef	-0.014943584
155	0x3d078e11	0.03309447
156	0xbd56dd63	-0.052457225
157	0xbd64535a	-0.055743553
158	0xbd19bbe7	-0.037532713
159	0xbd30d349	-0.043170247
160	0x3c675c41	0.014121116
161	0xbd373a77	-0.04473349
162	0xbd38104e	-0.044937424
163	0xbcc00e65	-0.023444364
164	0x3c00ef5b	0.007869567
165	0x3c8560cb	0.016281506
166	0x3d2b7cc2	0.041867025
167	0x3d421f45	0.047393102
168	0xbd2e42ae	-0.04254406
169	0x3d4d45d4	0.05011542
170	0xbc64ec0d	-0.0139722945
171	0x3d6d0b05	0.057871837
172	0xbcb76e33	-0.022391414
173	0xbcd80503	-0.026369577
174	0xbb3f084c	-0.0029149232
175	0x3d37a71d	0.044837106
176	0x3ccaa8a9	0.024738627
177	0xbd38b18a	-0.04509119
178	0x3d401f7e	0.046905033
179	0xbced5764	-0.028972335
180	0xbce14ba3	-0.027501887
181	0xbc3dcf09	-0.011585006
182	0x3c47a826	0.012186086
183	0x3cb2d4db	0.021830013
184	0x3c98969e	0.018626507
185	0xbd24d8ef	-0.040245946
186	0xbc634204	-0.01387072
187	0x3d0867b5	0.033302028
188	0xbc7720cc	-0.015083503
189	0xbd27ad06	-0.040936492
190	0xbba3a1fe	-0.004993676
191	0x3b884dd7	0.00415967
192	0xbd792e33	-0.060835075
193	0x3d2d161b	0.04225741
194	0xbc5dbbf8	-0.013533585
195	0xbd59357d	-0.053029526
196	0xbd7c8e7f	-0.061659332
197	0xbc895990	-0.01676634
198	0x3d28dc46	0.041225694
199	0xbd1ea5bb	-0.03873227
200	0x3c6d7630	0.01449351
201	0xbc7fb59a	-0.015607262
202	0xbd35b6f2	-0.044363923
203	0x3c7ea25b	0.015541638
204	0xbd6795f1	-0.05653948
205	0xbac2a203	-0.0014849309
206	0x3d3f563e	0.046713106
207	0xbbf1cb05	-0.007378938
208	0x3d03920d	0.032121707
209	0xbd63eb9f	-0.055644628
210	0x3d0ecadd	0.034861434
211	0xbd43c87a	-0.04779861
212	0xbc84bc3d	-0.01620304
213	0xbd8415cc	-0.0644947
214	0xbd6d93c7	-0.05800226
215	0xbc51832f	-0.012787624
216	0xbd7f23f4	-0.062290147
217	0xbd85a0e9	-0.06524832
218	0xbd84ea21	-0.06489969
219	0xbd095d8a	-0.03353647
220	0x3d3c4fcb	0.045974534
221	0xbd1bf6d1	-0.03807718
222	0xbd337c7a	-0.043819882
223	0x3d130dfa	0.035902
224	0x3d5094db	0.05092321
225	0xbc667a5d	-0.01406726
226	0x3c0af7af	0.008481904
227	0xbadd14a5	-0.0016867114
228	0x3d2b14cd	0.041767884
229	0xbd5ff0a4	-0.054672852
230	0xbd4a2be4	-0.049358264
231	0x3c9684ce	0.018373873
232	0xbd32de8d	-0.043669272
233	0xbcd57677	-0.026057465
234	0x3c812814	0.015766181
235	0x3d479363	0.048724543
236	0xbd0e0f34	-0.034682468
237	0xbd522de7	-0.051313307
238	0x3c9f42b7	0.019440992
239	0x3d28eb66	0.04124012
240	0xbc482a48	-0.012217112
241	0x3c64478b	0.013933073
242	0x3d1c92c2	0.038225897
243	0xbc15508f	-0.009113445
244	0x3d625b7a	0.05526302
245	0x3c8d2023	0.017227238
246	0xbbbb6d1b	-0.0057197935
247	0xbc674b3e	-0.01411706
248	0xbc85af7b	-0.016319027
249	0xbd556e2e	-0.05210703
250	0xbd1ce669	-0.038305674
251	0xbd4a9c86	-0.04946568
252	0x3bfdea6d	0.007748893
253	0x3c84e8b2	0.016224239
254	0xbc78a729	-0.015176573
255	0xbcb785b6	-0.022402626

net.4.bias f4 [256]
0	0x3d557f7d	0.052123535
1	0x3d664c2d	0.05622499
2	0x3cbf7904	0.023373134
3	0xbd81295b	-0.06306716
4	0x3d0ee7e9	0.034889136
5	0xbd5d0b00	-0.05396557
6	0x3c78e73e	0.015191851
7	0xbc1b0381	-0.009461285
8	0xbd14dc87	-0.036343124
9	0xbd787d0c	-0.06066613
10	0xbcf4a537	-0.029863937
11	0xbd3efbda	-0.046626903
12	0x3c94c7f7	0.018161757
13	0xbd4f4bda	-0.050609447
14	0xbd07c3b7	-0.033145633
15	0x394bdd44	0.00019442016
16	0xbd7f0afc	-0.062266335
17	0xbd37c2b1	-0.044863407
18	0xbc717bc4	-0.014738981
19	0x3d2b39f0	0.0418033
20	0xbcc53c15	-0.0240765
21	0x3b8aff5e	0.004241868
22	0x3ca4330b	0.02004387
23	0x3c19b6f4	0.009381998
24	0xbbd35967	-0.0064498666
25	0x3c5bbec4	0.013412181
26	0xbd1b4422	-0.037906773
27	0x3ca78363	0.020448392
28	0x3d36c063	0.044617068
29	0x3cb27649	0.021784918
30	0xbbf4a20b	-0.007465606
31	0xbc289ea4	-0.010291729
32	0x3bf215d0	0.007387854
33	0x3b377140	0.0027991086
34	0x3c976a3e	0.018483277
35	0x3cf0ea59	0.02940862
36	0x3cd7b10d	0.026329542
37	0xbc9c38a1	-0.019069972
38	0x3cb32a54	0.02187077
39	0xbd69c3aa	-0.057071365
40	0x3d098bee	0.033580713
41	0xbd1f5697	-0.038900938
42	0xbd338a17	-0.043832865
43	0xbbcafe71	-0.0061948826
44	0xbbee0fef	-0.007265083
45	0xbd801c67	-0.06255417
46	0xbd767be7	-0.060176756
47	0x3d4c2ea7	0.04984918
48	0xbd261fa2	-0.04055751
49	0x3ca3ab87	0.019979252
50	0xbcaf73b0	-0.021417469
51	0x3d60cd28	0.054883152
52	0xbd5ba964	-0.05362834
53	0xbd33a5c5	-0.043859262
54	0xbd1b1e88	-0.037870914
55	0x3b85dade	0.004084929
56	0x3cd4c11c	0.025970988
57	0x3c322fbe	0.01087564
58	0xbc6e32dd	-0.014538494
59	0x3d224761	0.039618853
60	0x3d1227e0	0.03568256
61	0x3d2e9516	0.04262265
62	0xbd58c2bd	-0.052920092
63	0x3c71782d	0.014738125
64	0x3d1a7414	0.037708357
65	0xbd2483e6	-0.04016485
66	0x3d2ecdfd	0.042676914
67	0xbd474746	-0.048651956
68	0x3d0e658b	0.034764808
69	0xbd209de3	-0.039213073
70	0xbc988d76	-0.018622141
71	0xbd328137	-0.04358026
72	0x3d6518a8	0.055931717
73	0xbd512631	-0.051061813
74	0xbd8b4409	-0.06800086
75	0x3c0803ba	0.00830167
76	0xbce37020	-0.027763426
77	0xba733d1a	-0.0009278819
78	0x3d110d16	0.03541287
79	0x3d41033e	0.047122233
80	0x3ca7f3dd	0.020502025
81	0xbd0f5d3d	-0.03500103
82	0xbd587bef	-0.052852567
83	0x3cf3f3d8	0.02977936
84	0x3d077abf	0.033076044
85	0xbd838d77	-0.06423467
86	0x3c545da5	0.01296178
87	0x3d2b7f2f	0.04186934
88	0xbd4a9983	-0.049462806
89	0xbd7e02eb	-0.0620145
90	0xbc8cb21b	-0.017174771
91	0x3d4070dc	0.04698263
92	0xbcc7eddb	-0.02440541
93	0x3d0bd3a7	0.034137394
94	0x3bd4598c	0.0064804014
95	0x3d19ee42	0.037580736
96	0x3cd8d7ca	0.026470084
97	0x3d4eaeb7	0.05045959
98	0x3d1feaaa	0.039042152
99	0xbd8d1a6c	-0.06889805
100	0x3d596142	0.053071268
101	0xbd8a6578	-0.06757635
102	0x3d35441a	0.0442544
103	0x3ca2bc10	0.019865066
104	0x3cbbddad	0.022932852
105	0xbc827048	-0.01592268
106	0x39505e28	0.00019871502
107	0xbd5a2ce8	-0.053265482
108	0x3d4832bf	0.04887652
109	0xbad97d36	-0.0016593102
110	0x3d334b14	0.043772772
111	0x3cf93c4b	0.030424258
112	0xbd3e4922	-0.046456464
113	0x3c0d94fe	0.00864148
114	0x3cc2216a	0.023697574
115	0xbce815a2	-0.028330628
116	0xbc4f5053	-0.012653428
117	0x3cce444b	0.025179049
118	0xbd416581	-0.047215942
119	0xbd2b1555	-0.04176839
120	0xbc4e2cda	-0.012583936
121	0xbcde085e	-0.0271036
122	0x3ca4f1b5	0.020134786
123	0x3d3eb24b	0.046556752
124	0xbd168ccd	-0.03675537
125	0xbd072323	-0.032992493
126	0x3c882e50	0.016623646
127	0xbb8fd2b6	-0.0043891324
128	0x3d0c3e15	0.034238894
129	0x3cf7916d	0.030220712
130	0xbd1717d8	-0.036887974
131	0xbd830e58	-0.0639922
132	0xbc90f6c3	-0.01769579
133	0x3d3db551	0.046315495
134	0x3cc26914	0.023731746
135	0xbc8b9421	-0.017038407
136	0xbbb1b473	-0.0054231226
137	0xbce12586	-0.027483713
138	0xbc06382b	-0.008192102
139	0x3d230a86	0.039804958
140	0xbc9bbcab	-0.019010862
141	0xbb3f882a	-0.0029225447
142	0xbd7e102e	-0.06202715
143	0xbcca2e7b	-0.024680367
144	0xbca9f2c5	-0.020745644
145	0x3ca2c349	0.01986851
146	0x3cda670f	0.02666047
147	0xbd41439f	-0.04718363
148	0x3c529ccf	0.012854769
149	0x3c041c0c	0.0080633275
150	0x3d10f493	0.035389494
151	0xbd76175b	-0.060080867
152	0x3d0a7995	0.033807356
153	0x3cf29597	0.029612346
154	0x3ba6604c	0.0050773975
155	0xbd3f0dda	-0.04664407
156	0x3ca0e2c8	0.019639388
157	0x3cc3cd94	0.023901738
158	0x3c1ee2e6	0.0096976515
159	0xbd4d2408	-0.05008319
160	0x3c0d5f25	0.008628641
161	0xbcbef948	-0.023312226
162	0xbc50718d	-0.012722385
163	0xbc3743de	-0.011185614
164	0x3c1f2a1e	0.009714631
165	0xbd0e24c2	-0.034703024
166	0xbd631fea	-0.055450357
167	0xbd244493	-0.04010446
168	0x3b32c28c	0.0027276604
169	0xbcf71269	-0.030160146
170	0xbd10adcb	-0.035321992
171	0x3d514801	0.05109406
172	0xbd75301d	-0.059860338
173	0xbc94faf8	-0.018186077
174	0x3cb887fd	0.022525782
175	0xbd17a5b8	-0.037023276
176	0xbd109f37	-0.03530809
177	0xbd80def7	-0.06292527
178	0xbc8762a2	-0.016526524
179	0xbd63135e	-0.055438392
180	0xbc8a3b58	-0.016874
181	0xbb964f05	-0.0045870566
182	0x3cdd9077	0.027046425
183	0xbb7742bf	-0.0037728993
184	0x3aa3f774	0.001250966
185	0xbd14e2ff	-0.036349293
186	0xbd831402	-0.064003006
187	0x3d33b231	0.04387111
188	0xbd3ff1b0	-0.04686135
189	0x3c8ce243	0.017197734
190	0x3cd10acf	0.02551785
191	0x3c68e70c	0.014215242
192	0xbc233476	-0.009961238
193	0xbd474404	-0.04864885
194	0x3d59cfad	0.05317657
195	0xbd5667b1	-0.05234498
196	0xbd93c727	-0.0721572
197	0xbd75f6cc	-0.060049817
198	0xbc852ea5	-0.016257593
199	0xbd01ddd5	-0.031705696
200	0xbc389df3	-0.011268127
201	0x3d2013c2	0.039081343
202	0x3d4c0c62	0.049816497
203	0xbd70bb14	-0.05877216
204	0xbd1c7926	-0.038201474
205	0xbb00cb12	-0.001965229
206	0xbbe4d5e8	-0.0069835074
207	0x3cf4e855	0.02989594
208	0x3c8bf2d7	0.017083568
209	0xbca9d959	-0.020733522
210	0x3bcbeead	0.0062235207
211	0x3bfdeeaa	0.0077493982
212	0xbcc22fb4	-0.023704387
213	0x3d457847	0.04821041
214	0x3d047ea8	0.03234735
215	0xbca5b2be	-0.020226832
216	0x3d389083	0.045059692
217	0xbd886312	-0.06659521
218	0xbd5f47ce	-0.054511838
219	0xbd44b64a	-0.048025407
220	0x3ca6a7e6	0.020343732
221	0xbd7269e5	-0.05918302
222	0xbc93f441	-0.018060805
223	0x3d35a107	0.04434302
224	0x3d40f94a	0.04711274
225	0x398d6c1c	0.00026974163
226	0xbc19eaa0	-0.009394318
227	0xbc6305ce	-0.013856364
228	0xbba61738	-0.005068686
229	0xbd7ce2d0	-0.061739743
230	0xbd62bf89	-0.055358443
231	0x3d6480ae	0.05578678
232	0x3cfe62b5	0.031052927
233	0xbd431af6	-0.047633134
234	0xbd3754ff	-0.044758793
235	0x3d0c4eef	0.034254964
236	0x3cbf5451	0.023355635
237	0xbd813b6e	-0.063101634
238	0x3c5fb07b	0.013652916
239	0xbbfda451	-0.0077405353
240	0xbd01fa17	-0.031732645
241	0x3bb3dbeb	0.0054888627
242	0xbd3b967a	-0.045797803
243	0xbd019a46	-0.031641267
244	0xbcb9e29e	-0.022691067
245	0xbd643629	-0.055715714
246	0xbd54be88	-0.051939517
247	0xbd582b59	-0.052775715
248	0xbc66bc6f	-0.014083012
249	0xbd841ce0	-0.0645082
250	0x3d4ad3ac	0.049518272
251	0xbc5b5cb3	-0.0133888
252	0xbd325615	-0.043539125
253	0xbc5ac7d9	-0.013353311
254	0x3c23bdd4	0.009993989
255	0x3b84d8fd	0.0040541873

net.6.weight f4 [256, 256]
0	0x3c2ca4d9	0.01053735
1	0x3cc5874b	0.024112364
2	0x3c0607f7	0.00818061
3	0x3c94970d	0.018138433
4	0xbd70e6ed	-0.058813978
5	0x3d12df93	0.03585775
6	0xbc98ac06	-0.018636715
7	0xbc12a9a5	-0.008951579
8	0x3c089556	0.008336386
9	0x3cd4920c	0.025948547
10	0x3d503ad3	0.05083735
11	0xbd7459ed	-0.059656072
12	0xbd302bb6	-0.043010436
13	0xbd74b272	-0.05974049
14	0xbc7d0969	-0.015444138
15	0x3d5f5dfb	0.054532986
16	0x3ce3e512	0.02781919
17	0xbcf4961e	-0.029856738
18	0x3ad4b3e1	0.0016227924
19	0x3d571f11	0.05251986
20	0xb9805f46	-0.00024485047
21	0x3cc18040	0.023620725
22	0x3cceb2dd	0.025231773
23	0xbc68fbfe	-0.014220236
24	0xbd83b086	-0.064301535
25	0xbd01b3ef	-0.03166574
26	0x3cbd81a5	0.023133108
27	0xbc89614c	-0.016770028
28	0xbd7259bc	-0.05916761
29	0xbd08598f	-0.033288535
30	0x3c1297e1	0.008947344
31	0xbcabb74d	-0.020961428
32	0x3d2321ad	0.039827038
33	0x3d499dfa	0.049222924
34	0x3d1f6b02	0.03892041
35	0xbc442c45	-0.011973445
36	0x3d3d8f95	0.04627951
37	0xbd51020c	-0.051027343
38	0xbb99e8f6	-0.0046969606
39	0xbd16bba6	-0.03680005
40	0x3ccfb2c4	0.025353797
41	0x39a58d98	0.00031576748
42	0x3b4ffadb	0.0031735215
43	0xbd0e1bea	-0.03469459
44	0xbd176cf0	-0.036969125
45	0xbd778c1b	-0.06043635
46	0xbd6311a9	-0.055436764
47	0xbd49bf23	-0.049254548
48	0x3c69de8d	0.014274252
49	0x3c9b2699	0.018939303
50	0xbd67e2bc	-0.056612715
51	0xbd81dd95	-0.063410915
52	0xbd24417f	-0.040101524
53	0xbc1221c0	-0.008919179
54	0x3c42a569	0.011880257
55	0x3bc0222c	0.0058634486
56	0xbd22bf15	-0.03973301
57	0xbd6869a1	-0.05674136
58	0x3d605090	0.05476433
59	0xbc87d98b	-0.016583225
60	0xbd6836b1	-0.056692783
61	0x3cc1cc0e	0.023656871
62	0x3d7263c8	0.05917719
63	0xbc8d2d47	-0.017233504
64	0x3d619975	0.05507799
65	0xbd5680f7	-0.052369084
66	0x39e26b24	0.00043185905
67	0xbd830b6e	-0.063986644
68	0x3bdec9bc	0.006798951
69	0x3b56573f	0.0032705811
70	0x3c3bba91	0.011458055
71	0xbcfb7832	-0.030696962
72	0xbd698b29	-0.05701748
73	0xba942cf0	-0.0011304896
74	0xba4dfc47	-0.00078577216
75	0xbc078056	-0.008270344
76	0xbd61154d	-0.054951955
77	0x3d650932	0.055916972
78	0xbcd16ef9	-0.025565611
79	0xbd17b201	-0.037034992
80	0x3d78a3ab	0.06070296
81	0xbbe85bf1	-0.0070910384
82	0x3d5bed0a	0.053692855
83	0x3c0c81d4	0.008575875
84	0xbce95f2b	-0.028487762
85	0xbd4562e8	-0.048190027
86	0xbc535560	-0.012898773
87	0x3d675f7f	0.056487557
88	0x3d34a590	0.044103205
89	0x3d5d6ad3	0.054056954
90	0x3c000ab5	0.007815053
91	0xbd38d152	-0.0451215
92	0x3d629d85	0.055326004
93	0xbb62d38b	-0.0034610953
94	0xbc87a2f9	-0.016557204
95	0xbc92ca02	-0.01791859
96	0x3d42d4f7	0.04756638
97	0x3c41c82c	0.01182751
98	0x3cb124b0	0.02162394
99	0x3d30e75b	0.043189388
100	0x3c841b9a	0.016126443
101	0xbcb6a159	-0.022293733
102	0xbaf97131	-0.0019030926
103	0x3bd6f782	0.006560267
104	0x3d3a94f4	0.04555221
105	0xbcf97a36	-0.030453783
106	0xbca420d6	-0.020035189
107	0x3d478259	0.048708294
108	0x3c04edfb	0.00811338
109	0xbd27eddc	-0.040998325
110	0x3c407bcd	0.011748266
111	0x3cac9aa8	0.02106984
112	0x39e7531a	0.0004412167
113	0x3cef5016	0.029212993
114	0xbd722402	-0.05911637
115	0xbcf3591d	-0.029705578
116	0x3c8fbd68	0.01754637
117	0xbd797d7b	-0.060910683
118	0xbc11d7c0	-0.008901536
119	0x3d648c64	0.05579795
120	0x3d1f96fa	0.03896234
121	0x3cd7a6a7	0.026324583
122	0xbc9ae237	-0.018906696
123	0xbd3235c3	-0.043508302
124	0xbcdd292c	-0.026997171
125	0xbd6285a4	-0.05530323
126	0x3bd3dfad	0.006465873
127	0xbd52c14e	-0.05145388
128	0xbac9f636	-0.001540846
129	0xbd047e8c	-0.032347247
130	0x3be82c5f	0.0070853676
131	0x3c91321c	0.01772409
132	0x3d34ca31	0.044138137
133	0x3a305c5e	0.0006727631
134	0xbbcf0476	-0.0063176705
135	0xbd738ceb	-0.05946056
136	0xbc5b5799	-0.013387584
137	0x3c412555	0.011788686
138	0x3d6f39c9	0.058404718
139	0x3d50f4be	0.051014654
140	0xbc09dc8e	-0.008414401
141	0x3c247314	0.010037202
142	0x3d73e38d	0.05954318
143	0x3d32c4ab	0.04364459
144	0xbc7f9d14	-0.015601415
145	0xbca63152	-0.02028719
146	0xbd23a59a	-0.03995285
147	0xbbcd2147	-0.0062600705
148	0x3d3c18e1	0.045922164
149	0x3d151339	0.036395285
150	0x3c31d3b5	0.010853698
151	0xbd262ad5	-0.04056819
152	0x3d426a64	0.047464743
153	0x3d5bd1df	0.053666946
154	0xbd769f4d	-0.060210515
155	0xbbeccf84	-0.007226886
156	0xbcc91901	-0.024548056
157	0x3d6941c5	0.05694749
158	0xbd5dc270	-0.05414051
159	0x3c477e22	0.0121760685
160	0x3ce01186	0.027352106
161	0xbd7d947b	-0.06190918
162	0xbc64b890	-0.013960019
163	0xbd613f64	-0.054992095
164	0xbc935e97	-0.01798944
165	0xbd3ee347	-0.046603467
166	0xba015bfe	-0.00049346674
167	0x3d24f057	0.04026827
168	0x3d4d3f94	0.05010946
169	0x3d2aaf2f	0.041670974
170	0xbd43a69b	-0.04776631
171	0x3d444dcb	0.04792575
172	0xbcd67b71	-0.026181908
173	0xbd54d31f	-0.051959153
174	0x3d8088ac	0.06276068
175	0xbca7d9b2	-0.020489547
176	0xbcffca9d	-0.031224543
177	0x3ce5749e	0.028009709
178	0x3d301f62	0.04299868
179	0xbce03045	-0.027366767
180	0x3adc413d	0.001680411
181	0xbc548678	-0.012971513
182	0x3cf53143	0.029930716
183	0xbcf3ddcc	-0.029768847
184	0xbd20d374	-0.039264157
185	0xbd10e1a3	-0.035371434
186	0x3d6c2430	0.0576517
187	0xbca37e2e	-0.019957628
188	0x3b897ae1	0.0041955565
189	0xbc002306	-0.00782085
190	0x3d0fee00	0.035139084
191	0x3d238c7d	0.039928902
192	0xbd42c7a0	-0.04755366
193	0xbbddefb2	-0.0067729587
194	0xbad1977b	-0.0015990579
195	0xbd566e23	-0.05235113
196	0x3d3010fe	0.042984955
197	0x3d667d9d	0.056272138
198	0x3c1b1ec0	0.009467781
199	0x3d36c024	0.044616833
200	0xbd1d7721	-0.03844369
201	0x3a81e531	0.0009910223
202	0xbbff2b49	-0.0077871424
203	0x3c014ba9	0.007891574
204	0xbcd041ee	-0.025422063
205	0x3ac63115	0.0015120829
206	0xbd6b921a	-0.05751238
207	0xbd75b424	-0.05998625
208	0x3d51665d	0.05112301
209	0x3b9109b3	0.004426205
210	0x3bd96990	0.0066348985
211	0xbcf05c49	-0.02934088
212	0x3cabfbf9	0.020994173
213	0xbba1b752	-0.0049351836
214	0x3c79eff2	0.015254961
215	0xbd1bcf44	-0.03803946
216	0x3c832198	0.01600723
217	0xbc5d8a51	-0.013521747
218	0xbd61bb2f	-0.055110153
219	0x3c39bca1	0.011336477
220	0xbd3ff640	-0.0468657
221	0xbd5f072f	-0.05445021
222	0x3d0e287f	0.03470659
223	0xbd3e4246	-0.046449922
224	0xbd4b8ae9	-0.049693022
225	0x3ce2d565	0.027689645
226	0x3d1ab183	0.037766945
227	0x3cd15d39	0.025557147
228	0xbd06cf1c	-0.03291236
229	0xbd217713	-0.0394202
230	0x3cc7369f	0.024318038
231	0xba974a8a	-0.00115426
232	0x3cb6a38a	0.022294778
233	0xbb26273d	-0.0025352978
234	0x3d20b8f9	0.039238904
235	0xbd2c148b	-0.04201178
236	0x3c58a554	0.013223011
237	0x3cd8103b	0.026374927
238	0xbb928234	-0.004471088
239	0xbd7d08af	-0.06177586
240	0xbd24f92c	-0.04027669
241	0x3d581ea2	0.05276359
242	0x3c02d1f0	0.007984623
243	0xbcc54292	-0.024079595
244	0xbd2ec5cc	-0.042669103
245	0x3ad16a9b	0.0015977205
246	0x3d278b26	0.040904187
247	0xbc5140ea	-0.012771824
248	0xbd83c1dd	-0.06433461
249	0x3bf1c8e2	0.0073786834
250	0xbcd40d32	-0.025885198
251	0x3d0577a3	0.032584798
252	0x3b810a7d	0.003938018
253	0x3d6b74e3	0.05748452
254	0xbd1b98b4	-0.037987426
255	0xbcbd4aef	-0.02310702
