pth of PINN/pinn_elasticity_adam10k_lbfgs5k_cosine.pth (torch, 670442 bytes, 10 tensors)

net.0.weight f4 [128, 2]
00000000: d219 29bf bebd 09be 09fe aebe 4401 42be
00000010: 9445 24bf a8e4 913e 1eb8 20bf 9545 11bd
00000020: e846 7a3e 9dce 6abe fa9c c83e f4dc b03d
00000030: 925b bf3e 0d5d e23e 22ad 95be 7457 793e
00000040: f1f6 94be 85f2 5d3e d8f6 b8be 5df3 a33e
00000050: d6d4 193e 0873 91be a8db b4be 0d97 3f3e
00000060: 7ed0 2a3f e5fd ae3e 786d 83bd 7829 41bd
00000070: 0e50 c83e 54e5 f7be 26dc 643e 3008 71be
00000080: ff52 cd3e 9aa8 78be a42e ed3c 812c 7a3e
00000090: b6df f23e fa69 c6bd dba3 223f e7fe 16bf
000000a0: 5007 00be a3b0 31bf 75ec 693d 2775 493e
000000b0: ffc3 8dbe 9993 933e 39e4 f4bd 5751 1abf
000000c0: 04b2 083f c0dd db3e dba4 b13e ccd5 0d3f
000000d0: 6693 823e 4e6f be3e b843 153f de92 10be
000000e0: 47b3 0dbf c2cf b7be 1e44 d7bd a707 81bd
000000f0: d9ce bf3b 21ae cd3e c8f3 623e c970 05bf
00000100: 4b51 5fbe d192 2abe 34b2 d93e 1677 80be
00000110: 6272 92be 982b dbbd fcc4 31be 6b38 2dbe
00000120: 867a 31bf 605c 213f 9ce8 ba3e 264f a5be
00000130: 5002 e3be 0ff0 af3c 3f98 c93e 1735 fcbe
00000140: 536d 85be 10fb 913e 0510 e5be d0ee a0bd
00000150: c9cf 06bf ee3e 263f c152 c13e c30f 26bf
00000160: 3d56 cfbe 1895 853e 63c4 f33c c684 363e
00000170: 66b6 10bf e4e1 bdbe 5b96 a03e a022 07bf
00000180: d39c 15be ee4d 9e3e 4dc1 b63e 45da 453d
00000190: 73a7 403e 16f2 9d3e 0f5c aebd 6d0c 44be
000001a0: eaea 083f a7f2 2d3f b241 a33e cb77 9cbe
000001b0: b8bb 1cbf 322b 30bf 44c9 e23b de0f 8bbe
000001c0: aa96 30be 1e76 c3bd 410e 2b3f 418f 2b3f
000001d0: 4314 85bd 2efc 53be ee15 ab3e 83a6 4dbd
000001e0: a258 2bbf 7e42 613e 9e6c 293f 570c 0ebf
000001f0: 3b56 13be e4d3 123e 2aa5 10bf efdd 19bf
00000200: 6e7e 033f e4cd 7bbe 6832 ce3e a6a2 893d
00000210: 51ca 303e 28be e8be 9dc7 18be a0c3 f03e
00000220: 9691 a23e 86d1 45be 46b0 bf3d 4e2e 073f
00000230: 873f 19bf 6490 e13e 8b93 46be 93d0 04be
00000240: af79 a53e 0dae 15bf 3f27 e4bd d6e4 2a3f
00000250: 3c18 803e 229b 86be eb7a 15be 2c84 0c3f
00000260: b8de 893e e7cd f13e 4f2d e5be a213 483e
00000270: f0b5 0a3e ded6 fc3d 31b0 283f 2eb6 ca3e
00000280: 586c f13e 66d3 9d3e 4cfc 933e 5bcc e8bd
00000290: cbef 1bbf 8848 15bf 7b69 debe b5dc e5be
000002a0: ab32 a63e 2abb 573e 07ec 55be b698 09bf
000002b0: 008c 2f3f f478 073f 14e2 a93e 4a9d 313f
000002c0: 67f7 bfbe d267 c7be e54f dbbe e076 fabc
000002d0: f57a 1fbf 5f49 0f3f 77ce 713c a106 b33e
000002e0: fb63 c8be 15c1 9bbd 8f8a cc3d feb6 47be
000002f0: 24e7 293f 7555 a4be 5bc5 653e 7eca efbe
00000300: ed2f 97bd 98b1 3cbe a3ef 973e 8f19 f93e
00000310: 30fa 273e cfb7 67bd a4b6 43be ce52 0b3f
00000320: 7474 22be f27f fd3e 1788 9fbe 125c 133f
00000330: d7a4 333f 3b52 f53e f1ab c93e 5492 813e
00000340: e772 b6be 6b39 433b bc5d 813e ed0a 44be
00000350: 317f f03d 76c1 cc3e 8e4f 27bf 8454 23bf
00000360: f8ba d9be 4082 cc3d 8922 fcbd b4a4 173e
00000370: 0465 29be 00f9 eabe f9bf c43d 2cc9 f63e
00000380: 71c6 d3be 7334 1e3f 9dfd 313e 5b5c 2e3f
00000390: 1b7b 23bf 35ca 2bbf a95a 6f3e aac9 26bf
000003a0: 44cc 10bf 2a03 b83e d303 a93e 1f2d 22bf
000003b0: 853b fd3e 0db0 00be 2728 043f 2679 d2be
000003c0: 3ca6 27bf ca51 edbe 6ac5 f0bd 1301 34bf
000003d0: 0b9c 6ebd f634 b3be 3d1a 29be d7d5 dd3a
000003e0: c4c3 163d 60f3 32bf d47f b63e 3622 d8be
000003f0: f0a1 d93e 9f72 223f 4942 6fbe 5d33 9a3d
-0.66055024 -0.13451287 -0.34178188 -0.18945795 -0.6416867 0.28494763 -0.6278094 -0.03546675
0.24441111 -0.22930379 0.39182264 0.086358935 0.3737455 0.44211617 -0.29233652 0.24349767
-0.2909465 0.21674545 -0.36125827 0.3202161 0.15022597 -0.28408074 -0.35323834 0.18709965
0.66724384 0.3417808 -0.06417364 -0.04715869 0.39123577 -0.4841715 0.22349605 -0.2353828
0.40102383 -0.24283066 0.028952904 0.2443104 0.47436303 -0.09688182 0.63531274 -0.589827
-0.1250279 -0.6941015 0.05711027 0.19673596 -0.27688596 0.28823546 -0.119575925 -0.60280365
0.5339663 0.4294262 0.34696087 0.55404353 0.2550308 0.37194294 0.58306456 -0.14118525
-0.5535168 -0.35900694 -0.10511039 -0.06300288 0.0058535156 0.40171912 0.22163308 -0.5212522
-0.21808355 -0.16657569 0.4251877 -0.25090855 -0.28602892 -0.10701674 -0.173603 -0.16916053
-0.6932758 0.6303158 0.36505592 -0.32286948 -0.44337702 0.021476774 0.39373967 -0.49259254
-0.2605997 0.28511858 -0.44738784 -0.0785805 -0.52660805 0.64939773 0.3775845 -0.648678
-0.40495482 0.26090312 0.02975673 0.17824087 -0.5652832 -0.37086403 0.31364712 -0.5278721
-0.14610605 0.3091883 0.35694352 0.04830386 0.18813877 0.3084876 -0.085136525 -0.19145365
0.5348345 0.67948383 0.3188606 -0.30560145 -0.61223936 -0.6881591 0.0069209654 -0.27160543
-0.17244974 -0.095440134 0.66818625 0.67015463 -0.06498005 -0.20701668 0.3341517 -0.050207626
-0.6693212 0.21998021 0.6618136 -0.5548758 -0.14388363 0.14338642 -0.5650202 -0.6010427
0.5136479 -0.2459026 0.40272832 0.06720476 0.17264678 -0.45457578 -0.14919896 0.4702425
0.31751698 -0.19318208 0.09359793 0.5280503 -0.5986256 0.44055474 -0.1939222 -0.1297019
0.323194 -0.58468705 -0.11140298 0.66755426 0.2501849 -0.26290232 -0.1459767 0.5488918
0.26927733 0.47227404 -0.4476113 0.1953874 0.13545966 0.1234567 0.65893847 0.39592117
0.47152972 0.30825347 0.28903425 -0.11367103 -0.6091277 -0.583138 -0.4343985 -0.4489495
0.32460532 0.21067491 -0.20890819 -0.53748643 0.68573 0.52918935 0.33180296 0.6938063
-0.3749344 -0.38946396 -0.42834392 -0.030574262 -0.6229699 0.5597133 0.014758698 0.34965995
-0.3913878 -0.07605187 0.099873655 -0.195034 0.6636832 -0.3209645 0.22438566 -0.46834177
-0.07382188 -0.18427122 0.29675016 0.48652312 0.16404033 -0.056571778 -0.1911264 0.54423225
-0.15864736 0.49511677 -0.31158516 0.57562363 0.701734 0.479143 0.39388993 0.25306952
-0.3563454 0.0029788862 0.25266826 -0.19144793 0.1174301 0.3999135 -0.65355766 -0.63800836
-0.42525458 0.09985781 -0.123112746 0.14808923 -0.1654244 -0.45893097 0.096069284 0.48200357
-0.41362336 0.6179878 0.17381902 0.68109673 -0.6385972 -0.6710542 0.23374428 -0.65151465
-0.56561685 0.35939914 0.3301073 -0.633501 0.49459472 -0.12567158 0.5162377 -0.41108054
-0.6548803 -0.46351463 -0.11756404 -0.7031414 -0.058254283 -0.35001343 -0.16513915 0.0016924691
0.03680779 -0.6990261 0.356444 -0.422136 0.4250636 0.6345615 -0.2336513 0.07529328

net.0.bias f4 [128]
00000000: 9e3c c43e 7514 64bd 12d3 14bf aa06 a13e
00000010: 0598 aa3e f9a5 cbbe c8f6 f9be 62f8 0bbe
00000020: 2493 063e 3809 bbbe 48a1 09bc 987f 98be
00000030: 7326 89be f652 bdbd c078 8dbe a44d 0e3f
00000040: 6b0b 363e 04d0 213f 11d2 203f 28c2 d93d
00000050: 79f3 9bbe 639d de3e 67b5 fabc 19a7 033f
00000060: dec7 21be 2942 1e3f 078c b63d 63e1 24be
00000070: b6ef e7be a071 043f 16d6 b73d 5323 793e
00000080: 701b 943e 44f5 28bd 15e5 babe 9025 5dbe
00000090: 9a3d f7bc 100d dd3e 9d65 51bd 1597 46be
000000a0: 9640 debd e1e5 df3d 6c77 0f3f a186 073f
000000b0: e260 e3bc 53ca af3d 1a76 223f e719 983e
000000c0: 1f83 9cbd bbdf d93e 7123 a03e 41fb 43be
000000d0: 8348 8f3e 54ba 553d 1cbf 8abe c5a7 53bd
000000e0: 2537 2a3f c3fb 5d3e 7cad 16bf 2251 e43e
000000f0: 7e53 193e d11b ac3e c70c dbba c1f3 8c3e
00000100: 7338 513e 3f34 1b3f 75e5 bb3e 54ab 9cbe
00000110: b906 bb3e e650 62bd b537 e93e bd61 87be
00000120: 43ac 56be 4ae4 263f 7620 ff3d ac57 b63d
00000130: 1ee7 883d 731e 203d 45fd ff3c b972 1cbf
00000140: cebd 2c3f 4aa2 2b3f 845f 00bf 3375 2b3e
00000150: a979 153f a00c 0b3e 0360 9a3e b8d9 053f
00000160: 412c 963e 3524 f1bd f279 16bf 44fd abbe
00000170: b86e d5be d1be 833c e8b6 00bf 9550 e13e
00000180: 2cfc 093e 71c4 a0be c47a d5be 0439 623e
00000190: 0211 3dbe 7fe0 003e 48f3 813d 1fd1 963d
000001a0: c55f bbbd 1773 06be ff11 38be 41a0 8a3e
000001b0: c10c e8be 31bc 3e3c 7ccb 94be 0b49 2bbf
000001c0: 53b2 493e 3916 503e b3d7 1d3f a145 ea3e
000001d0: 01cf 303f 4422 11bf 149f 20bf ca7c 5d3e
000001e0: 44b4 ad3e 8d22 9e3e e593 f0be a1aa 0a3f
000001f0: 10ac 1bbf 14b6 333e 13ab 91be fb8a 86be
0.38327497 -0.05568357 -0.5813457 0.31450397 0.33319107 -0.39775065 -0.48821092 -0.1366897
0.13142067 -0.3653047 -0.008400269 -0.29784846 -0.26787147 -0.09244339 -0.27631187 0.5558722
0.17777793 0.6320803 0.62820536 0.106327355 -0.30459192 0.43479452 -0.030604078 0.51426846
-0.157989 0.618197 0.08913427 -0.16101603 -0.45300072 0.5173588 0.089763805 0.24329881
0.28927183 -0.04124953 -0.365029 -0.2159636 -0.030180741 0.43174028 -0.051122297 -0.1939357
-0.108521625 0.10932518 0.560416 0.529398 -0.027756158 0.08583512 0.6346146 0.29707262
-0.07642197 0.42553505 0.3127704 -0.19138815 0.2798501 0.05217965 -0.2709893 -0.05167367
0.66490394 0.2167807 -0.58858466 0.4459315 0.14973256 0.33614972 -0.0016712182 0.2752972
0.2043169 0.60626596 0.366985 -0.30599463 0.36528566 -0.055252932 0.45550314 -0.26441756
-0.2096415 0.6519209 0.12457363 0.08903441 0.06684707 0.03909154 0.031248698 -0.6111255
0.6747712 0.6704451 -0.50145745 0.16743927 0.58388764 0.13579035 0.30151376 0.5228534
0.29330638 -0.11774484 -0.58779824 -0.33591664 -0.41686034 0.0160822 -0.5027909 0.44006792
0.13475102 -0.31399873 -0.41695225 0.22092062 -0.18463519 0.12585638 0.0634523 0.073641054
-0.09149126 -0.13129841 -0.17975615 0.2707539 -0.4532223 0.011641548 -0.29061496 -0.6690833
0.19696932 0.20320977 0.61657256 0.45756248 0.6906586 -0.5669291 -0.62742734 0.21629634
0.33926594 0.30885735 -0.46987835 0.5416661 -0.6080942 0.17549926 -0.28450832 -0.2627791

net.2.weight f4 [256, 128]
00000000: 2cd5 8c3d d3f1 993d f0a4 f83c 611f 1e3d
00000010: 75e6 3d3b a68d 52bd d8c8 bd3c 0351 973d
00000020: 14ef 133d ebc3 a5bd ba57 9cbc 3efa c63c
00000030: 623c 80bc 92ac e9bc 6952 9ebd c9dd 0a3c
00000040: 23df bc3c 659f a5bd cbf0 863c 5219 d43c
00000050: ebe7 043d 4ff4 693d ac58 5bbd d70b e53c
00000060: 5690 d93b 38dd d1bc 4ccc a0bb 5c33 b33d
00000070: dc64 e938 d3b0 c9bc b018 ef3a 1f8e 31bd
00000080: 8f05 56bd df66 a6bc 38f2 2b3d a372 07bc
00000090: 1390 bcbc 0b46 143d 740e 413d 328a 86bc
000000a0: 6f29 c3bc 9a90 613c 0e44 46bd 2729 843d
000000b0: 7c61 dcbc 7d42 f4bc 7379 a33d 536e 8dbd
000000c0: 5e92 c6bc fa13 a33d 4ec8 27bd 88fc 9dbc
000000d0: 399b b13d b4f4 f3bc cf7d 233d cae4 183d
000000e0: f814 853c 2250 96bd 8ef2 6cbd a45a 91bd
000000f0: 7d5a b5bd f68a cfbc 17f8 1a3c a0d8 a0bd
00000100: 9854 a5bd ca83 853b 7f77 09bd d0fd 783c
00000110: ac42 923c 598f b33d 8fcb 7bbb 3091 96bd
00000120: 579e 6fbd c3f9 a5bd 6634 89bc 9d7e 2c3c
00000130: 03f9 f03c 9105 783c 74ae a43c 28e6 373c
00000140: 8822 05bc 3e84 24bd 66d3 a03c 2042 2b3c
00000150: a7b9 cdbc 33db 813d c510 acbd 59c5 dc3c
00000160: 8296 50bd bec7 363d 08c1 8b3d bf1c 7b3d
00000170: a285 da3c 4a40 2fbd c865 85bc d97c d0bc
00000180: f018 203c 643f 35bd 864b 333d dbea 543d
00000190: 3e71 15bd 8d87 cfbc 7a2d 7cbd 3782 46bd
000001a0: 0c2b 3bbd 72d5 7b3d 6bfa 9cbd 1770 cf3c
000001b0: bdd3 913d 1caf 73bd d9d8 a0bd 05a7 403d
000001c0: 547e 5d3d a1e8 1a3d 5398 8c3d 5d10 623d
000001d0: 2c9a 6cbc ee55 883d 65fd 19bd 032c 183d
000001e0: 430c 5fbd b211 9b3c ffbe 423d c10f 043d
000001f0: c67d 4a3d 40ee 64bc 6414 e63c f531 083c
00000200: 3dd2 8c3d 91c0 433d 320e 8ebd 14bc f23c
00000210: aaed 303d 031f a93c e7ff 47bd 904a a33d
00000220: cf07 8bbd 4af3 9fbd 13e9 cc3c 8c02 003d
00000230: 3504 3b3b 130e 90ba 6b22 093d b3b7 6f3d
00000240: 2735 3ebd 08c6 b93c 2050 16bd 7b47 4abd
00000250: d3b2 48bd 9e2c 91bd facc 8b3d 4c1c 0abd
00000260: a6a8 ecbc 6659 f3bb 09ca 7fbd eb36 5b3d
00000270: 0d3d f3bc 91c6 2d3d 8788 a53c 1014 bbbd
00000280: 7246 afbd db2d b8bd 0025 9b3d 3641 9e3d
00000290: 1e37 c03c a5ed 25bd 8797 c33c 6e59 90bd
000002a0: b425 053c 2846 8abc 1b56 603d 9b34 f23a
000002b0: e3bc e3bb 1506 58bc 60de a43d e3f7 85bd
000002c0: 54c4 0b3d 7ed8 abbd 5435 353c 37c2 9ebd
000002d0: df00 1d3d 6f6a 9a3d b114 39bd f026 9b3d
000002e0: b96e abbd 1080 1a3d e8da 3f3c f60e c8bc
000002f0: 8f00 96bc b418 023d e558 b4bc 45b7 b6bd
00000300: 1cf5 11bd 5e77 903d 7c7b a3bd 44ac 12bd
00000310: 568c 053d 1d1c 733d b5e6 93bd 0d43 84bd
00000320: b5a0 4b3d 2570 5e3d b45d 5c3d 9259 383d
00000330: 6670 a4bd 8fd5 bb3c c304 03bc d1c7 153c
00000340: 892c 1ebd f372 a63d 515f e4bb e983 83bd
00000350: 83e6 273d fa90 b4bb a9e9 72bd c8a2 35bd
00000360: ad67 74bd b019 553c 559d 4d3c 2d01 f7bc
00000370: 85af 583b a5a3 53bd ef92 b9bd c66d c0bb
00000380: 7296 a33d 3b55 90bd d984 613c 73be 4dbd
00000390: d909 a1bc 7721 6e3c 3a52 43bd 00d4 a3bd
000003a0: 5ec4 cfbb 84f6 27bc c785 703d 334b 013d
000003b0: 5e52 3d3d e378 7bbd 0dd0 afbd d5f8 6fbd
000003c0: eb3c 9ebd b7c6 06bc 6efd f7bc cb78 41bc
000003d0: d4c7 f9bc 3198 91bc cfc7 803c d0fc a93d
000003e0: e583 b6bc b2fe 8c3d 661b 9c3d c8e1 193d
000003f0: e393 d9bc a1fe a23c 1345 80bd 030d 58bc
0.06876597 0.075168274 0.030352086 0.038604144 0.0028976474 -0.051404618 0.023167059 0.07388499
0.036116675 -0.08094009 -0.0190848 0.024289247 -0.015653793 -0.02852467 -0.07730562 0.008475729
0.023055619 -0.08087043 0.01647224 0.02589098 0.032447737 0.057117756 -0.05355136 0.027959747
0.0066395206 -0.02561818 -0.0049071666 0.087500304 0.00011129092 -0.02462045 0.001824161 -0.043348428
-0.052251395 -0.020312725 0.041979045 -0.008267078 -0.023017919 0.03619961 0.047132924 -0.016423319
-0.023823468 0.013767386 -0.048404746 0.06453162 -0.026901953 -0.02981686 0.07982149 -0.06905808
-0.024239715 0.079627946 -0.04096251 -0.019285455 0.086721845 -0.02977977 0.039914902 0.037327565
0.01624535 -0.07339503 -0.057848506 -0.070973665 -0.0885515 -0.025334816 0.009458563 -0.07853818
-0.080727756 0.0040745484 -0.033561226 0.015197232 0.017854057 0.08767576 -0.003842089 -0.07351911
-0.058500614 -0.08104279 -0.016748618 0.010528234 0.029415613 0.015138046 0.020102717 0.011224307
-0.008125909 -0.04016518 0.019632053 0.010452777 -0.02511294 0.06340637 -0.08401636 0.026949571
-0.050924785 0.044624083 0.06823927 0.06130671 0.02667505 -0.04278592 -0.016283885 -0.025450157
0.009771571 -0.044249907 0.043773197 0.051981788 -0.03648495 -0.02533319 -0.061566807 -0.048464026
-0.04569535 0.061482854 -0.07664951 0.025322003 0.07120464 -0.05949317 -0.078538604 0.047034282
0.054075554 0.03781951 0.06864991 0.055191386 -0.014441054 0.06657015 -0.03759517 0.037151348
-0.054455053 0.018929336 0.04754543 0.032241587 0.049436353 -0.013972819 0.028085895 0.008312692
0.06876037 0.047791068 -0.06936301 0.029630698 0.043195404 0.02064467 -0.048828032 0.07973206
-0.06788599 -0.078100756 0.025013482 0.03125243 0.0028536443 -0.0010990523 0.03348009 0.0585248
-0.04643741 0.022677436 -0.036697507 -0.049384575 -0.048998665 -0.07088588 0.068262056 -0.033718392
-0.028889012 -0.0074264286 -0.062448535 0.05351917 -0.029692197 0.042425696 0.020206703 -0.09134686
-0.08558358 -0.08993121 0.075754166 0.07727282 0.023463782 -0.04050984 0.023875965 -0.07048307
0.008126665 -0.016879156 0.054769617 0.0018478812 -0.0069500073 -0.013185044 0.08050227 -0.06541421
0.03412278 -0.08390902 0.011060078 -0.07751887 0.03833091 0.07539832 -0.04518575 0.07575786
-0.08370728 0.037719786 0.011709906 -0.024421196 -0.018310813 0.03176184 -0.022015044 -0.08921675
-0.035634145 0.070540175 -0.07982537 -0.035808817 0.032604538 0.059352983 -0.07221738 -0.064581014
0.04971381 0.054306168 0.0538003 0.045007296 -0.08029251 0.022928981 -0.007996741 0.009141878
-0.03861669 0.081273936 -0.0069693704 -0.06421644 0.040991317 -0.0055104466 -0.059304867 -0.044344693
-0.059669185 0.013006613 0.012549718 -0.030151928 0.0033063602 -0.051669735 -0.090612285 -0.005872461
0.079876795 -0.070475064 0.0137645835 -0.050230455 -0.019658016 0.014534346 -0.04768584 -0.0799942
-0.0063405475 -0.010251645 0.05872133 0.031565856 0.04622113 -0.061394583 -0.085846044 -0.058586914
-0.07726463 -0.008226088 -0.030272212 -0.011808584 -0.030490793 -0.017772766 0.015720276 0.08300173
-0.02227969 0.06884517 0.07622413 0.037568837 -0.026559776 0.019896807 -0.06263175 -0.013186696

net.2.bias f4 [256]
00000000: 8e99 613c c8b7 5d3d a423 a8bd 90b6 143d
00000010: ae5f 9d3d a5ff ce3a 2f68 dbbc d326 ac3d
00000020: 39cc 23bc 6cda 873d 78af 9abc 4047 4a3d
00000030: 122a dcbc a8e5 9d3c 2711 94bd 1aa1 b8bd
00000040: 1094 0d3d fe46 48bd 3f9a 973d 90d9 ac3d
00000050: 33dc 353d 2a5d 72bb bb2a 86bd be67 74bd
00000060: a954 933d 3ddb c1bb adff 95bd 4e8d 28bd
00000070: 78e8 1ebd b50b febc e0fa 453d e093 28bd
00000080: 81c4 6f3d abe1 ce3c b9c1 36bd 3ad3 d8bc
00000090: a5a7 303d 1b8d f3bc eb6f 3dbd 1580 0f3d
000000a0: a502 72bd c4ff 6e3c 2a5a e1bc ca7f 2d3d
000000b0: e9ff 843d 0afc 633c 7121 72bd 0862 5f3d
000000c0: 472c 01bd e49b 103c eef4 943c 89fd 7ebd
000000d0: 3d8b 33bc 6d6e 71bd 4c23 ee3c 009e 53bd
000000e0: 6e2c bfbd 4abc bc3c 6638 333d 2ec5 723d
000000f0: dfe7 953d ceb3 a93d d1eb eabc 97b8 b73c
00000100: f653 a73d 81fe 42ba ac00 b13c ee77 753d
00000110: 8ff5 bcbd 6a3e 81bc 056b ef3c b1f0 5dbc
00000120: 211c b83c a5f0 963d 5fac 9bbd a2c8 4c3d
00000130: b5a1 ef3c cec5 9ebd 4e2b a23d 3682 883d
00000140: 8c4b cbbc bac8 01bd 64b0 1dbd 406b 9cbc
00000150: bf88 2c3d 55e4 003c b5ff 8b3d 3409 c93c
00000160: 207a 87bd 00f6 3bbd d34c 623d c4bc 62b9
00000170: 1de9 dbbc 2e8c 563d ace5 033d 2dc1 4a3c
00000180: 8789 ad3d 8c61 353d 2e45 bebc 1051 243c
00000190: 437c 73bd 1589 66bd e4ea 95bd 530c 513d
000001a0: 3def fd3b 2f4d a73d 3fc4 43bd 39d4 893c
000001b0: c222 e8bc af14 073d 96bb 853d 13c9 9f3d
000001c0: f730 893c 389a 9fbc 8308 083d dff0 2dbd
000001d0: c346 18bd b968 463d 5c5b 56bd 22e5 7ebd
000001e0: b2fe 8e3d 4504 543d c27a 7cbd d7b9 19bd
000001f0: 7e4f 9b3d 212d 93bd 02ca 8a3d 1256 113c
00000200: a570 4a3c 6635 8e3c af7c 82bd 5bf1 8d3d
00000210: 47c4 4e3d 5af8 babd 5fe1 7f3c 7090 5ebc
00000220: 381d 5c3d e7b3 8a3d ca4f 91bd 0230 903d
00000230: 84f1 b6bc 02b7 5ebd 20db 443c 2881 e2bc
00000240: 0bc8 8b3d 5192 37bd 00ee 00bd 609a 1e3d
00000250: 1f88 203d d17a 833d f6fb b0bd 7177 293d
00000260: e5ac 433d ba16 17bd 10da 5dbd 2481 9fbd
00000270: b34e 62bd 1499 79bd 3165 f63c c3d6 a63d
00000280: 5d5a ae3d 9961 513d 8e93 bcbd e815 873d
00000290: 98fa 793d 8f03 a5bd 9625 723d e629 033d
000002a0: cb98 92bd 74a7 813d 1938 c73c ad0b ddbc
000002b0: fd61 103d 6058 8abb 4311 863c 2273 92bd
000002c0: 0f5c 61bd a65e 3e3d e524 b03d 1f78 7d3d
000002d0: d7f7 afbd 2f36 afbd 9067 20bd 1922 ce3c
000002e0: b134 8e3d 0cae 6dbb 88e1 df3c 5c4d 4ebd
000002f0: 6fab b1bd 355f 0b3d 9429 7f3d 5c9d f73b
00000300: 0f95 b4bc c75a a63d c664 fdbc 9aba c63c
00000310: 5a3d 4abd be61 0e3d ad97 a3bd b6d1 64bd
00000320: 8e3d 28bd 9008 7fbd 2ab3 683d fcc4 8abd
00000330: 9911 abbd c785 933d b33a a9bd f4c0 0ebd
00000340: 30f7 d8bc a845 923d 060a 863d f870 fdbc
00000350: d998 a1bc 977f 00bd 053d 04bd 1e22 3a3d
00000360: 9bbb e4bc bc3b 3c3d ec91 983d 6e1b 63bc
00000370: fd76 c53c d59b b9bd 233d a63b 1fa5 d6bb
00000380: 825a 713d 59b1 83bd 6e26 a13d ffb9 8cbd
00000390: 93e2 8c3d 35fe 58bd 1b12 e93b 4cf8 f53c
000003a0: 32cc 84bd 5875 9cbd bee6 afbd fe0e 673d
000003b0: c586 3cbd 0ee4 f5bc 80f9 9dbc 3e8d 253b
000003c0: 9742 db3c 7d47 44bd 2c9f aa3c decf 6cbd
000003d0: 4b36 a3bd 3519 15bd d460 b33c 7888 80bc
000003e0: 5573 263d afcb 733d e3f1 ff3c f0c3 c4bb
000003f0: 6818 38bd c0e8 3a3c ddf2 92bd a523 b33b
0.01376952 0.054130346 -0.08209923 0.036306918 0.07684265 0.0015792741 -0.026783077 0.08405843
-0.009997421 0.066334575 -0.018882498 0.049384356 -0.02687553 0.019274548 -0.07229834 -0.09015103
0.03456503 -0.04889583 0.07402467 0.08439934 0.04439945 -0.00369818 -0.06551119 -0.05966925
0.07193882 -0.005916028 -0.07324157 -0.041150384 -0.03879592 -0.031011442 0.048334956 -0.04115665
0.05853701 0.025254091 -0.044618342 -0.026467908 0.04312863 -0.02973037 -0.04624931 0.035034258
-0.059084553 0.014587346 -0.027508814 0.042358197 0.064941235 0.013915071 -0.059113923 0.05453685
-0.031536367 0.00882623 0.018183198 -0.06225351 -0.01095849 -0.0589432 0.029069565 -0.051664352
-0.09334646 0.023039002 0.043754958 0.059270076 0.073196165 0.08286248 -0.0286769 0.022426886
0.08170311 -0.0007438437 0.021606766 0.059928827 -0.09226524 -0.015776832 0.029225836 -0.013546155
0.02247435 0.07370118 -0.076012366 0.049996026 0.029251913 -0.07752572 0.07918416 0.06665461
-0.024816297 -0.03168557 -0.038498297 -0.01909411 0.0421226 0.007866939 0.068358816 0.024540521
-0.0661509 -0.0458889 0.055249047 -0.0002162336 -0.026844556 0.05237978 0.032201454 0.012375158
0.08473497 0.04428248 -0.023226347 0.010029092 -0.059444677 -0.056283075 -0.073201925 0.051037144
0.0077494667 0.081690185 -0.047794577 0.016824828 -0.028336886 0.03297871 0.0652992 0.07802024
0.016746981 -0.019482717 0.033211242 -0.04246604 -0.03717686 0.048439715 -0.05233322 -0.062230237
0.06982173 0.051761884 -0.06164051 -0.037530746 0.07583521 -0.07186342 0.06776811 0.008870618
0.012355958 0.017359447 -0.06371438 0.069308005 0.050480153 -0.091294006 0.0156176975 -0.013584241
0.053738803 0.06772595 -0.07095297 0.07040407 -0.02233196 -0.05437375 0.012015134 -0.027649477
0.068252645 -0.044817273 -0.031476974 0.038721442 0.039192315 0.0641991 -0.08641808 0.041373674
0.047772307 -0.036886908 -0.05416304 -0.077883035 -0.055250835 -0.060937002 0.030077549 0.08146431
0.08513329 0.051118467 -0.09207831 0.06595975 0.06103 -0.080573194 0.059117876 0.03202238
-0.07158049 0.06330767 0.024318742 -0.026983107 0.0352497 -0.004221961 0.016365653 -0.07150866
-0.055019435 0.046476983 0.08600787 0.061882135 -0.085921936 -0.085552566 -0.039161265 0.025162743
0.06943644 -0.003626707 0.027329221 -0.050366744 -0.086752765 0.034026343 0.06229551 0.0075566005
-0.022043733 0.08122783 -0.030931842 0.0242589 -0.049374916 0.034761183 -0.07987914 -0.05586406
-0.041074328 -0.062264025 0.05681149 -0.06775853 -0.08352966 0.072032504 -0.08263149 -0.034851983
-0.026485056 0.07142192 0.065448806 -0.030937657 -0.019726204 -0.03137168 -0.032284755 0.045442693
-0.027921489 0.045955405 0.074497074 -0.01386152 0.02410459 -0.09062926 0.005073206 -0.0065504457
0.058924206 -0.06430311 0.07868658 -0.068714134 0.06879153 -0.052976806 0.007112754 0.030025624
-0.0648426 -0.07639569 -0.085889325 0.056410782 -0.046026964 -0.030015972 -0.01928401 0.002526119
0.026765151 -0.04791974 0.020827852 -0.057815425 -0.0796934 -0.036400992 0.021896757 -0.015690073
0.040637333 0.05952042 0.03124327 -0.006004803 -0.04494515 0.011408031 -0.07175229 0.0054668956

net.4.weight f4 [256, 256]
00000000: 3358 943c 5f01 59bd a63d fa3c 68b1 b73a
00000010: 9d03 d53c 5204 39bd ee26 483d 4119 27bd
00000020: 829f 46bd 70dc 84bc ea70 013d 0513 06bd
00000030: 8952 57bd 6fd3 283d 11b5 133d 674f 463c
00000040: 3661 3ebc 5ada 4d3d f838 c83c 5230 babc
00000050: 1c43 f13c d9ce 1bbd bd31 69bd 21b3 4d3d
00000060: 2238 2a3d fe95 663c c81a bcbc c453 84bd
00000070: 1eb1 98bb 8a69 c73c 0591 8bbb 1223 04bc
00000080: cae7 31bd 8806 22bd 107d 04bd 6f80 cabc
00000090: ebdb 41bd 9b1a cbbc e401 07bd c28c 3ebd
000000a0: b20f b83c 0ee2 00bd 8a32 9d3a 058b 863c
000000b0: 457d 76bd 468e aebc 7db8 c8bc 638f cdbc
000000c0: 95b5 26ba acb2 b53b 65a4 483d 8626 97bc
000000d0: 854f 11bc 649f 3b3c e8b5 413d c7cc 073d
000000e0: 932f 283d 38c8 003d 2398 2ebc 9fe8 603b
000000f0: bec3 4dbd d019 04bd 080f 5fbd 9212 6e3c
00000100: 5df0 5dbb c469 77bc 9c86 19ba fc6c 80bd
00000110: fe0d 4e3d d621 a7bc 32db 1c3d 9b62 2b3d
00000120: 85bd e03c fc19 473d b98a 2abd b261 0d3c
00000130: fd2a d83b 3031 193c 815e 433d edad a23b
00000140: 6380 2abc b671 56ba f835 0e3d 5a74 24bd
00000150: e8ba ef3c b83f bfbc 5090 323c 2567 3f3d
00000160: 9e15 c23c aca2 543d efda fabc bb81 03bd
00000170: 0f7d 4bbd 77b0 59bd c8b7 e8bc 81df 833c
00000180: 6ce4 6dbd e8fb 82bd c704 6fbd 2636 31bc
00000190: 1468 ff3c 0a8a 6cbb ce3c 0fbb b640 b63c
000001a0: bd58 1d3b 5a51 223d ea0d 9cbc d7e2 b7bc
000001b0: 0aa7 b6bc 31c1 4b3c 2592 653d 0730 a0bc
000001c0: 8541 e03c 5b53 ddbc bbd0 05bd d412 09bd
000001d0: 747b 7fbd 297f 10bd 6234 0b3d e453 393c
000001e0: 3856 553d f34e 653d 939d 81bd 4571 9a3c
000001f0: 08fc 4d3d 7a48 88bd b96c 39bc 5784 83bd
00000200: 819b 733d 2c4d 34bd f611 573d 5407 fa3b
00000210: 6d23 20bc 3611 94bc 6ca2 81bc ce1f 67bd
00000220: e26e 453c b746 17bc c6c3 89bd b759 d3bc
00000230: 244c 66bd 8b9e 42bc 49fb 8c3c 8cf0 1e3d
00000240: 07cc f83b 03a0 68bc 82e0 b93c e5be 4bbd
00000250: c848 0f3d 0ba8 f93c e67d 36bd 41ca 9c3b
00000260: 0000 82bd 0a07 673c 2c8d 72bc 46c0 073d
00000270: c143 56bd ef67 63bd b57c 19bd 823b 31bd
00000280: fd8a 693c 6f25 37bd 75d6 37bd e519 bfbc
00000290: fa43 013c ef6d 853c e7e6 2b3d 0952 423d
000002a0: 5d30 28bd c90f 4d3d 1a72 64bc 9056 6d3d
000002b0: 1cf8 b6bc c4e6 d7bc 7107 3bbb 0890 383d
000002c0: 2e5a cb3c fe19 38bd 03fd 403d ff42 edbc
000002d0: 0e65 e1bc 3b18 3abc c1a8 493c 89d4 b23c
000002e0: 8703 993c cb09 24bd 130c 61bc 80f7 083d
000002f0: f446 75bc 9bb5 26bd 7b97 a4bb d5f0 b13b
00000300: aa11 79bd bb9f 2d3d c50d 5dbc 50aa 58bd
00000310: 4d4b 7cbd fcbc 88bc 761e 293d 6aa2 1ebd
00000320: 9264 6f3c 314c 7ebc 99b7 35bd 3c2e 803c
00000330: 3c9d 66bd ba5a bdba 7fbc 3f3d 2864 eabb
00000340: a6b2 033d bcc3 63bd b104 0f3d 8d7a 42bd
00000350: 3706 83bc 0ae5 83bd b428 6dbd 9560 4abc
00000360: 1fa5 7ebd eb44 85bd 8ea2 84bd 6a6e 09bd
00000370: e3d8 3c3d 6913 1cbd 6351 33bd cda6 133d
00000380: d51f 513d 6d5d 64bc 0bc7 0c3c e482 ddba
00000390: d33e 2b3d a90a 60bd f510 49bd 438a 963c
000003a0: 17bb 32bd e99a d3bc 9523 823c 22fa 473d
000003b0: a467 0dbd b19f 51bd 1569 a03c 5a65 293d
000003c0: 9800 46bc 5b62 673c 8512 1d3d 381b 16bc
000003d0: 4f4f 633d a9f0 8c3c 511f b0bb 4f30 67bc
000003e0: 56ae 85bc 50d7 54bd 6064 1cbd bfb3 4abd
000003f0: 2c43 fe3b 1940 863c a014 78bc 2971 b2bc
0.018108463 -0.052979823 0.030546974 0.0014014663 0.0260027 -0.045170136 0.04886525 -0.04079557
-0.048491962 -0.016218394 0.031601824 -0.032732982 -0.052568946 0.041217264 0.03606135 0.012103892
-0.011619857 0.050257064 0.024441227 -0.022728119 0.029450946 -0.038039062 -0.0569322 0.05021966
0.04155744 0.014073847 -0.022961989 -0.064612895 -0.004659786 0.024342317 -0.004259231 -0.008065002
-0.043433942 -0.03955701 -0.03234583 -0.024719445 -0.04732887 -0.02479296 -0.032960787 -0.046520956
0.022468422 -0.031465583 0.0011993211 0.016423712 -0.06017806 -0.021308076 -0.024502033 -0.025092786
-0.00063594553 0.005544981 0.048984904 -0.018450987 -0.008869057 0.011451576 0.04729262 0.033154275
0.041060995 0.031440943 -0.010656389 0.003431834 -0.050235502 -0.03225118 -0.054457694 0.014530795
-0.0033865192 -0.0151009 -0.0005856545 -0.06270787 0.050306313 -0.020401876 0.03829498 0.041842084
0.02743412 0.048608765 -0.041636202 0.008629249 0.0065969215 0.009350106 0.047697548 0.004964581
-0.010406586 -0.00081803964 0.034719437 -0.040150024 0.029263929 -0.023345813 0.010898665 0.046729226
0.023691949 0.05191295 -0.030621974 -0.032106142 -0.049679812 -0.053146806 -0.028407946 0.016097786
-0.05807917 -0.063957036 -0.058354165 -0.010816133 0.031177558 -0.003609302 -0.002185631 0.022247653
0.002400919 0.039628364 -0.019049603 -0.022447033 -0.022296447 0.012436197 0.056047577 -0.019554151
0.027374992 -0.027017286 -0.032669764 -0.03346522 -0.062373593 -0.03527752 0.033985503 0.011311505
0.052084178 0.055983495 -0.06328883 0.01885284 0.050289184 -0.06654449 -0.011317425 -0.06421726
0.059474472 -0.04401891 0.052507363 0.007630268 -0.009774071 -0.018074613 -0.01582452 -0.056426816
0.012050362 -0.009233168 -0.06726794 -0.025799615 -0.056224957 -0.01187862 0.017209666 0.038803622
0.0075926813 -0.014198306 0.022690061 -0.049742598 0.03498152 0.030475637 -0.04455366 0.0047848527
-0.06347656 0.014100799 -0.014804166 0.03314235 -0.05231071 -0.05551904 -0.037472446 -0.04326964
0.014254329 -0.044713434 -0.044882257 -0.023327777 0.007889742 0.016287772 0.041968253 0.047441516
-0.041061748 0.050063882 -0.01394322 0.05794388 -0.022335105 -0.026355155 -0.002853837 0.045059234
0.024823274 -0.044946663 0.04711629 -0.02896261 -0.027514007 -0.011358316 0.0123083005 0.02182986
0.01867844 -0.0400484 -0.013735789 0.03343916 -0.01497053 -0.040700536 -0.0050229407 0.0054303207
-0.06080786 0.04238866 -0.013492052 -0.052896798 -0.06159525 -0.016691677 0.041288815 -0.03872911
0.01461138 -0.015521095 -0.044364545 0.015647046 -0.056302294 -0.0014446594 0.046810623 -0.007153053
0.032152794 -0.05560659 0.034916583 -0.047480155 -0.015994174 -0.0644017 -0.057900146 -0.0123521285
-0.06216919 -0.06507286 -0.06476317 -0.033552565 0.046105277 -0.03810445 -0.04377879 0.036047745
0.051055748 -0.01393829 0.008592377 -0.001689997 0.04180796 -0.054697666 -0.049088437 0.018376475
-0.043635454 -0.025830703 0.015886107 0.04882253 -0.034522668 -0.051177684 0.019581357 0.041356422
-0.0120851025 0.014122571 0.03834774 -0.009161763 0.055495556 0.0172046 -0.005374827 -0.014110639
-0.016318481 -0.05196315 -0.038181663 -0.049487825 0.0077594724 0.016387986 -0.015141636 -0.021782475

net.4.bias f4 [256]
00000000: b6f4 553d a788 663d 5804 c03c 2064 80bd
00000010: ab08 103d f8e1 5cbd 4b4c 803c 8361 17bc
00000020: 175a 13bd e3fa 77bd fb20 f2bc bf04 3ebd
00000030: 4643 953c 99a9 4ebd 191a 06bd 4c5f f939
00000040: a345 7ebd 82db 36bd 2212 70bc 2a92 2b3d
00000050: b95b c3bc 13c5 903b 9740 a63c 98cf 1d3c
00000060: 38cd ccbb 64fd 5b3c 4582 1abd 44e2 a83c
00000070: 2975 383d 48be b33c 572c efbb c8b2 26bc
00000080: e281 f63b 8180 513b 46c7 983c ff48 f33c
00000090: ba8a db3c f83a 96bc e72c b53c 03d0 68bd
000000a0: 4cd3 0a3d a90b 1dbd 241d 33bd 5656 c5bb
000000b0: 6e85 edbb 96e5 7fbd 52fb 75bd c46e 4d3d
000000c0: 90f3 24bd 94fd a63c 8f67 aebc 7a2c 643d
000000d0: 5722 5bbd 2923 33bd 6b19 1abd 7bc2 8b3b
000000e0: 0e05 d63c 8b39 353c db02 6dbc 25fe 223d
000000f0: 0106 133d 57e6 2f3d b844 58bd 08d3 753c
00000100: 7ce0 1b3d c2f1 22bd 6dd9 2f3d 72bf 45bd
00000110: b38a 0f3d 8def 1fbd c4f9 96bc 324a 31bd
00000120: 9e64 663d f3af 50bd 4906 8bbd 9b3a 093c
00000130: 3300 e1bc 669e 5fba 8a04 123d 7db9 423d
00000140: c7b2 a93c f6b8 0ebd 2032 59bd 6ae2 f63c
00000150: dd53 083d cecf 81bd 3006 573c 6a45 2c3d
00000160: 913d 4bbd 4554 7dbd 6aaf 8abc a0e6 433d
00000170: bd45 c6bc 68c7 0c3d ad32 d93b f2d4 1b3d
00000180: d1f3 d93c cd9e 4f3d 9dee 203d a9f4 8cbd
00000190: 1674 5a3d f871 8abd c0d3 353d 6ff1 a43c
000001a0: 86c7 be3c 5c74 80bc f946 283a a86a 59bd
000001b0: 3ff0 493d 9ee7 d1ba 7957 343d 9457 fb3c
000001c0: 1d3e 3ebd 54a1 103c 0e75 c33c 9e1d e7bc
000001d0: 04ff 4bbc 3d53 cf3c 7497 40bd bc60 2abd
000001e0: 06c6 4ebc e23f dabc 0915 a63c d447 3e3d
000001f0: 80da 15bd d492 06bd 3f7b 8a3c a9ed 87bb
00000200: 8055 0d3d 8757 f83c baff 15bd 0ec1 82bd
00000210: fbd2 8fbc 1441 3e3d f136 c43c 909f 89bc
00000220: cd3d acbb 3017 dfbc 245d 03bc f210 263d
00000230: 56ce 99bc 990b 1ebb 98fd 7bbd 58cb c8bc
00000240: 286d a9bc 73be a43c 5ef4 db3c cc7e 40bd
00000250: e31f 543c a2ee 073c 367b 113d 2518 74bd
00000260: f1bd 0a3d d6bd f43c b099 aa3b 7594 3dbd
00000270: 8f14 a23c e81c ca3c b42a 223c efa6 4cbd
00000280: 87c8 0f3c c60c bebc bbef 4fbc f997 35bc
00000290: f6b7 233c 2a69 0dbd 3fe7 61bd 0d28 23bd
000002a0: 9c32 463b 8924 f6bc 681d 10bd dc3b 523d
000002b0: fabb 73bd 9062 91bc 7a79 b93c 269e 16bd
000002c0: 3515 12bd 117c 80bd 19d0 82bc c407 62bd
000002d0: e27c 87bc fac0 8ebb 3afe de3c 64e5 61bb
000002e0: 64d6 be3a 3512 14bd f7b2 82bd 256c 343d
000002f0: 1fb4 3ebd 0791 8f3c b3b7 d23c 5387 6c3c
00000300: 0156 20bc 5fac 46bd 1c03 5b3d 8f80 55bd
00000310: 61d7 93bd fba3 75bd 7077 83bc 95c0 00bd
00000320: ce44 36bc 013a 203d 0dc2 4d3d 1904 6fbd
00000330: 8518 1cbd 4014 e6ba 4fb8 e3bb 8f21 f43c
00000340: 96dc 8c3c 4eff a8bc a4d4 d03b 04b6 033c
00000350: 083a c1bc 841d 463d 5b97 043d f74b a2bc
00000360: a89b 383d f623 88bd 7227 5ebd 51f1 42bd
00000370: d202 a93c 6334 71bd d8d7 93bc 2c5d 363d
00000380: 1cde 423d 4075 f839 61c2 13bc f89e 60bc
00000390: 291f 93bb e4ba 7cbd 7ed4 61bd 4c9c 663d
000003a0: 5412 003d 7321 43bd e661 36bd c67a 0d3d
000003b0: 5ab2 c13c 3901 81bd 82a5 643c ec8f ecbb
000003c0: 9424 01bd 04f5 bb3b babe 3abd 16fa 00bd
000003d0: 5a05 b7bc 9a65 63bd 31e4 53bd 9959 57bd
000003e0: 8b9b 63bc 2ca8 83bd f540 4b3d 723d 5abc
000003f0: d29a 2fbd d13d 57bc 389a 263c 0d73 883b
0.052235328 0.056282666 0.023439571 -0.06269097 0.035164516 -0.053926438 0.01566138 -0.009239557
-0.03597459 -0.060542 -0.029556742 -0.046391245 0.018220555 -0.05045471 -0.032739732 0.00047563983
-0.06207813 -0.044642933 -0.014652761 0.04188744 -0.023847448 0.0044180243 0.02029447 0.009632014
-0.00625005 0.013427112 -0.03772189 0.020615704 0.045033608 0.02194132 -0.007298987 -0.010174461
0.0075228075 0.0031967463 0.018649708 0.029697893 0.026799548 -0.018338665 0.022116138 -0.056839
0.033892915 -0.038341198 -0.043728963 -0.006022255 -0.007248572 -0.06247481 -0.06005413 0.050154462
-0.04027134 0.020384587 -0.021289615 0.05570648 -0.053499546 -0.043734703 -0.037621897 0.0042651272
0.026125457 0.011061083 -0.014466013 0.039793152 0.035894398 0.04294428 -0.05279991 0.015003927
0.03805588 -0.03978134 0.042931963 -0.04827828 0.035044383 -0.039046813 -0.018429644 -0.04328365
0.0562483 -0.05094905 -0.06788308 0.008375789 -0.027465915 -0.0008530378 0.03564886 0.047540177
0.02071513 -0.03484436 -0.05302632 0.03013726 0.033283103 -0.06338464 0.013124034 0.042058386
-0.04961926 -0.061847944 -0.016929347 0.047827363 -0.024203176 0.034369856 0.0066283555 0.038044877
0.026605519 0.050688554 0.03929006 -0.06882603 0.053333364 -0.06760019 0.044391394 0.020134656
0.0232885 -0.015680484 0.0006419267 -0.05308023 0.049301382 -0.0016014462 0.044028733 0.030681409
-0.046445955 0.008827526 0.023859527 -0.028212365 -0.012450937 0.025308246 -0.047019437 -0.04159616
-0.012620455 -0.02664179 0.020273702 0.04645522 -0.03658533 -0.03285487 0.016904471 -0.0041482043
0.034505367 0.030315174 -0.036620833 -0.063844785 -0.017556658 0.046448782 0.02395198 -0.016799718
-0.0052563907 -0.027232736 -0.008017812 0.040543504 -0.018775146 -0.00241158 -0.061521143 -0.024511024
-0.020681933 0.020110345 0.026849922 -0.046995923 0.0129470555 0.008296641 0.035517894 -0.05959334
0.03387255 0.029875677 0.0052063093 -0.046284158 0.019785194 0.024671987 0.0098978765 -0.049963888
0.008775837 -0.02319945 -0.012691434 -0.011083596 0.00999259 -0.03452412 -0.055152174 -0.039833117
0.0030242568 -0.030046718 -0.035184294 0.051326618 -0.05950544 -0.017747194 0.022640932 -0.036771916
-0.035664756 -0.06273664 -0.01596837 -0.055183187 -0.016539041 -0.0043565007 0.027220834 -0.0034469003
0.0014559743 -0.036150176 -0.06381791 0.044048447 -0.046558496 0.01752521 0.02572236 0.014436561
-0.00978613 -0.04850423 0.053469762 -0.052124556 -0.07218815 -0.059970837 -0.016048163 -0.03143366
-0.011124803 0.039117817 0.05023389 -0.058353517 -0.03810932 -0.0017553642 -0.0069494615 0.029801158
0.017195027 -0.020629551 0.006373005 0.008039001 -0.023587242 0.048367992 0.032370906 -0.019811613
0.04507032 -0.06647484 -0.054236837 -0.04759342 0.020631228 -0.05888785 -0.018047258 0.04452245
0.0475751 0.00047389604 -0.0090185115 -0.013709776 -0.0044897986 -0.06170167 -0.05513429 0.0563014
0.03126748 -0.04763932 -0.044526957 0.034540914 0.023644615 -0.06299061 0.013955476 -0.0072193053
-0.031529024 0.0057359952 -0.045592047 -0.0314885 -0.022341419 -0.055516817 -0.051731292 -0.05257568
-0.013892065 -0.064285606 0.049622495 -0.013320314 -0.042872258 -0.013137297 0.010168605 0.0041641057

net.6.weight f4 [256, 256]
00000000: 8fab 2e3c a636 c63c 8121 073c 5376 983c
00000010: 746a 6fbd 5716 133d cfbb 96bc f80b 10bc
00000020: 3390 0a3c 8f0c d63c 4718 513d a3b8 73bd
00000030: 4ef3 2fbd 96de 73bd 8cde 7bbc 02be 5f3d
00000040: 9813 e53c 7d0d f3bc f56e cc3a a185 573d
00000050: ced4 f3b8 0c68 c23c 63d9 cc3c 11ad 65bc
00000060: a66e 83bd b800 02bd f7dd bd3c d4f8 88bc
00000070: 3e3c 71bd dc27 08bd e899 123c 87b6 acbc
00000080: 233a 233d 784a 4a3d 1bb7 1f3d d52f 42bc
00000090: 114a 3e3d d5c6 4fbd af96 98bb 266f 16bd
000000a0: 0b4b d13c 3f12 ea39 662f 543b 6c12 0ebd
000000b0: 7335 17bd 3e37 77bd 657e 62bd 5450 49bd
000000c0: 12d8 6d3c 8889 9c3c ea67 67bd c52e 81bd
000000d0: 0812 24bd 1a7d 0fbc 668e 433c 79e3 c23b
000000e0: eff7 22bd a61c 68bd 493a 613d dff6 87bc
000000f0: f503 68bd d4ee c33c 9983 723d 1aa8 8bbc
00000100: 15e3 633d 8291 56bd ef2d 003a 6a7e 82bd
00000110: 986b e63b e6b4 613b ca14 3f3c 0820 fabc
00000120: 27b6 68bd 6028 84ba 9b09 4cba 8439 05bc
00000130: b3dd 5fbd 07f3 643d 24dd d0bc e3b9 17bd
00000140: d2d3 783d ae56 e5bb 9098 5b3d 2acb 113c
00000150: 3351 e9bc 62b0 43bd 5a5f 51bc 1ca8 673d
00000160: 5017 343d c53b 5e3d 930e 013c ae64 37bd
00000170: ea65 633d 7009 5bbb 089b 87bc 8e30 91bc
00000180: 1fe3 423d cf3b 463c 5fd0 b13c 47c4 303d
00000190: f8d8 843c a990 b6bc 83cd f9ba 4b5f d93b
000001a0: 4571 3b3d e616 f8bc 0079 a3bc 8dd9 473d
000001b0: 872e 073c 2f92 27bd 3194 443c 3111 af3c
000001c0: e6d2 003a dc45 f03c 4757 71bd cf18 f3bc
000001d0: 3ef7 8f3c 08c9 78bd 066d 0dbc 7efb 653d
000001e0: 4f67 1f3d 0941 d93c 46b8 9bbc fb48 32bd
000001f0: d5ea dcbc 331f 62bd 7cf0 e23b 6314 52bd
00000200: 86b3 bfba 48cd 03bd 6121 ec3b 3a49 923c
00000210: ec43 343d d0d6 3d3a 1e39 cebb dd16 72bd
00000220: b671 5ebc 59e8 443c 162e 6f3d 5e7f 523d
00000230: 3928 05bc f971 273c b821 753d a55f 333d
00000240: 0bac 7ebc 20c0 a4bc b4df 22bd c734 c5bb
00000250: ddf8 3b3d be44 153d 9697 313c 1d1a 24bd
00000260: ff6d 423d d9ee 5b3d e670 76bd 3837 e4bb
00000270: bcd2 c7bc 7ce0 693d 039e 5dbd 90d8 483c
00000280: 2362 e13c 4e3a 7dbd e6b3 62bc 9ddc 60bd
00000290: 3507 93bc c56c 3ebd 6e30 f0b9 0827 263d
000002a0: 88fd 4d3d 098f 2a3d 0f90 43bd 060a 443d
000002b0: 6298 d3bc 4774 54bd b3aa 803d 2620 a6bc
000002c0: ee7a febc a633 e73c e794 303d 6881 debc
000002d0: d293 073b 7279 54bc e1d8 f43c 2809 f2bc
000002e0: ed05 20bd 3080 10bd ee88 6c3d f359 a3bc
000002f0: e5e1 8c3b 8927 00bc 9e74 113d 0fc6 233d
00000300: dee4 41bd fe07 dbbb 7d8b c5ba 3b43 56bd
00000310: 7318 303d 1379 663d a277 1c3c 09bc 373d
00000320: 98b1 1cbd 9a5c 873a 8fe0 f8bb 761a 013c
00000330: 6fed cebc bc0b 133b 5a97 6bbd 1adf 75bd
00000340: 27b9 513d 7c88 913b fac0 da3b 1209 efbc
00000350: bbb2 aa3c 1cf2 9fbb b544 7b3c 407a 1cbd
00000360: 0765 833c ab5c 5dbc d4d0 60bd 2bf2 3c3c
00000370: 63d2 3ebd a66a 5ebd 7f08 0e3d a84c 3fbd
00000380: 23ba 4abd 318a e63c 959f 1c3d 0139 d23c
00000390: e6d8 05bd 242d 21bd eec2 c93c 8c5d 87ba
000003a0: feb7 b63c f671 20bb 3e57 203d 3533 2bbd
000003b0: e70f 5b3c 44c5 d63c 700b 91bb 65d0 7bbd
000003c0: ab46 25bd a56f 593d 7271 043c 6515 c4bc
000003d0: 450d 2ebd 7070 df3a 75e8 273d ccbe 4ebc
000003e0: 0982 83bd 8c4e fd3b 70e9 d3bc ade3 053d
000003f0: c9a1 7d3b 606a 6c3d d47c 1bbd 6b40 bdbc
0.01066102 0.02419598 0.008247734 0.018611109 -0.05845113 0.035909977 -0.018400101 -0.008791916
0.008457231 0.026129035 0.051048543 -0.059502255 -0.042956643 -0.059538446 -0.0153728835 0.054624565
0.027963445 -0.029669518 0.0015597033 0.052617673 -0.00011626781 0.023731254 0.025006002 -0.014018313
-0.06417589 -0.031738967 0.02317713 -0.016720213 -0.058895342 -0.033241138 0.008947827 -0.02108313
0.039850365 0.049387425 0.038992982 -0.011852224 0.046457354 -0.05072673 -0.0046566348 -0.036727093
0.025548479 0.00044645552 0.0032376884 -0.034685537 -0.036916208 -0.060355417 -0.05529632 -0.049148872
0.014516847 0.019108549 -0.056495585 -0.06307749 -0.04005626 -0.008757854 0.011935806 0.005947527
-0.03978723 -0.056667946 0.054987226 -0.01659721 -0.0566444 0.023917593 0.059207533 -0.01704793
0.055636484 -0.05238486 0.0004889657 -0.06371768 0.007031869 0.00344401 0.011662671 -0.030532852
-0.05681434 -0.0010082833 -0.0007783414 -0.008131389 -0.05465479 0.05589583 -0.025496073 -0.03704251
0.060748883 -0.0069988584 0.05361229 0.008898536 -0.028481102 -0.047775634 -0.012779081 0.056556806
0.043967545 0.05425622 0.00787701 -0.04477375 0.055517115 -0.0033422373 -0.016553417 -0.017723348
0.04757988 0.01209922 0.021705804 0.043155935 0.01621674 -0.022285776 -0.001905844 0.0066336743
0.04576232 -0.030284356 -0.019955158 0.048791457 0.008250839 -0.040910896 0.011998222 0.021370502
0.0004914239 0.029330187 -0.058921125 -0.029674916 0.017573949 -0.060738593 -0.00863195 0.056148045
0.038916882 0.026520269 -0.019008767 -0.04352663 -0.026967445 -0.055205535 0.0069256406 -0.051288974
-0.0014625646 -0.032178193 0.0072061275 0.017857183 0.044010088 0.00072417874 -0.00629343 -0.059103835
-0.0135769155 0.012018287 0.05839356 0.051390998 -0.008127266 0.010220044 0.05984661 0.043792386
-0.015543948 -0.020111144 -0.03976412 -0.0060182544 0.04589163 0.03644251 0.010839364 -0.040063966
0.04746818 0.05369458 -0.060166262 -0.0069645904 -0.024392478 0.05709885 -0.05410577 0.012258664
0.027512616 -0.06182318 -0.013836836 -0.054897893 -0.017947773 -0.04649045 -0.0004581245 0.040564567
0.050290614 0.041640315 -0.047744807 0.04786112 -0.025829498 -0.051868703 0.06282558 -0.020279001
-0.031064477 0.02822287 0.043110754 -0.027161315 0.0020687473 -0.012968408 0.029888572 -0.029545382
-0.03906815 -0.0352785 0.057747774 -0.019940352 0.0042993897 -0.007821926 0.035511605 0.039983805
-0.047337405 -0.0066843024 -0.0015071478 -0.05231021 0.042992067 0.05626781 0.009550007 0.04485706
-0.038255304 0.001032728 -0.007595129 0.007879844 -0.025259702 0.0022437414 -0.057517387 -0.06002722
0.051201966 0.004441319 0.0066758366 -0.02917913 0.020837178 -0.0048811566 0.015336205 -0.038202524
0.016039385 -0.013510863 -0.054886654 0.011532347 -0.04658736 -0.054300927 0.03467607 -0.046703964
-0.04949392 0.028142067 0.038238127 0.025661947 -0.032677554 -0.03934969 0.024629083 -0.0010327562
0.022304531 -0.0024481989 0.0391457 -0.04179688 0.013370491 0.02621711 -0.0044264123 -0.061478037
-0.040350597 0.05308499 0.008083688 -0.023935983 -0.042493124 0.0017047059 0.040993173 -0.012618732
-0.064212866 0.007730311 -0.025868148 0.03268783 0.0038701168 0.057718635 -0.037960842 -0.023102006

net.6.bias f4 [256]
00000000: c715 84bd 124c 67bd 5516 25bd 1df9 00bd
00000010: e0b3 bbbc 9f34 d3bb 5766 c1bc bb78 253b
00000020: 3560 e73c 8f46 c33c 4625 223d 9ab5 b7bc
00000030: 0fba 9ebb d411 75b8 e2e1 6a3c 0a3a 35bd
00000040: d795 2d3d b3a3 b93c 92c5 3bbd c563 623c
00000050: ac0a 2f3d 53ab 353d ee54 223c 96b3 a73c
00000060: 3ae1 583c 54b3 ba3c 729e 773d 7fb1 4bbd
00000070: 522c c9bc 293b 4bbd 36ef 133d 6262 4fbd
00000080: ec52 64bd a5e4 273d b157 1ebd 625e 0ebd
00000090: 92cc 11bd f055 3abd a6ff d13c 97f5 8abc
000000a0: 35ad debb 305b 0bbd 806a b7bc 1926 a03c
000000b0: 2d46 d83c ee32 643d 8093 ba3c 10b0 583d
000000c0: 74c0 81bc 8c4c 53bd 6d7e 69bd d084 bebc
000000d0: 8cc0 2fbd e226 a73c 0fe2 7fbd bdc0 2bbd
000000e0: f327 49bd 7e8d 58bd 5f46 83bc 7e68 5abc
000000f0: 13c2 383c cb28 913b c7dc 2f3c dd6c cdbb
00000100: 8f54 22bc ce34 e8bc 3670 a2bc 2065 723d
00000110: d6dd 1bbd 1460 403d ba69 6cbc 876e 74bd
00000120: b1a7 ed3c 12b9 663c 5d37 123b c768 4d3d
00000130: c88b 1ebc 807f c8bc ba97 d13c 47af f93c
00000140: d8ab 643d c25d 99b9 fb33 3cbd 3ace 66bd
00000150: 2f33 69bd bfd3 6abd db68 6a3d 0bbd f2ba
00000160: c31b 0d3d 28a2 253d 7d55 713d 1e50 e23c
00000170: fb87 23bc f26e c03a d50b 653d c153 73bd
00000180: fc6d 43bd 8d1c 763d 7293 fdbc 425c f8bc
00000190: bc69 603d 78d9 9cbc 9a53 373c 367b 3cbd
000001a0: 4690 0cbb 4430 6a3c 1c85 4b3d e2fe 8f3c
000001b0: c5e0 7f3c 6b26 333d 1980 d53c 9ae0 1c3d
000001c0: 5985 433b e5a4 1e3d b676 d3bc 2bc1 f6bc
000001d0: 7b91 78bd 4857 13bd 063f 393c 2e53 c5bc
000001e0: abff c83c 6d18 813b 5934 4e3d db84 533a
000001f0: 2a5d 75bd 7cf3 183d ca9b 633c 793c 98bb
00000200: 8227 6dbd f7b2 cbbc f0db ebbc 9ba1 60bd
00000210: 3511 27bd 6547 26bd 90ac a53b 9450 acbc
00000220: 5658 5ebc ac16 303d ace0 ff3c 83ff 3e3d
00000230: 0840 cf3c cf57 9d3c eac3 223d 6119 d1bb
00000240: c46d 89bb 6076 26bb 53f7 d7bc 9633 023d
00000250: b266 293d 3afc 783d b44a 133d fb8e 043c
00000260: 7f18 803d 3615 67bd e9e5 3f3d 8f57 97bc
00000270: bf4e 503d d6ba 243d d1c6 73bd 4e79 ae3b
00000280: 8ea7 4c3c 47ac 133d 6eb6 703d cda2 3bbd
00000290: cc20 553d b3e2 3a3d c4f5 163d a249 febb
000002a0: 03e4 6e3d 1713 5dbd bd14 5f3d 073e 2a3c
000002b0: 287f 5dbd f956 1bbc 50dd 643d e892 98bc
000002c0: 597a a6bb df1c 80bd 6b6b 36bd 9558 053d
000002d0: 66ae 623d b094 843c 1c5d 54bd 5164 04bd
000002e0: 140e 6b3d 0fb9 53bd 842b ea3c b381 a43c
000002f0: c7a9 843c 9385 fbbc bed9 54bc aaaa cb3c
00000300: fa7d 44bd 1d17 09bd 516b fbbc e9f5 b4bb
00000310: 2d64 e4bc c6af 4a3d 3b16 65bd e200 f8bb
00000320: ab01 393d 08e7 3d3d 25ed d23c 109c 9eb9
00000330: 3123 4fbd 5ebe 413d 94f4 f83c 488c 043d
00000340: c8f1 fe3c 04b2 803d 6b71 8e3b a328 2b3d
00000350: d5b0 473d 1cef 133d 54e5 27bd f5e6 d93c
00000360: 838c ae3a 755e 223d 20c8 3ebd b4f8 cebc
00000370: 0bd7 6dbd 9c4a 2b3d b7f4 af3c d255 693d
00000380: 1e78 72bd 7d49 803c 8eee 7dbd 7f2e 42bd
00000390: b9e9 9abc 96d8 90bc c49f 8b3c fb13 6bbd
000003a0: 80a7 4abc 3793 fe3c af12 423d 7536 f4bc
000003b0: ab3b 04bd ea44 133c a41f 10bd c7b6 b9bc
000003c0: 469c 893c 07fe 7f3c b2aa a9bc cc41 153d
000003d0: 85ca 81bd de16 1dbc c1da c23a 99a7 343c
000003e0: 617c 5cbd 5949 17bd 11a9 543d 0794 58bc
000003f0: 682c 11bd 427e d2bb d91a 9c3c a34b 4dbc
-0.06449466 -0.05646903 -0.0403045 -0.031487573 -0.02291292 -0.006445482 -0.02360837 0.0025248963
0.028244117 0.023837356 0.039586328 -0.022425462 -0.0048439573 -5.8429156e-05 0.014336081 -0.044244803
0.042379227 0.022661066 -0.045842715 0.013817732 0.042734787 0.04435284 0.009907944 0.020471375
0.013237292 0.022790588 0.06045384 -0.04972982 -0.024557266 -0.049616966 0.0361168 -0.050630935
-0.055743143 0.040989537 -0.038657848 -0.03475798 -0.035595484 -0.045492113 0.025634598 -0.01696281
-0.00679555 -0.03402251 -0.02238965 0.019549416 0.02640065 0.055712633 0.022775412 0.05290228
-0.01583884 -0.051586673 -0.057005335 -0.02325669 -0.042908236 0.020404283 -0.062471446 -0.041931856
-0.049110364 -0.052869312 -0.016024766 -0.013330577 0.01127674 0.0044299117 0.01073379 -0.006269081
-0.009907856 -0.028345492 -0.019828897 0.05917847 -0.038053356 0.046966627 -0.014429504 -0.05967572
0.029010626 0.01408221 0.002231083 0.05014875 -0.009676881 -0.02447486 0.025585044 0.030479087
0.055827945 -0.0002925229 -0.04594801 -0.056349017 -0.056933578 -0.057330843 0.057228904 -0.0018519474
0.034450304 0.040437847 0.05891942 0.027626093 -0.009981151 0.0014681502 0.055919487 -0.059406046
-0.04771231 0.060085822 -0.030954096 -0.03031743 0.054788336 -0.019146666 0.011189366 -0.04601594
-0.0021448298 0.014293734 0.04968749 0.017577592 0.015617554 0.04373781 0.026062058 0.038300134
0.002983412 0.038731474 -0.025813442 -0.030121407 -0.060685616 -0.03597191 0.01130653 -0.024087515
0.024535974 0.0039396794 0.05034289 0.0008068808 -0.0599033 0.03734158 0.0138921235 -0.004645881
-0.057899006 -0.02486561 -0.028791398 -0.05484162 -0.040787894 -0.04059543 0.0050559714 -0.021034516
-0.013570866 0.04299037 0.031235062 0.046630394 0.025299087 0.01920691 0.03973762 -0.006381199
-0.0041939933 -0.0025400147 -0.02636305 0.031787477 0.041357704 0.060787417 0.035959914 0.00809073
0.06254672 -0.056416713 0.04685012 -0.018474368 0.050856348 0.040217243 -0.059515778 0.0053245192
0.01249112 0.03605297 0.05876773 -0.045809556 0.05203323 0.045626353 0.036855474 -0.0077602426
0.058322918 -0.053973284 0.054463137 0.010390765 -0.054076344 -0.009481185 0.055875123 -0.018624738
-0.005080503 -0.06255507 -0.044536036 0.03255518 0.0553421 0.016184181 -0.05184661 -0.03232223
0.057386473 -0.051690158 0.028585203 0.020081377 0.016194237 -0.030703342 -0.012991367 0.024861652
-0.047971703 -0.03346931 -0.03069082 -0.005522479 -0.027879799 0.049484037 -0.055929404 -0.0075684646
0.045167606 0.046362907 0.025747845 -0.00030252384 -0.05057067 0.04730069 0.030390061 0.032360345
0.03112115 0.06283954 0.0043470166 0.0417868 0.048752625 0.036116704 -0.04099019 0.026599387
0.0013317022 0.039640862 -0.046577573 -0.025265075 -0.05806641 0.0418192 0.021478994 0.05696661
-0.059196584 0.015660042 -0.06199508 -0.047407623 -0.018910276 -0.017681401 0.017043956 -0.0573921
-0.012369037 0.031076057 0.0473811 -0.029811123 -0.032283466 0.008988598 -0.035186425 -0.022670163
0.01679815 0.01562453 -0.020711277 0.036439702 -0.06337456 -0.0095879715 0.0014866219 0.0110262865
-0.053829554 -0.036935184 0.051919047 -0.013218886 -0.03544274 -0.0064237425 0.01905577 -0.01253024
