Data Driven PINN/data_driven_pinn_elasticity.pth (torch, 670288 bytes, 10 tensors)

net.0.weight f4 [128, 2]
000000 70 6f 01 bb ed 74 c5 3e ce 23 14 bf ba ce 04 bf
       -0.001975026 0.3856577 -0.57867134 -0.5187794
000010 a0 05 8a be d1 f9 3d 3e 9a 6d 8d bc c6 58 0e 3f
       -0.26957417 0.18552329 -0.017264176 0.5560421
000020 73 df 88 bd 46 fa 43 3e 66 8b 58 be ac 89 14 be
       -0.066832446 0.1913844 -0.21146926 -0.14505643
000030 a5 12 2a bf 26 7d ec be 63 98 8b be 17 66 a9 3c
       -0.664347 -0.4618923 -0.272647 0.020678563
000040 99 8c 96 3e 5f 5c da 3e fd aa f3 be a6 9b 9c be
       0.29404142 0.426486 -0.4759139 -0.305875
000050 76 4b 7d 3e c0 d9 15 3f 10 24 0b be 0f 88 06 3f
       0.24735817 0.58535385 -0.13587976 0.5255136
000060 89 48 ea bd e0 76 af 3d 77 68 23 3f 7c e2 21 bf
       -0.11439616 0.085675955 0.63831276 -0.6323621
000070 ff 1a dd be 82 85 22 be 88 ed 8d be 4a ec 1e 3f
       -0.4318466 -0.15871242 -0.27720284 0.620793
000080 1b 11 ea be f8 c8 a5 be c8 07 fc be fb 6d 29 bf
       -0.45716175 -0.3237989 -0.49224687 -0.6618344
000090 59 1f cd be 75 32 1d 3f b0 87 b1 3e 12 4f ba 3e
       -0.4006298 0.61405116 0.34673834 0.3638845
0000a0 4f 1e 16 3d 41 cd be be 15 17 e2 3d 71 cd 29 bf
       0.03665 -0.3726597 0.11039559 -0.66329104
0000b0 9f 2d 02 bf f7 ba bb be 54 1f e8 3e 0e 2a d4 3e
       -0.5085086 -0.3666608 0.453364 0.41438335
0000c0 c9 74 9a be 14 73 ad bb 77 8d e5 3e 91 7e 32 3f
       -0.30167225 -0.0052932594 0.44834492 0.69724375
0000d0 c5 b4 a4 3e 48 b9 ea 3d a8 74 f1 3e 58 84 d4 be
       0.32169166 0.11461121 0.47159314 -0.4150722
0000e0 9b 25 0d 3e 25 d1 0b bf dc 20 f8 be 24 4d b3 be
       0.13783877 -0.54616004 -0.4846257 -0.3501979
0000f0 60 40 a3 3e 28 8d 8f 3e 2c 46 d7 be 67 6f 57 3e
       0.31885052 0.2803738 -0.42045724 0.2103859
000100 93 54 cd 3e ad b3 a0 bd cf 54 e8 3c 3d b7 1b 3e
       0.40103588 -0.078467704 0.028360752 0.15206619
000110 6a e4 e1 3e 43 90 2f 3f 20 9c 09 bf bf b7 7f be
       0.4411958 0.685795 -0.5375385 -0.24972437
000120 56 8a 82 3e 22 3c 14 3f f9 70 1d 3f 4e a2 1e 3f
       0.25496167 0.57904255 0.6150051 0.6196641
000130 8f 6e 19 3e 40 f3 1c bf 8f b1 8c 3d ee 37 e1 be
       0.14983581 -0.6130867 0.06869804 -0.43987983
000140 88 e2 27 bf b0 67 20 3f 08 31 0f 3f 5c e4 34 bf
       -0.65580034 0.62658215 0.5593419 -0.7066095
000150 90 7a 16 3e 4a 04 00 be 27 1c fe bd 8e d5 a6 be
       0.14695191 -0.12501636 -0.124077134 -0.32584804
000160 4e de 8b 3e 61 3b d5 be 6f 57 7b 3e 6b d7 b2 3e
       0.27318043 -0.41646865 0.24545072 0.34929976
000170 ff b6 fe 3e 4c 30 85 3e da a6 31 bf b8 36 e5 be
       0.4974899 0.2601341 -0.6939522 -0.4476831
000180 46 0f b3 3e f2 e1 1b 3e a8 98 0f bf 4f f6 d4 be
       0.3497259 0.1522291 -0.5609231 -0.4159417
000190 e3 c3 26 3f ad 39 f1 3e d7 12 a1 be c3 07 31 be
       0.6514265 0.47114316 -0.31459686 -0.17288117
0001a0 c8 f5 2a bf c1 72 9b bc a2 27 09 bf 9b 4d 0b bf
       -0.6678128 -0.018975617 -0.535761 -0.5441529
0001b0 b2 83 20 bd 7a dd df 3d 00 a6 90 be 3e 61 d8 3e
       -0.039188094 0.10930915 -0.28251648 0.4226169
0001c0 5d 58 da be 00 2d 24 3f d1 5d f4 3e a1 7c 18 bf
       -0.4264554 0.64131165 0.47727826 -0.5956517
0001d0 a9 36 32 be 03 b0 ba 3c ee 4f cb 3d df a6 31 3e
       -0.17403664 0.022789007 0.09927355 0.17348813
0001e0 80 38 99 3e e2 ab 42 3d aa 3d ae be 4f 50 a6 3e
       0.2992592 0.0475272 -0.3403142 0.32483146
0001f0 33 c2 2b bf 93 27 d4 be 92 6f 36 be 16 45 ac be
       -0.670932 -0.41436443 -0.17815998 -0.33646458
000200 45 36 71 be 56 10 11 bf 0f 83 1a be 44 2c 1f 3e
       -0.23555858 -0.5666555 -0.15089057 0.1554423
000210 02 91 f2 be 5f 6c be 3b 33 7e 00 3f 58 e8 a5 bd
       -0.47376257 0.0058112587 0.50192565 -0.08100957
000220 72 c7 a1 3c a1 4f 66 bd 31 51 15 3e 64 b0 e1 3e
       0.019748423 -0.056228284 0.14581753 0.44079888
000230 6e 2a 2b 3f 24 f6 e3 3e a2 46 29 3f 75 de 51 bd
       0.6686162 0.44523728 0.661234 -0.051237542
000240 3d 09 22 bf 98 01 a3 be f4 fa 00 3f ab 42 8b bc
       -0.63295346 -0.31837153 0.50382924 -0.016999563
000250 79 9d b8 be 95 bb 0c bf bc 3f 28 bf d4 bc 18 bf
       -0.36057642 -0.5497373 -0.6572225 -0.5966313
000260 26 9a 11 be 51 0f c5 3e b1 b8 c4 3e 09 d2 2b bf
       -0.14218959 0.38488248 0.38422158 -0.67117363
000270 10 86 de 3e 72 34 0c bf 79 86 18 be df 82 94 be
       0.43461657 -0.54767525 -0.14895047 -0.29006097
000280 fc 34 0d be ec 56 05 be 30 77 20 bf 1b 68 19 bf
       -0.13789743 -0.1302144 -0.62681866 -0.5992448
000290 79 19 fb bd 8e c9 9f 3c 1c 90 9e be 07 31 84 3e
       -0.12260718 0.019505288 -0.30969322 0.25818655
0002a0 92 5b 20 bf 5e 84 42 bd cd 8a 22 3f 4d fb 94 be
       -0.62639725 -0.047489516 0.63493043 -0.29097977
0002b0 59 6f 22 3f cb e5 7e 3e e8 c4 20 bf 64 62 e3 3e
       0.63451153 0.24892347 -0.62800455 0.44411004
0002c0 c3 0a b8 bd d4 b0 a2 be 90 1d 10 3f 6a 0b 0f bf
       -0.08986428 -0.31775534 0.5629511 -0.5587679
0002d0 29 ab 7d 3d 23 94 0d be 4e 69 ff 3e 0e f8 4e 3e
       0.06193081 -0.13826041 0.4988503 0.20211813
0002e0 5e 32 b8 3e 47 34 8f 3e 06 b9 1f be 37 78 18 be
       0.35975927 0.27969572 -0.15597925 -0.14889608
0002f0 98 25 15 bf 52 f5 cf 3e 4f 69 0e 3f cc ee f1 3e
       -0.5826049 0.40616852 0.5562944 0.472525
000300 e8 bf 00 bf 0e 15 1e 3d 1e d2 ff be b2 62 c2 be
       -0.50292826 0.038594298 -0.49964994 -0.37965924
000310 bf e3 d3 be 32 fb 72 3e 3f a5 ce be 4c ea 85 bc
       -0.41384694 0.23728636 -0.40360448 -0.016347073
000320 ba 24 9c 3d 11 42 e5 3e b6 d3 07 bf 04 b6 f7 be
       0.076241925 0.44776967 -0.5305742 -0.48381054
000330 4d 1e d0 be 2b 1b fb 3e 2d d1 7a be 26 c4 17 3f
       -0.40648118 0.49044165 -0.24493857 0.59283674
000340 3d d0 82 3e 3d 1a b9 3d 52 f0 0a bc 69 b7 19 be
       0.25549498 0.09038208 -0.008480148 -0.15011372
000350 90 da 9b 3d 62 10 13 be 16 bd 08 bc 1c 98 b3 3d
       0.07610047 -0.14361718 -0.008345863 0.08769247
000360 14 9c 0c bf 8f 5e b8 be f4 d9 17 3f 3e a7 0f bf
       -0.54925656 -0.36009642 0.59316945 -0.56114566
000370 3b 3f 28 bd 7e e9 31 3f 6a 93 86 3e e9 7c 99 3c
       -0.041075926 0.69496906 0.26284343 0.01873632
000380 2a d7 1d bf 9a 40 bc 3e a4 23 00 bf d7 f7 4a be
       -0.6165644 0.36768037 -0.50054383 -0.19821106
000390 42 e7 74 be f4 de d9 bd f2 22 bd 3c cb 26 14 3f
       -0.23916343 -0.10638228 0.023087952 0.57871693
0003a0 68 74 9e 3d b2 98 21 3f c5 fb db 3e f6 df e5 be
       0.077370465 0.6312362 0.42965522 -0.4489743
0003b0 a7 a6 a8 3e 5a f9 01 bf 8e 1e 9e be b9 2d 64 3e
       0.32939646 -0.50771105 -0.30882686 0.22283067
0003c0 96 6d 66 3e ec 3a 06 3f 9a 5f 6a be f8 85 b0 bb
       0.22502741 0.5243366 -0.22888032 -0.005387064
0003d0 1f 42 bc 3e 37 24 2d bf 9a d0 06 3f 72 90 12 bf
       0.36769196 -0.67633384 0.5266205 -0.57251656
0003e0 e9 75 0e bc 34 29 01 be 2c 0d c0 be 46 58 bc 3d
       -0.008695104 -0.12613374 -0.3751005 0.09196524
0003f0 57 e2 14 3f 7f 69 4b be 3f d1 d2 be 32 e2 89 be
       0.5815787 -0.19864462 -0.41175267 -0.26930386

net.0.bias f4 [128]
000000 d1 e9 31 bf 05 60 a3 3e a5 9c b0 be c3 c6 f2 be
       -0.694974 0.31909195 -0.3449451 -0.47417268
000010 1e 81 ce be 75 bf cd 3e df 47 ba 3e 05 95 0c 3f
       -0.40332884 0.40185133 0.36382958 0.54914886
000020 3d 6b 88 3e 91 bf 72 be eb 40 4a be c8 b1 51 3e
       0.26644316 -0.2370589 -0.19751327 0.20477974
000030 6d 82 13 3f b0 ad 3d 3e 31 1f b3 be a3 b5 a5 be
       0.5762089 0.18523288 -0.34984735 -0.3236514
000040 fd dd 2b bf 9f 77 1f 3e 7c 76 cb be 87 10 1c bf
       -0.671356 0.15572976 -0.39738834 -0.6096272
000050 62 c6 1c 3f 82 c1 e9 be 2e 33 a4 bd d0 46 50 3e
       0.6124021 -0.45655447 -0.08017574 0.20339513
000060 70 82 8b 3c 57 35 f6 be bd 3b 0e bf 33 84 11 3f
       0.01702997 -0.4808757 -0.55559903 0.56842345
000070 3e 12 ec 3d 60 61 17 3f ca 72 76 be 19 f0 56 3e
       0.11526917 0.5913296 -0.24067226 0.20990027
000080 90 9d 25 be 4d 0d 1d bd 6d 5b d9 be eb ed 71 3e
       -0.16173387 -0.038342763 -0.42452565 0.23625915
000090 c5 76 5e 3e 01 f4 96 bc 50 a9 25 be fa 13 e0 be
       0.21724994 -0.018426897 -0.16177869 -0.4376524
0000a0 88 9f fa 3e 09 2b 06 bf f2 ed 96 3e 19 f9 70 be
       0.48949838 -0.52409416 0.29478413 -0.23532523
0000b0 e2 da af be e6 5b fa 3d 24 ce bd be da a6 20 3e
       -0.34346682 0.122245595 -0.37071335 0.15688649
0000c0 b7 4f 16 3e f8 1f 04 bf 4f 25 ed 3d af 0f 9e 3e
       0.14678846 -0.5161128 0.11579382 0.3087134
0000d0 ae 2d 8c 3e a3 d8 b8 bd 0f 58 13 bf ce 3f da bd
       0.273786 -0.09025695 -0.5755624 -0.10656701
0000e0 e4 6b 7b 3e ef 66 83 be ec e9 86 3e 83 57 f0 3e
       0.24552876 -0.2566447 0.26350343 0.46941766
0000f0 de a3 b4 be 0e 17 21 bb 07 fd 96 3e 97 d5 3d 3d
       -0.3528127 -0.0024580392 0.2948992 0.046346273
000100 4e 37 41 3d ce 3f cd 3d 76 ab 0c bf 1e ac 41 3d
       0.047171883 0.100219354 -0.5494913 0.047283284
000110 00 d0 00 3f 08 f3 21 3f fc 22 d4 3e 05 10 ab 3d
       0.5031738 0.6326146 0.4143294 0.08352665
000120 a2 66 a7 3e c5 22 a7 be 5d eb 13 bf ae 1a 1c bf
       0.3269549 -0.32643715 -0.5778101 -0.6097821
000130 53 1d 32 3f 41 8c e4 3e de 28 fd be 22 65 8d 3e
       0.69575995 0.44638255 -0.49445242 0.2761622
000140 64 60 07 3f f5 06 33 3f e9 22 1e 3f 6f 5c 0d 3f
       0.52881455 0.6993249 0.6177202 0.5521917
000150 c4 02 2e be 52 e2 6c be f3 82 12 3f 5b ec c6 3e
       -0.16993243 -0.2313321 0.5723106 0.388522
000160 d4 c6 d8 be 42 06 22 3f 2f 61 b2 3e da fb c5 3e
       -0.42339194 0.632908 0.3483977 0.3866871
000170 f8 23 d5 be 66 bf 59 3e e2 e8 65 be d5 da 0b 3f
       -0.41629004 0.21264419 -0.22452119 0.54630786
000180 54 7c f8 bd ef 03 8d 3e 26 51 01 3e cd 91 95 3e
       -0.12133089 0.27542064 0.12628612 0.292128
000190 58 4d 7e be d5 f2 b0 3e 50 1b ff be 5b 95 20 3e
       -0.24834192 0.34560266 -0.49825525 0.15681975
0001a0 2e 3d f5 be 01 df 2f bf a6 63 15 bf 59 be 0c 3f
       -0.4789824 -0.6869965 -0.58355176 0.5497795
0001b0 a9 31 c3 3e 3b 09 2c 3f 44 9f 0f 3f 1e bd 1f bf
       0.38123825 0.67201585 0.56102395 -0.62397945
0001c0 eb cd f9 be 1b 0f eb bd 39 72 ea be 7d 7d f9 3e
       -0.48789915 -0.114774905 -0.4579027 0.48728552
0001d0 0f 40 09 bf 5c f2 af be 5f 15 2d bf 9f 3f c8 be
       -0.5361337 -0.34364593 -0.67610735 -0.3911104
0001e0 3a c6 13 3f 81 35 18 3f 44 d0 00 3f 3a 3a 0f 3f
       0.57724345 0.5945664 0.5031779 0.5594822
0001f0 e4 7c 20 3f bb ed 36 be 97 eb 9e 3e 1e 0d 20 3f
       0.6269057 -0.17864124 0.31039116 0.62520015

net.2.weight f4 [256, 128]
000000 e0 1c c3 3c 6c 9f af 3d 6d eb 2c 3d ef 22 4b 3d
       0.02381748 0.08575329 0.042216707 0.049593862
000010 44 9d 12 bd c2 89 20 3d 1a f9 f3 3b 4a d9 ca bc
       -0.03579451 0.039193876 0.0074454667 -0.024761815
000020 46 76 5d bd 17 a8 51 bd 22 6a 95 bd 40 87 61 3d
       -0.054067872 -0.051185694 -0.07295634 0.055060625
000030 ba 23 72 3d cc b2 48 bc 95 27 56 bd 1e 2d 81 3d
       0.059116103 -0.01224966 -0.052283842 0.063074335
000040 e1 a4 66 3d 43 d5 83 3b e2 af 3f bd 6b d2 9f 3d
       0.056309585 0.0040232255 -0.046798594 0.07803806
000050 3b 39 08 3d 13 cf 89 bd 65 0d a9 3d fa d6 80 3d
       0.033257704 -0.067289494 0.08254508 0.062910035
000060 33 bb 10 bd d5 52 38 3d a1 8a 58 bd be 1c 88 bc
       -0.035334777 0.04500087 -0.05286658 -0.016615268
000070 e0 6b 94 3d 34 5d 46 3a 72 86 88 bd 26 90 09 bd
       0.07247138 0.0007566989 -0.066662684 -0.033584736
000080 27 3c d6 bc a6 ab af bc 85 a3 72 3b 01 a5 a1 3d
       -0.02615173 -0.021444153 0.0037023735 0.078928
000090 46 a5 d9 39 ef 59 71 bd 00 b8 23 3b c6 a7 2d 3d
       0.00041512604 -0.058923658 0.0024981499 0.04239633
0000a0 99 39 22 3d 23 67 a7 bd ed 19 9b bc 5b 4d 89 bd
       0.03960571 -0.08173969 -0.01893326 -0.067042075
0000b0 b8 66 1f bd 07 ab e1 3c 1a 93 87 bd 53 3c f9 3c
       -0.03891632 0.027547373 -0.06619854 0.030424273
0000c0 8a f3 91 3d 22 01 a4 3b 19 d8 80 bd 9c 17 0e bd
       0.071265295 0.005005018 -0.06291217 -0.034690484
0000d0 d4 f4 81 3c f8 a2 8e bd 1c 74 21 3d fb b8 ad bd
       0.015863813 -0.069646776 0.03941737 -0.08482548
0000e0 57 c3 b6 bd 8e f7 b2 bd 36 1a b1 bc 70 6a 63 3d
       -0.08923977 -0.087386236 -0.021618944 0.05552143
0000f0 6c eb b0 bd 80 b0 8d 3d 8d d7 1b bd bb 8a bf 3c
       -0.08638653 0.0691843 -0.038047362 0.023381582
000100 29 1e b7 3a ed e3 ab bd a9 86 99 3d 9b 33 38 3d
       0.001397078 -0.08393083 0.074963875 0.04497109
000110 e0 e1 ac 3d 2d b4 25 3d 34 78 7f bd 89 92 91 3d
       0.0844152 0.040455032 -0.062370494 0.071080275
000120 b9 0b fc 3a 4e 5e 21 3d 8f 2d 90 bd 08 9d d6 bc
       0.0019229568 0.039396577 -0.070399396 -0.026197925
000130 0c 26 ba bd b6 a8 17 bd c6 d3 93 3c e8 a8 93 bd
       -0.09089288 -0.03702613 0.018045317 -0.07209951
000140 b2 c5 cb 3c 68 5c 37 3d cb e6 0e 3c 5f 6a 81 bd
       0.024874542 0.04476586 0.0087220175 -0.06319117
000150 9a e0 90 bd 5b 8f ec bc a4 38 0f 3d ad 03 aa 3d
       -0.07074089 -0.028876951 0.034966126 0.08301482
000160 f9 60 4e 3d 6c 15 50 bc d2 68 e4 3c 45 62 b9 bd
       0.05038545 -0.01270042 0.027882013 -0.090519466
000170 85 c2 a1 bd 85 b8 1c 3d 10 cd 5d bd d8 83 1d 3d
       -0.0789843 0.03826191 -0.05415064 0.038455814
000180 cd a3 85 bd 89 1e 3e bd ad 73 9d bd 36 aa 2e 3d
       -0.06525383 -0.04641584 -0.07688079 0.042642795
000190 8b 94 66 bc be e7 85 3d a4 ca 4a 3d 44 87 36 3d
       -0.014073501 0.06538342 0.04950966 0.044562593
0001a0 66 f9 ad 38 02 8a ee bc b1 02 ac bc bd 43 03 3c
       8.295737e-05 -0.029118542 -0.020997377 0.0080117555
0001b0 d6 17 28 3d 6e 71 84 bd 9c 5e 8f 3d d6 85 47 bc
       0.041038357 -0.064669475 0.07000467 -0.012177905
0001c0 21 46 a0 bd 64 4e 4b bd 59 ec 9c 3d 4d f5 9c 3d
       -0.07825876 -0.049635306 0.07662267 0.07663975
0001d0 22 39 b2 bd a0 72 79 3d 93 dc 32 3d 9b f4 47 3d
       -0.087023035 0.06090033 0.043667387 0.04881726
0001e0 39 ab 90 3d a6 e5 51 bd 29 3e cf 3c a5 21 09 3d
       0.07063908 -0.0512444 0.025298195 0.03347935
0001f0 e3 89 f1 bc cb 5d d7 3c 87 8d e7 bc e4 14 53 3d
       -0.029484695 0.026289841 -0.028265728 0.051533595
000200 f6 8a 10 bd c5 43 2d bd 8f be 51 3c f0 57 aa 3c
       -0.035288773 -0.04230096 0.01280178 0.020793885
000210 0c 15 5b bd 83 64 06 bb 2f 26 2b 3d fc de 9a bc
       -0.05348687 -0.0020506687 0.04178446 -0.018905155
000220 0b fe 82 3c 29 11 f4 bc 33 df a2 3c 18 ab 98 bd
       0.015990278 -0.029793339 0.01988182 -0.074545085
000230 37 36 7f bd fd 32 5d bd 56 30 95 3d ef 6c 0a bd
       -0.062307563 -0.054003704 0.0728461 -0.033795293
000240 56 56 06 bc ba 02 54 bd 89 ea a0 3d 10 17 95 3d
       -0.008199295 -0.051760413 0.07857234 0.072797894
000250 20 f4 9c bd 02 b6 a5 bd 87 2e 9b bd 63 08 3d bc
       -0.07663751 -0.08091356 -0.07577234 -0.011537644
000260 bf 9e 03 bd 2b 0d 8f bd 24 15 38 bd 7c 2b cf 3b
       -0.032133814 -0.069849335 -0.044942036 0.0063223224
000270 0a 02 62 bd 36 af 23 3c a1 6a 04 bd f1 ab 58 bd
       -0.055177726 0.009990504 -0.03232825 -0.05289835
000280 38 4a 50 3a 44 70 7d 3d b7 d2 92 bd 87 38 b1 bb
       0.000794563 0.061874643 -0.07169097 -0.00540835
000290 f6 1b 32 bd 29 6d 9a 3d 34 83 be bd 8b 6d c0 bd
       -0.043483697 0.07540352 -0.09302369 -0.09395894
0002a0 87 59 9d 3d 30 33 86 bd a7 33 d7 3b 35 95 87 bc
       0.076830916 -0.06552732 0.0065674367 -0.01655064
0002b0 41 20 e6 bc 20 d8 fb bc 35 6f 30 3d 88 2b a3 bb
       -0.028091552 -0.030742705 0.043074805 -0.0049795546
0002c0 47 4e c7 bd 44 e9 76 bd 47 f4 29 bd c9 6e 0e 3d
       -0.09731727 -0.060281053 -0.041492727 0.03477362
0002d0 8c 09 89 bd 9f d5 98 3d 03 d4 f6 bc 6e 96 d4 bc
       -0.06691274 0.0746262 -0.030130392 -0.025950637
0002e0 f9 50 71 3d ca 3b 0f 3d 80 d6 84 3d 00 e7 25 3d
       0.058915112 0.03496913 0.06486225 0.040503502
0002f0 20 e0 22 bd 88 9f 8c bd aa 1a 83 bc 63 43 83 3d
       -0.039764524 -0.06866366 -0.016003925 0.06409337
000300 d9 00 1e bd c9 ce bc bd 3f fc e0 3c f7 7c 99 3d
       -0.038575027 -0.09219129 0.02746403 0.07494538
000310 b4 7f 11 bd dd c1 ab bd 4a f0 ba bd ee 0f 33 3c
       -0.035522178 -0.08386586 -0.09127863 0.010929091
000320 1b e5 84 bc 87 08 6d bd c8 32 1d 3c 7d 9a d0 3c
       -0.016222527 -0.05786946 0.009594627 0.02546429
000330 f5 04 75 3d 35 57 73 3d c5 7c bb bc 3f 0c b3 bd
       0.05981918 0.05940934 -0.022886643 -0.0874257
000340 a5 33 b8 bd d3 96 95 3d 45 d4 eb 3c 1f 52 e7 3c
       -0.089942254 0.07304158 0.028787741 0.0282374
000350 3e 66 af bd 65 3c 92 3d d8 f2 94 3d 3e a1 8e 3d
       -0.08564423 0.071404256 0.07272881 0.06964348
000360 f3 ad aa bd 32 38 32 bd 15 92 91 bd 40 b4 94 3d
       -0.083339594 -0.043510623 -0.07107941 0.072609425
000370 04 2a 52 bd 94 f7 4c bd 77 aa 16 3d f0 5a 54 bd
       -0.0513096 -0.050040796 0.03678366 -0.051844537
000380 68 01 59 bd 90 ae 8c bc 4d 79 97 bc 6d 19 a1 bd
       -0.052979857 -0.017173082 -0.018490458 -0.07866178
000390 c0 06 81 3d d5 32 46 bd 75 f6 b2 3c 15 17 88 3d
       0.063001156 -0.04838832 0.021846035 0.066450275
0003a0 70 8f 01 3d 5d fb 45 3b 75 b4 86 3d 8b 76 bd 3a
       0.031630933 0.0030209639 0.06577388 0.0014454884
0003b0 61 6c 4e bd f8 51 96 3d 96 bc 28 3c d7 c4 ca bd
       -0.050396327 0.07339853 0.010298869 -0.099008255
0003c0 65 9a 0d bd 83 a8 8d bd ef 82 8c 3d 91 c6 ce bc
       -0.03457107 -0.06916907 0.06860911 -0.025241168
0003d0 c9 c7 bb bd 3e d8 78 bc 5b 9e 3a 3d a5 60 5c 3c
       -0.09168965 -0.015188275 0.045561176 0.013450776
0003e0 0a b4 8c 3c f3 05 00 bb 08 87 c1 3c 37 d3 00 bd
       0.017175693 -0.0019534796 0.023623958 -0.03145143
0003f0 dc 1c 3a bd 48 8e bc bd 69 7d 9e bd 15 27 ea 3c
       -0.04543768 -0.092068255 -0.07738764 0.028583089

net.2.bias f4 [256]
000000 d6 69 8c 3c d7 08 6d bb ad 65 67 3d 22 af 7a 3d
       0.01714031 -0.00361686 0.05649345 0.061202176
000010 f9 63 ae bc 11 3a aa 3c d8 b1 b8 bc c1 d1 76 bd
       -0.021287905 0.020779641 -0.02254574 -0.06025863
000020 3d b0 c3 3c 36 82 44 3c e3 eb 2e 3d de 59 e0 3c
       0.023887748 0.011993935 0.042705428 0.027386602
000030 81 0d 4d bc 2e a0 ea bc ac ea 0c bd a0 ba a7 bd
       -0.012515427 -0.028640833 -0.034403488 -0.08189893
000040 b2 0c 70 3c e4 34 9d bd 0f 1f 99 ba a3 46 9f 3d
       0.014651464 -0.07676104 -0.001168223 0.07777145
000050 ff 1c 20 3d 57 7d 89 bd 63 20 6b 3c 2a b8 18 bc
       0.039090153 -0.0671336 0.014350983 -0.009321252
000060 8f 80 e1 3b e3 76 17 3d e1 2c 18 bd 5f 3d 7e bd
       0.0068817805 0.036978614 -0.037152175 -0.062070247
000070 47 4c 56 bd 83 0c 2d bd 3b a3 e5 bc e5 7c a1 3b
       -0.052318837 -0.04224826 -0.028031936 0.0049282187
000080 85 fc 2b 3d b0 fc 08 ba 7b 80 b4 bd ea 99 5b bd
       0.04198887 -0.00052256417 -0.08813568 -0.05361358
000090 96 6a 76 3d 0e 40 6e bc cf 03 02 bc 5b 0c cb 3c
       0.060160242 -0.014541639 -0.007935478 0.024786165
0000a0 0b 62 03 3d 21 39 1c bd fd 2c ac 3c 97 0b 74 bd
       0.032075923 -0.03814042 0.021017546 -0.059581365
0000b0 92 d0 92 3d dc e4 36 bc 9f 34 06 3c 54 63 bf bc
       0.07168688 -0.011162963 0.008191257 -0.023362793
0000c0 b9 58 96 3d c3 b9 70 bd 74 b1 5f 3d 99 82 12 bd
       0.07341141 -0.058770906 0.054612592 -0.03576908
0000d0 ec 34 01 bd 4a fb 45 bc 21 fa 39 3d e2 ab c4 bc
       -0.03154461 -0.012083838 0.045404557 -0.024007741
0000e0 52 15 94 3d 57 c8 9d 3d e8 75 a2 3c cc c9 0a 3d
       0.07230629 0.077042274 0.019831613 0.033883855
0000f0 dc 73 a2 3c a3 4d a5 3d 28 e4 b4 bd 17 04 74 bd
       0.019830637 0.08071449 -0.0883258 -0.059574213
000100 37 6e d4 bc c8 91 8b bd 99 08 4c bd 86 6c 9d 3d
       -0.02593146 -0.06814915 -0.049812887 0.07686715
000110 8a e3 e5 bc c9 23 6a bd a9 e8 93 bc f0 6c ae 3c
       -0.0280626 -0.057163034 -0.018055277 0.02129218
000120 27 a7 86 bd 19 3d 91 3d c6 60 8e 3d 3b 2a 4c bd
       -0.065748505 0.070917316 0.06952052 -0.04984496
000130 49 23 99 ba 8f e8 5a 3c 97 d5 aa 3b 0b be 86 bd
       -0.001168349 0.01336111 0.00521345 -0.065792166
000140 18 89 ab bd a3 de 67 bd 34 93 2e 3d 46 15 9f bd
       -0.08375758 -0.056608807 0.042620853 -0.077677295
000150 02 b4 46 3c 34 ec 03 bd a6 a8 45 3d 4d a4 d3 3c
       0.012127878 -0.032207683 0.04825654 0.02583518
000160 fb e9 16 3c aa 49 90 bc 53 2e b3 bd e7 00 95 bd
       0.009211059 -0.01761325 -0.0874907 -0.07275563
000170 2f 0c dc bc 64 59 ba 3d c9 98 98 bd 02 52 a1 3d
       -0.026861278 0.09099081 -0.074510165 0.0787697
000180 22 4a 85 bd e1 ae a3 3d 68 95 10 bd 68 6a 9e 3d
       -0.0650828 0.0799234 -0.035298735 0.07735139
000190 0b 00 0f bd 45 8d 94 bd 9c b0 bc bc e7 42 30 bd
       -0.03491215 -0.072535075 -0.023033433 -0.043032553
0001a0 b4 ad 25 bd 21 8f 41 3d 2c 2a 70 bc 77 7d 11 3d
       -0.04044886 0.04725564 -0.014658492 0.035520043
0001b0 fd 54 9c bd d4 cb 4d 3b 1c 6a 91 3c 89 be 47 bc
       -0.07633398 0.0031402009 0.017750792 -0.012191423
0001c0 55 67 1b bd 5a 83 22 3c 98 f6 1e 3d 7a 66 1b 3d
       -0.037940342 0.009919012 0.03880939 0.037939526
0001d0 07 ca 7d bd 7b 12 ee bc a9 8f 1d 3d a5 aa 0e 3d
       -0.061960246 -0.029061547 0.038467083 0.034830708
0001e0 02 b4 36 bd 6a e5 df 3b 21 71 a1 3c b4 b3 94 bd
       -0.044605263 0.006832768 0.019707264 -0.07260838
0001f0 36 d6 39 3c f3 c0 13 bc 23 3a ab bd b0 18 89 bc
       0.011342576 -0.009018171 -0.08360698 -0.016735405
000200 6c b8 d2 bc de a8 ad bd 32 af 93 3d d8 06 16 bd
       -0.025722705 -0.084794745 0.0721115 -0.03662762
000210 90 f8 5a bc 22 1d bc 3c 2d 3f 3c 3d 27 fd 87 bc
       -0.013364926 0.02296311 0.045958687 -0.016600205
000220 8e 1e 32 3d bc 0d 84 3c 47 bf a4 bd e3 ab 7e 3d
       0.04348617 0.01611983 -0.08044296 0.062175643
000230 46 42 22 3d 62 ff 43 bd 0a ae 04 bd 30 33 27 3d
       0.039613985 -0.047850974 -0.03239254 0.0408203
000240 f4 bd 68 3d 9f 68 34 3d e1 bc 55 3d cf a8 66 bd
       0.05682178 0.044045087 0.052182082 -0.056313332
000250 cf 37 a5 3d 72 be 8f 3d 8e 3e 5a bd 7a f2 08 bd
       0.08067285 0.070187464 -0.053282313 -0.03343437
000260 7b fd 39 3d b5 32 9e 3b 16 e0 ca bc d6 22 9d 3b
       0.045407753 0.004827822 -0.024765056 0.0047954125
000270 44 48 81 3d 64 1d 75 3d 0c a7 9f bd 16 f6 92 3d
       0.06312612 0.059842482 -0.077955335 0.071758434
000280 99 83 1b bc c1 66 06 bd a2 ea 13 bd c7 fd 5c bd
       -0.009491825 -0.032812838 -0.036112435 -0.05395296
000290 ba 45 a4 3d 9a 03 72 bd 29 e9 27 3d 09 03 f6 bb
       0.08021112 -0.059085466 0.040993843 -0.007507686
0002a0 97 4e 27 3d d1 93 04 bd 0e 53 51 bd d8 40 26 bd
       0.040846433 -0.03236753 -0.051104598 -0.040589184
0002b0 1a be a1 bc f6 ac f9 bb 5f c1 6b 3d 78 9b 96 bd
       -0.019743968 -0.0076194955 0.05755746 -0.07353872
0002c0 0b ea 2c bd d5 15 b1 bd 8b 4a 98 3d 83 a3 f3 3c
       -0.04221539 -0.08646742 0.07436093 0.029741054
0002d0 29 f9 3a bc 6b e0 62 bd ae 0e 55 bd 05 c7 9f 3d
       -0.0114119435 -0.055389803 -0.052015953 0.07801632
0002e0 ed 79 ad 3d 54 4b 8c 3d ee e5 69 bd 1a 77 32 3d
       0.08470521 0.06850305 -0.057104044 0.043570615
0002f0 58 92 02 3d 73 18 44 3d 82 b7 f8 bc 8c 61 0e bd
       0.031877846 0.04787488 -0.03036094 -0.034760997
000300 5e 84 1e bd 19 97 b4 bd 61 78 90 3d fa e5 5c 3c
       -0.038700454 -0.08817882 0.070542105 0.013482565
000310 bc 6c 85 3d 17 fe 6c 3d 9a 07 a5 3d 7d fc bd bc
       0.0651488 0.057859506 0.080580905 -0.023191685
000320 8d f5 08 3d 4d 2d 5b 3c 0b 35 4e bc 57 59 11 3c
       0.0334373 0.0133775 -0.012585889 0.008871398
000330 87 85 a1 bd a3 56 c9 3d 10 95 05 3d 69 ec 69 3d
       -0.078867964 0.09830978 0.03261286 0.057110224
000340 60 6d 0e 3d f0 d4 92 3d aa 46 65 bd 50 fd 19 bd
       0.034772277 0.07169521 -0.055975594 -0.037595093
000350 40 14 ea 3d 28 ad 64 3d 84 7c e3 bc 81 0d a8 bd
       0.11429644 0.055829197 -0.027769335 -0.08205701
000360 6a ba 95 bd 6f d6 a7 3d 47 00 f8 3c 62 d2 0f 3d
       -0.07310946 0.08195197 0.03027357 0.035112746
000370 55 1f 5f bd 42 4d 49 bb bb b2 8c bd 04 90 25 3d
       -0.05447324 -0.0030716215 -0.06870028 0.040420547
000380 c0 03 97 bc c8 53 3a 3d 55 d2 11 ba 67 67 65 bc
       -0.018434405 0.045490056 -0.0005562653 -0.014001704
000390 9a 72 24 bd 78 4a 83 bd 4f b0 bd bd 79 dd 03 3d
       -0.040148355 -0.06410688 -0.09262144 0.032193635
0003a0 c1 85 67 3d 3b ae b2 3c 8a 28 8d 3d 01 1f 54 bd
       0.056524042 0.021811595 0.06892498 -0.05178738
0003b0 be 61 ee bc 97 0e 98 3d aa 7f 40 3c 43 ad 37 3d
       -0.029099341 0.07424658 0.0117491875 0.04484297
0003c0 19 13 c1 bc d8 c2 1b 3d f5 5f 33 b8 ea e9 95 bc
       -0.023568677 0.038027614 -4.2766293e-05 -0.018300015
0003d0 1f 3d a1 bd 20 a1 9c 3d 18 13 2a bd b5 10 7c bd
       -0.07872986 0.0764792 -0.041522115 -0.06153937
0003e0 16 33 7d bd 25 d7 c2 3b d1 bf 35 bd 5b 3c 21 3d
       -0.061816297 0.0059460574 -0.044372384 0.0393642
0003f0 a9 ca e4 3c 88 c2 4c 3d d8 a7 32 3d df d0 b9 bd
       0.027928667 0.049990207 0.0436171 -0.09073042

net.4.weight f4 [256, 256]
000000 34 04 02 bd 4e 0f 95 bd 74 0f bc bc 2e 92 e7 3c
       -0.03174229 -0.0727831 -0.022956587 0.028267946
000010 0a bf 3a 3d 1e 07 9e bb 2c 35 33 bb 42 af 22 3d
       0.045592345 -0.004822626 -0.0027344925 0.03971792
000020 7f 94 6b bd ab 84 d2 bc cd 18 e5 3c af 8e 87 bd
       -0.057514664 -0.025698027 0.027965927 -0.066190116
000030 60 68 b8 bc 6b 16 17 bd 50 1a 52 bd 85 9c 5f bd
       -0.022510707 -0.036886614 -0.051294625 -0.054592628
000040 c0 bb b5 3c 7b 7b a2 3c db 09 33 3d 99 cc 44 bd
       0.022184253 0.01983427 0.04371057 -0.048046682
000050 d8 06 8f 3c 36 57 c6 3c 2b ba e1 bc 86 af 15 3c
       0.017459318 0.024211507 -0.027554592 0.009136086
000060 f0 3a 8b 3c 30 52 87 bd 86 ee 2b bc 82 ec df bc
       0.016995877 -0.06607473 -0.01049388 -0.027334455
000070 ad f7 aa 3c b4 bd ae 3c 25 8b 3b bd 03 32 ac bc
       0.020870054 0.021330692 -0.045786995 -0.021019941
000080 93 4c e3 3c 16 83 dd 3c 70 e0 43 bd cd 04 7f bc
       0.027746474 0.027040046 -0.047821462 -0.015565109
000090 d1 55 a8 bc 43 99 d9 bb ed 9c 49 bb 52 13 aa bc
       -0.020548733 -0.0066405847 -0.00307637 -0.020761166
0000a0 e3 4f b5 bc e6 ae 6b bd 84 1b 15 3d 2d 9a b7 3c
       -0.02213282 -0.057539843 0.036403194 0.022412384
0000b0 9e 0c c2 bc c7 de 12 bc 96 b9 fe bb 3d 10 ad bc
       -0.023687657 -0.008964247 -0.0077735884 -0.021125907
0000c0 23 62 93 bc 14 83 70 bb 76 79 85 bd 19 58 89 3c
       -0.017991131 -0.0036699222 -0.065173075 0.016765641
0000d0 cf 52 23 3d 99 87 63 bb ef 7b 21 bd c3 82 02 3d
       0.039873894 -0.0034718274 -0.039424833 0.031862985
0000e0 7f 9e 4f 3d a9 2d 01 3d 99 b1 94 3b 8c 01 8e bc
       0.050688263 0.031537686 0.004537773 -0.017334722
0000f0 b3 e5 b2 3c 37 25 1a 3d de a6 1e 3d 8c ed 83 39
       0.021838045 0.037633147 0.038733356 0.00025163253
000100 02 48 bd bc 79 07 22 3d ee 65 cd bc e3 9a 34 bd
       -0.023105625 0.039557908 -0.025073018 -0.044093024
000110 9c f8 af 3b 3c 53 94 ba 9b 45 9b bd f3 95 ae bc
       0.0053702127 -0.001131631 -0.075816356 -0.021311736
000120 22 89 8f bc 0d a9 16 3d 2b 66 9a 3c 91 aa 56 bd
       -0.017521445 0.036782313 0.018847546 -0.05240876
000130 90 ec 11 3d ca cf 57 bd cd 92 1e 3d c7 1f e9 bc
       0.035625994 -0.052688397 0.03871422 -0.028457535
000140 99 4d ea bc 39 45 cf bc 9b 53 8f 3c ae 10 b1 3c
       -0.028601455 -0.025301563 0.01749592 0.021614399
000150 cd 56 23 bd 39 68 29 3c 52 3a 5a bd 7c cf c8 bc
       -0.0398777 0.01033979 -0.053278275 -0.024512999
000160 ec 2b 85 bd df 3f 18 3d 18 7e 77 bc 15 2b 03 bd
       -0.06502518 0.037170287 -0.015105747 -0.032023508
000170 6b 50 c3 3c f5 af 93 bd cf 48 d6 3c 8f e7 61 bc
       0.023842057 -0.072112955 0.026157765 -0.013788118
000180 1a bf 8b bd de da 24 3b ac 79 f5 bc 4f 9f 1e bd
       -0.06823559 0.002515487 -0.029965244 -0.038726147
000190 f9 c7 bd 3b 7d 67 21 ba 9e 96 57 bd 6b 49 0e bd
       0.005791661 -0.00061570836 -0.052633874 -0.034737986
0001a0 a2 27 21 3d 69 c9 95 3c ec 13 98 bd c4 91 e1 bc
       0.039344437 0.018284516 -0.07425675 -0.027535327
0001b0 ce 0d 78 bd ad 53 74 bc 11 a0 c4 bb e6 f5 0e 3c
       -0.06056004 -0.014912528 -0.0060005267 0.008725619
0001c0 f0 fa c9 bc f9 40 1c bd c4 de 0f 3d 9a fb 3e 3d
       -0.02465579 -0.0381479 0.035124555 0.046626665
0001d0 04 86 78 bd f7 ad 34 bd 44 f3 f3 bc dd 2d 2d bd
       -0.060674682 -0.04411122 -0.029779084 -0.042280067
0001e0 0f 1e 6b bb 44 af 0c bd 23 ef ca bc 8a 7f 1c 3d
       -0.003587607 -0.034346834 -0.024772232 0.03820757
0001f0 cf 49 5a 3c d2 3e b8 bc 3f 20 28 b9 9f 51 9a bc
       0.013323261 -0.022490893 -0.00016033741 -0.018837748
000200 32 95 7a bb 4b 25 27 bd 5d 96 84 bd 2e 8e 1f 3c
       -0.00382359 -0.04080705 -0.06473992 0.009738488
000210 8b ce 81 bd dd e3 6b bd a3 8e 4b bd 3f f3 8b 3b
       -0.06338223 -0.057590354 -0.049696576 0.0042709406
000220 a2 13 7a 3b 74 5f 78 bd b0 de 10 bd e0 40 4b 3b
       0.0038158675 -0.060637906 -0.03536862 0.003101401
000230 03 08 5e bd 9f d6 07 3c 42 e8 8f bd 69 16 5a bd
       -0.05420686 0.008290916 -0.070267215 -0.05324403
000240 62 9b 2b 39 72 60 c5 bc 3f 79 83 bd 5c 14 93 bd
       0.00016365715 -0.02409384 -0.0641961 -0.071816176
000250 a1 6f 2b bc d7 cb a9 3c 7f 2a 70 bd 17 dc bb 3a
       -0.010463626 0.020727081 -0.058634277 0.001433256
000260 7f 68 84 bd 71 c8 0a bd 67 ad d6 3c 03 55 07 3b
       -0.064652435 -0.033882562 0.026205732 0.0020650036
000270 38 44 0c 3d 21 da 44 3d 5e af 17 3d 92 55 01 3d
       0.034244746 0.048059586 0.037032478 0.031575747
000280 a5 33 df 3c d7 b7 5e bd 8e 57 09 3d f4 54 f8 3c
       0.027246306 -0.054374542 0.033530764 0.030313946
000290 a2 37 af bc 32 54 28 bd b8 f7 48 3c b5 6d 64 bc
       -0.021388832 -0.04109592 0.012266092 -0.013942172
0002a0 f4 1a 4a bd 16 88 4e bd bf fb b0 3c 59 21 1c 3d
       -0.04934211 -0.05042275 0.021604417 0.03811774
0002b0 d6 cb c8 bb 39 73 1c 3d 22 0d 9b bd 7a cf 53 bd
       -0.0061278148 0.038195822 -0.07570864 -0.051711537
0002c0 2e 55 35 3d 0f a1 db 3b 15 15 44 3c 2b 82 4a bc
       0.044270687 0.0067025493 0.011967917 -0.012360136
0002d0 ba 06 91 bd 46 15 4b 3d b7 45 33 bd 62 80 38 3d
       -0.07081361 0.049580835 -0.043767657 0.04504431
0002e0 3d 4f 06 3d 7d 63 55 bc c4 39 dd 3c 68 a3 f6 bc
       0.03279041 -0.013024208 0.027005084 -0.030107215
0002f0 8a c0 31 bd f1 9c 97 bd 7e 2e 4f bd 07 3b 5e bc
       -0.04339651 -0.07402981 -0.050581448 -0.013563878
000300 80 a3 6a bd 04 10 f5 bc 6b 94 54 3c 93 69 93 bd
       -0.057284832 -0.029914863 0.012974839 -0.07197871
000310 07 a9 bd 3b 48 5c aa 3c 7f 30 59 bd 78 9d 48 bd
       0.005787972 0.020795956 -0.053024765 -0.0489783
000320 eb 3a c3 3c ef e7 2b bd d1 80 09 3d e3 e9 69 bc
       0.023831805 -0.041969236 0.033570115 -0.014276954
000330 ef d9 28 bd 84 38 8c bd c5 17 59 3c 15 57 c0 3c
       -0.041223463 -0.06846717 0.013250296 0.023479024
000340 98 f7 e6 3c 42 2f 63 3c b9 49 db 3a e9 99 37 3d
       0.028194234 0.013866248 0.0016730345 0.044824515
000350 cd 54 0d bd e5 ba eb 3c 6c 3f 2b 3d 7f 23 2d bc
       -0.0345047 0.028775642 0.04180853 -0.010567545
000360 a7 ad 04 3c 12 f5 8a bc 9c 17 dd 3c 02 eb 2d 3d
       0.008098043 -0.016962562 0.026988797 0.04246045
000370 63 02 05 3c 70 c8 49 bd 9d dd fb 3b e2 ac b3 bd
       0.008118245 -0.049263418 0.0076863305 -0.08773209
000380 f1 93 57 bc b5 f9 d4 39 14 c0 77 b9 3b 5d 8e bd
       -0.013157831 0.00040621837 -0.0002362731 -0.06951376
000390 e5 ce b0 ba 3e db 2c bd db 40 8f bd 8e 6c f8 3c
       -0.0013489394 -0.042201273 -0.06994792 0.0303252
0003a0 15 1d 1a bc 30 24 9c bd 9c 89 d0 bc 6b 90 85 bd
       -0.009406348 -0.0762409 -0.025456242 -0.06521686
0003b0 81 11 57 bd ef 25 76 bd e8 21 f4 3a ef 17 4e bc
       -0.052506927 -0.06009477 0.0018625828 -0.012578948
0003c0 39 3f dc bc 07 b0 ec 3b 55 80 43 bd 92 8d 07 bd
       -0.026885616 0.0072231325 -0.04772981 -0.033093996
0003d0 e7 7b 39 3c 71 80 2d bd a4 0c e8 bc 23 5b 6c bd
       0.0113210445 -0.04235882 -0.02832634 -0.057704102
0003e0 aa 97 45 bd 05 87 68 bc 05 0b bb 3c 75 a0 88 bd
       -0.04824034 -0.014192347 0.022832403 -0.0667123
0003f0 e3 9a 90 bd 40 22 f9 bc 62 15 c5 ba 4b 01 64 3c
       -0.07060792 -0.03041184 -0.001503628 0.013916324

net.4.bias f4 [256]
000000 7b f6 d6 bc 8a 7b 18 3d 11 83 01 3d 31 e0 01 bd
       -0.026240578 0.03722719 0.031619135 -0.031707946
000010 0c 0b 5f bd b3 7a 63 3c a4 da 6a bb 0e d9 78 bd
       -0.054453894 0.013884234 -0.0035835886 -0.060753874
000020 f0 10 04 bd 14 38 90 bb c3 ab c5 3c d0 70 52 bd
       -0.032242715 -0.0044012163 0.024129754 -0.051377118
000030 c5 3d 4e bd bb f4 0a 3d 5a c1 ea bc 8e 61 89 bd
       -0.050351877 0.0339248 -0.02865665 -0.0670806
000040 a3 af b3 bb 7b ad e8 3c 87 16 8b bc 63 48 68 bd
       -0.005483584 0.028403034 -0.016978515 -0.05670966
000050 a3 85 fd 3c 0c 25 b0 3c 30 5b 37 bd 18 67 dd 3c
       0.030947512 0.02150204 -0.044764698 0.027026698
000060 dd b4 da 3b 3b 8b 87 bd f0 2e 15 bc fa 92 2b 3c
       0.0066743926 -0.06618353 -0.009105429 0.010472054
000070 7e 08 0c 3a 40 0a 76 3c e9 60 7c 3b e2 f5 f5 bc
       0.00053418416 0.015017092 0.0038509911 -0.030024473
000080 06 79 24 bc f9 46 05 3d 3f fe 29 3d c1 5d 45 3d
       -0.01003862 0.032538388 0.041502234 0.048185114
000090 94 73 0c bb c2 05 94 bc 6c af 18 3d 90 12 84 bd
       -0.0021431195 -0.018069152 0.03727667 -0.06448853
0000a0 36 f1 9b 3c 11 fa 10 3d 28 48 07 3d ec 4e 3b 3d
       0.019035917 0.035394732 0.033027798 0.045729563
0000b0 5f ee f1 3c 36 3b 3d 3d 6d 60 07 3d cf 78 11 3b
       0.02953261 0.046199046 0.033050943 0.0022197252
0000c0 8d 79 fc bc ec 1a 5f bd 04 87 88 bd 4e 71 8a bb
       -0.030819679 -0.054469034 -0.06666377 -0.0042249328
0000d0 c5 d6 15 3d fe 26 84 3b d7 ca f5 3c 9d 00 3d 3c
       0.036581773 0.0040329685 0.030003948 0.011535791
0000e0 b9 7e 76 bb f2 45 0e 3d c0 96 a6 bc e3 76 ae 3c
       -0.0037612154 0.034734674 -0.020335555 0.021296924
0000f0 43 46 57 bc 21 fb af 3c c4 d0 4b bd c3 17 f2 bb
       -0.01313931 0.021482052 -0.04975964 -0.0073880865
000100 d7 c4 7c bd c4 cd 0e bd e6 7f e0 3c 0f 73 91 bd
       -0.06171116 -0.034864202 0.027404737 -0.07102024
000110 37 1f 6a bd 48 30 41 bd 71 67 ac 3c 2d 48 f4 bc
       -0.057158675 -0.047165185 0.021045418 -0.029819572
000120 c9 73 be bc 40 af cd 3c c7 ff 63 3d 5f 7b ed 3c
       -0.02324857 0.02510798 0.05566385 0.028989492
000130 7a 7b 87 bd ef 25 a6 bc 7a 7c 3c bd 09 ca ae bb
       -0.06615348 -0.02028176 -0.046017148 -0.005334143
000140 e9 49 c9 3c 97 b8 ab 3b 4a 48 39 bd fe 61 4f 3d
       0.024571376 0.0052405107 -0.045234956 0.050630562
000150 cb 69 91 3c 4e 64 80 bc 6c 33 b8 3c b5 29 06 3d
       0.017750641 -0.015672829 0.022485457 0.03275462
000160 01 c3 0c bc 60 05 1c bd 24 53 f8 bc 8b eb 5f 3d
       -0.008591414 -0.038091063 -0.030313082 0.05466799
000170 d0 f3 45 bc 35 05 d8 3c a4 f8 8c bd 9f ba 56 3d
       -0.012082055 0.02636967 -0.06883362 0.05242407
000180 b8 f1 1d bc 8d 36 b1 bc c7 fc 3b 3c 66 7d 4a bd
       -0.00964015 -0.021632457 0.011473841 -0.049435996
000190 b6 b1 8c bd 16 2c 65 bd 8b 1c 4d bd cc 97 ca 3a
       -0.06869833 -0.055950247 -0.05007605 0.0015456616
0001a0 e3 42 22 bd a0 07 1f 3d 44 99 3e bd 9f d0 00 3d
       -0.03961457 0.03882563 -0.046532884 0.031448957
0001b0 47 96 69 bd fa 8f 15 bc 55 c7 f7 bb a0 f8 b8 bc
       -0.05702808 -0.009128565 -0.007561604 -0.022579491
0001c0 1a df 6f 3c 8e 02 b4 3b 69 f2 02 bd 0f 26 0f bd
       0.014640594 0.0054934686 -0.03196946 -0.034948405
0001d0 61 b6 a0 3b 99 93 c7 3c 3a 9f c3 39 27 f9 8a bc
       0.0049045538 0.024362372 0.0003731193 -0.016964508
0001e0 da 66 f1 3c 54 f1 c9 3c 71 db 1d 3d cd c2 03 3d
       0.029467989 0.024651207 0.038539354 0.0321682
0001f0 5d bb 2a bd 6c 02 aa 3b 3e 03 a6 3c 07 94 f2 bc
       -0.04168259 0.005188277 0.020265218 -0.0296116
000200 7c 73 63 3c f2 bb af 3c 1b 58 40 bb 8d b9 e8 3c
       0.013882514 0.021451924 -0.002934939 0.02840879
000210 96 9b 5f bd ac 6a 03 bc b2 4a 8f 3c 20 8e d3 3c
       -0.054591738 -0.008021038 0.017491672 0.025824606
000220 41 89 0b 3d 12 07 6a bd 32 ff 48 bd 3f e3 74 bb
       0.034066442 -0.05713565 -0.0490715 -0.0037366895
000230 6d 72 94 bc 24 b3 5a bd 6f 46 df bc 84 ef 51 bd
       -0.018120969 -0.053393498 -0.027255265 -0.05125381
000240 b0 e7 0f bd b1 2f 0b bd ee bc 36 bd 80 aa fc bc
       -0.035133064 -0.03398103 -0.04461377 -0.03084302
000250 d7 66 d5 bc 9d 72 db 3c ba d3 dd 3c a4 bd 19 3d
       -0.026050014 0.02678805 0.027078498 0.03753437
000260 da 4b 65 bd d8 2c 95 bc 7f 3f 35 bd 7e dc ba 3c
       -0.05598054 -0.01820986 -0.044250008 0.022810217
000270 3a 7c 0a bd dc e3 50 bd 4d 54 8e bd 46 f1 80 bd
       -0.033809878 -0.050998554 -0.06949673 -0.06296019
000280 b7 52 30 3d 6e f6 36 bd 17 e5 19 3a 35 f5 1d 3c
       0.043047633 -0.044668607 0.0005870624 0.009640981
000290 ba 5b 3e 3c 06 a8 2e bd 59 9d 62 bd cd 05 cb bc
       0.011618549 -0.04264071 -0.05532584 -0.02478304
0002a0 11 2b 1f 3c 7b 0a bd 3b 78 45 2e 3c 57 43 82 3c
       0.009714858 0.0057690716 0.01063668 0.01590125
0002b0 9a 7b 31 3d 80 42 7d bd 54 e2 00 3d d4 27 c4 bc
       0.043330766 -0.061830997 0.031465843 -0.023944773
0002c0 ee 01 5c 3c 15 86 2f 3d cb 44 06 bd 24 fb 13 bd
       0.013428194 0.04285248 -0.03278045 -0.03612818
0002d0 ac 9e 72 bd 13 b0 17 3b 36 1d 29 bd b0 9b 2c 3d
       -0.059233353 0.002314572 -0.041287623 0.042140663
0002e0 9a cb 29 bd 9a 7e f0 bc 2e 83 89 bd 3c 6e 3d bd
       -0.041453935 -0.029357243 -0.06714474 -0.046247706
0002f0 25 7b 91 bd 53 47 06 bd 82 3e 24 3d 93 21 53 bc
       -0.07103566 -0.032782864 0.040098675 -0.012886423
000300 38 c2 7d bd fc 44 0b 3c 44 d1 c3 bc 3f 0f 2e 3d
       -0.0619528 0.008500334 -0.023903497 0.04249501
000310 1e 55 7a bd 7c c1 17 bc 44 ad f3 3c 2c da 6d 3d
       -0.06111633 -0.009262439 0.029745705 0.058069393
000320 02 db 27 3d 73 d2 31 bd d0 d0 d9 bc 73 cd 89 bd
       0.040980347 -0.04341359 -0.026588827 -0.067286395
000330 4b 56 e4 3c 84 ff 90 bc cd b5 55 3d a3 3d 18 3c
       0.027873179 -0.017699964 0.05217533 0.009292039
000340 df 76 2a bd 60 3e 4b bd 12 0e b1 3c 43 3b 62 bc
       -0.04161727 -0.049620032 0.021613155 -0.013808074
000350 27 e2 19 3d 30 6d 34 bd 2d aa 84 bd 8e 83 42 3d
       0.03756919 -0.04404944 -0.06477771 0.04748874
000360 79 2c 85 3c e7 00 0f 3d ed 12 52 bd 17 12 b4 3b
       0.016256558 0.03491297 -0.05128758 0.0054953205
000370 e9 69 1a bd cc 7d 45 3d ae e8 a3 3c 27 ee c6 bc
       -0.03769866 0.048215672 0.020008411 -0.024283482
000380 16 e4 89 bd e5 42 d4 bc 51 18 48 3c ac 88 51 3c
       -0.06732957 -0.025910804 0.012212829 0.012788933
000390 5d 24 26 bd 83 de 40 bd 34 83 63 bd 76 71 fc 3c
       -0.040562022 -0.047087204 -0.055545047 0.030815821
0003a0 2e d4 89 bc 6e 47 a6 bc 01 a4 d3 bc 75 5c b0 3c
       -0.016824808 -0.020297732 -0.02583504 0.021528462
0003b0 cf eb ea ba 97 60 90 3c de a9 4e 3d 00 c1 6e ba
       -0.001792306 0.017624183 0.050454967 -0.0009107739
0003c0 53 ac 18 3d 02 99 b9 3c 10 23 87 bd 74 e5 ca 3c
       0.037273716 0.022655968 -0.065984845 0.024767615
0003d0 e8 bc 0d bb f7 40 ec bb b2 d8 b0 3c ff cf ca bc
       -0.002162749 -0.007209893 0.021587703 -0.024757383
0003e0 b2 bb 76 bc 88 5a 31 bd 68 4e 03 3c 21 03 5c bd
       -0.0150593985 -0.043299228 0.008014299 -0.05371392
0003f0 a9 ad bf 3c 9c 31 04 bc 2a 72 b1 3c c1 e9 11 3d
       0.023398237 -0.008068468 0.021660883 0.035623316

net.6.weight f4 [256, 256]
000000 97 7b 83 3c 1b b1 2d 3c b0 93 99 3c de 3a 1f 3d
       0.016050143 0.010601307 0.01874718 0.0388745
000010 d1 8d 99 3c 0b df 19 bc 76 eb 55 bd a7 af 71 bd
       0.018744381 -0.0093915565 -0.052226506 -0.059005406
000020 8d 1a 21 ba 06 75 e3 3c 42 3a 55 3d b7 b5 27 3c
       -0.0006145619 0.027765762 0.052057512 0.010236195
000030 27 6e de 3c 35 9f 9a bd a4 0c fd ba b4 54 3c bd
       0.027152134 -0.075498976 -0.0019306135 -0.045979217
000040 f5 d9 33 3d a5 7f 73 bd 87 77 37 3d 53 17 cc bc
       0.043909032 -0.059447903 0.044791725 -0.024913466
000050 9c 6b 10 bd 04 84 fb bc 2d 39 29 3b 50 61 1d bd
       -0.035258874 -0.030702598 0.0025821433 -0.038422883
000060 74 3b 88 bd b9 da 64 bd 39 ff 9a 3c 89 94 67 bd
       -0.06651965 -0.055872653 0.018920528 -0.05653814
000070 71 1b 8e bd b0 01 1f 3d 61 a1 8e bd 24 bb d6 bc
       -0.06938828 0.03881997 -0.06964374 -0.026212282
000080 49 76 f4 3c 91 86 97 bb b8 dc 27 3d b9 00 8f 3c
       0.029841559 -0.004624196 0.04098198 0.0174564
000090 d1 53 35 bd 7c 9e 5d bd 84 73 90 b8 4e 6f 47 bd
       -0.044269387 -0.05410622 -6.8879715e-05 -0.048690133
0000a0 98 74 3c 3c 69 e7 06 bd 7c c1 dd bc e5 a2 9d bc
       0.0115024075 -0.032935534 -0.0270698 -0.019242713
0000b0 46 c0 7f bd 63 70 a2 bc f9 4a 0d 3c 94 7e 9b bb
       -0.062439226 -0.01982898 0.008623832 -0.004745314
0000c0 8d 7d b4 3c 84 80 59 3d 0d e8 84 3b 92 d7 0c bd
       0.022032524 0.053101078 0.004055983 -0.03438527
0000d0 31 51 9d bb b2 b7 5b bd af 61 15 bd be 4c 8a bd
       -0.0048009385 -0.053641982 -0.03647011 -0.06752919
0000e0 3a 69 6c bd 9e eb 25 bd b4 06 48 3d 1c 96 85 bb
       -0.05771754 -0.040507905 0.048834518 -0.0040767323
0000f0 b9 a8 67 bb 66 8a 48 3d 86 71 4a bd b5 32 be 3c
       -0.003534837 0.048960112 -0.04942467 0.023217538
000100 cd 85 65 bd 01 d9 b0 bb 1d d2 25 bd 2f 84 08 bc
       -0.056035805 -0.0053969626 -0.040483583 -0.008332296
000110 79 f9 a8 3b c3 04 0c 3c 64 1a 7a bd 07 bb 63 bd
       0.0051566926 0.008546057 -0.061060324 -0.055598285
000120 96 65 39 bc 44 74 85 bd 36 cb 16 3d 7a 25 4d 3d
       -0.011315724 -0.065163165 0.03681489 0.05008457
000130 1c 59 8a bd c9 11 01 bd 21 e4 12 3c 2f 58 85 bd
       -0.067552775 -0.031511102 0.008965523 -0.0651096
000140 ee ab 98 bd e8 e2 81 bc 43 43 a9 bc 9e ba 20 3b
       -0.07454668 -0.015855268 -0.020661956 0.0024525295
000150 4d ab 01 bd 9e e4 4c bb fd d5 39 bd c4 da 37 bd
       -0.031657506 -0.0031264196 -0.04537009 -0.044886366
000160 35 c2 04 bd 17 07 f1 bc 8e 8a 3c 3d 4b b7 4e bd
       -0.032411773 -0.029422326 0.046030574 -0.05046777
000170 3b 21 4c 3d 4d d5 2f 3c b7 c4 95 bc 69 94 31 3d
       0.04983638 0.010732007 -0.018282278 0.043354426
000180 b7 a3 33 bc 0f 40 e2 3c c3 52 1a bd 3a 6d 1d 3d
       -0.010964326 0.027618436 -0.037676584 0.038434245
000190 6f 7d 37 bd 4f d8 31 bd d5 da af bb 99 ec 2c bc
       -0.044797357 -0.04341918 -0.005366663 -0.010554456
0001a0 7b ff 65 bd bd 24 39 bd e0 91 0b 3d 07 3f 23 bb
       -0.05615185 -0.045201052 0.034074664 -0.0024909393
0001b0 03 5a 63 bd e9 44 fc bc cc b5 a2 bc 4b cb 52 3d
       -0.055505764 -0.030794578 -0.019862078 0.051463407
0001c0 99 25 b7 bc b8 1c d6 3c 76 73 61 bd 97 fa a7 bc
       -0.022356795 0.026136741 -0.055041753 -0.020505233
0001d0 53 5d 46 3c eb 76 56 3d 45 89 66 bd 85 6d 81 3c
       0.012107211 0.052359503 -0.056283254 0.015799293
0001e0 f2 5f 24 3d df 23 42 bd 5b 38 5b bd 9c d5 77 bc
       0.040130563 -0.04739749 -0.05352054 -0.015126612
0001f0 0c 05 0b bd 69 70 97 bd b6 26 0f bd 6d 66 93 3a
       -0.03394036 -0.073944874 -0.034949027 0.0011245735
000200 40 b5 39 bd 21 fb cd 3c 11 79 35 3d 2a 16 f9 bb
       -0.04533887 0.025144162 0.04430491 -0.007601519
000210 b6 36 03 3d cd 55 3d 3d b8 b8 1e 3c 52 3a bb 3c
       0.0320346 0.046224404 0.009687595 0.022854958
000220 ac ae 8c 3c e0 56 01 bc 81 da 41 bd 49 3c 60 bc
       0.017173134 -0.007894248 -0.047327522 -0.013686248
000230 d1 d0 3c 3d 0e 35 ec 3a 7e 45 43 3d 22 30 b8 bc
       0.04609758 0.0018021183 0.047673695 -0.022483889
000240 ae ad 19 bc 06 9d 7b bd 03 9f 1e bd b4 a0 01 bd
       -0.009379787 -0.061429046 -0.038725864 -0.0316474
000250 c3 95 96 bc b8 ed 48 bd 0b a0 03 3d d2 51 38 bd
       -0.018381959 -0.04905483 0.03213505 -0.044999905
000260 d6 92 19 bd 82 20 94 bc cd 2e 2b bc 37 91 f1 3c
       -0.03749355 -0.018081907 -0.01044817 0.02948819
000270 9d 00 10 bd 70 f3 10 3c b3 ba 19 3d de dd a0 bc
       -0.035156835 0.0088471025 0.037531566 -0.019637045
000280 8c df 37 bc 6e a9 26 3d 59 78 1c 3d 37 96 b6 3c
       -0.011222731 0.040688924 0.03820071 0.022288425
000290 07 fc e8 bb 4b 95 e5 3b 41 0b 75 bd 86 31 93 bd
       -0.007110122 0.0070063225 -0.059825186 -0.0718718
0002a0 44 d2 f9 bb 39 0d 59 3d 4c 1e ad bc bd a3 69 bd
       -0.0076239426 0.052991126 -0.02113261 -0.05704092
0002b0 69 4b 20 bd 53 6d 41 bd 19 aa 35 3c 30 2b 78 39
       -0.039134417 -0.0472234 0.011087918 0.00023667212
0002c0 04 cd 86 bd 7a 15 87 bd 7c 0b 8f bd f7 eb c6 bb
       -0.065820724 -0.06595893 -0.06984612 -0.0060706097
0002d0 3b 36 aa bc 23 b2 1c bd 25 b1 11 3d 61 1f 8e ba
       -0.020777812 -0.038255822 0.03556933 -0.0010843092
0002e0 fc cc 59 bd 4b 0d f9 3c 53 b8 d3 bc b8 e2 96 3b
       -0.053174004 0.030401846 -0.025844729 0.0046046637
0002f0 54 9b 04 3b 05 85 f4 3a e6 52 12 bc 3e af 84 3b
       0.0020234184 0.0018655366 -0.008930897 0.004049211
000300 68 40 fe 3c 77 74 71 bd ea 3d bb bc 5e 85 75 3c
       0.03103657 -0.05894896 -0.022856671 0.0149854105
000310 ff 45 24 3d bc 7c c0 3c ab 39 80 bd 6c cc 49 3c
       0.040105816 0.023496978 -0.06260999 0.012316804
000320 7f f9 9b bc bd 7c 89 bd 16 e6 5d 3b 7a 9c 76 bd
       -0.019039867 -0.06713245 0.0033859066 -0.06020782
000330 db ee a4 bc ba e9 8d bb 07 9f 4f bd 37 6f 05 bd
       -0.020133426 -0.004330841 -0.05068877 -0.032576766
000340 5a 4c 09 bd e9 ce 30 bd 63 d7 81 bb 73 29 d8 3c
       -0.03352008 -0.043166075 -0.0039624437 0.026386952
000350 8a 0f 25 bd f4 91 26 bd ef f1 8e bc d8 5c 7e bd
       -0.040298022 -0.040666535 -0.017449347 -0.06210026
000360 93 2f 95 bd f2 40 ed bc c5 bb e8 3b 04 64 6b 3d
       -0.07284465 -0.028961632 0.007102462 0.05746843
000370 b5 5a 77 bc 3b b6 ad bc 0c 78 45 3d eb c8 3f 3d
       -0.01509731 -0.021205058 0.04821019 0.04682247
000380 ed 4e 95 bd c2 0d 32 bd f7 12 04 bd da 22 49 bc
       -0.072904445 -0.04347015 -0.03224465 -0.012276376
000390 28 98 2f 3d 4f 7f 65 bb d3 85 9b bd 42 66 8b bd
       0.042869717 -0.0035018509 -0.07593884 -0.068066135
0003a0 ea 85 2b 3d a5 78 77 bd 01 79 3a 3c f5 50 d2 bb
       0.041875757 -0.06041779 0.011381389 -0.0064183422
0003b0 e9 d3 03 bc 0f b6 ab 3c 62 3e dc 3c f1 bd 96 bd
       -0.008046129 0.020960836 0.026885215 -0.07360447
0003c0 ad ce 47 3d e6 86 c5 bc b7 6b ff b8 05 33 b8 3c
       0.048781086 -0.024112176 -0.00012179411 0.022485266
0003d0 72 88 89 bd ca 52 5d bd e6 b5 2b bd a1 43 df 3c
       -0.06715478 -0.054034032 -0.04192152 0.027253928
0003e0 87 85 5e 3d 74 33 7c bd c6 19 07 bd 04 db 43 bd
       0.05432656 -0.061572507 -0.032983564 -0.04781629
0003f0 e3 1e 70 bd 8e 17 37 bd d6 f2 4b 3d 9a ab 19 3b
       -0.058623206 -0.044700198 0.049792133 0.002344823
